Project2_continuous_control/checkpoint_critic.pth (torch_old, 308649 bytes, 9 tensors)

fcs1.weight f4 [256, 33]
0.04022303 0.023869308 0.016732117 0.016253347 -0.00889211 0.48791823 -0.017774537 0.0036671988
0.022813557 -0.08866927 0.012521 0.027140116 0.004411003 -0.05963592 0.0248409 0.024056874
-0.015685454 -0.20749 0.34999883 0.23961993 -0.017232405 0.0057357666 0.008499432 -0.024978014
0.031016596 0.013692672 0.044560123 0.0022227326 -0.032136355 0.014435045 0.00942541 0.009701572
-0.23960198 -0.004468874 0.0015065203 -0.04558816 -0.17224464 -0.108112454 0.09725258 0.2716361
-0.01253977 0.06085369 -0.037833735 0.009856276 -0.004913018 -0.0075073154 -0.0030690318 -0.019291911
0.019347435 0.044993367 -0.024187163 0.022569407 0.07911669 -0.003484668 -0.0030359358 0.0039184256
-0.0083939135 -0.014432853 0.007078344 0.0097138425 0.11420385 0.02673401 -0.05640652 -0.12848215
0.03968168 0.8294168 0.020605555 0.036076523 0.013685513 -0.044585947 0.14970984 -0.061550207
0.14460066 0.010030151 0.0074042743 0.054907653 0.003392094 0.017322995 0.0022450457 0.024930777
-0.0201908 0.08274784 -0.23363459 -0.022781808 0.11919299 -0.14234532 0.017517801 0.041333478
-0.018005867 0.037102733 -0.01019159 -0.015098139 -0.067996986 0.08155086 -0.21106055 0.01564075
-0.09438559 -0.027799495 0.06704112 0.13192268 -0.019719465 0.045438334 0.07913882 -0.006470563
0.1973024 -0.31875843 0.010858816 0.066347376 -0.044237465 -0.026858136 -0.024071982 0.041741308
-0.056485765 0.082987875 0.006495769 0.014635371 -0.07374247 -0.05157785 0.043462787 0.076073825
0.025094794 -0.09430524 0.030922832 -0.03117432 -0.038902592 0.0011236591 -0.057809424 0.021408763
0.060781397 0.09312765 0.04348994 0.31204298 -0.0067273667 0.033822134 0.03191594 -0.0057316013
-0.017174367 0.14990714 0.006414655 0.0022711721 0.020605238 0.03809936 0.002377478 0.007835392
0.0017337196 -0.0023242945 0.009452694 0.0054268935 -0.02462818 -0.026387515 -0.06384049 -0.06719973
-0.016258359 -0.00695777 0.012268008 0.004677921 -0.0022343004 0.00095136947 0.096492685 0.14319137
-0.07058023 -0.025837794 -0.12724663 0.018555894 0.7037148 -0.083661534 -0.026363531 -0.027911147
-0.03689459 -0.22314635 -0.29862317 0.1481367 -0.0481211 0.07675837 0.034943506 -0.01501094
-0.01262912 -0.027785067 -0.00094501197 0.098815784 -0.038489446 0.20126872 0.13742371 0.36071166
0.23544115 0.020213936 -0.010306971 -0.06069545 -0.025576085 0.07127841 -0.049032856 -0.016124165
0.014921855 0.074256904 0.056599602 0.039978992 -0.048932396 0.10394812 -0.03249169 0.1346735
-0.112163074 -0.057651382 -0.09277549 -0.0018482474 -0.08003166 -0.003916258 -0.021547643 0.059075665
-0.013454474 0.045249194 -0.019050844 0.04082352 -0.12671018 0.132475 -0.08818682 0.08630986
-0.08384203 0.02775734 -0.0119643435 -0.009480605 0.0075309146 0.019839196 -0.09059993 0.035602108
-0.009097416 -0.0025143223 -0.07430301 -0.006600246 -0.0045564524 0.022910886 0.02708746 -0.0364727
-0.055177875 -0.011090056 -0.0017098776 -0.058404118 -0.07657217 0.051458977 -0.018483417 -0.039041936
-0.036261763 -0.010930851 -0.0013665153 0.0005472942 0.023873061 0.010984114 0.02421273 -0.07749567
0.06633666 -0.05262893 0.027593618 0.00063149515 0.0022257504 -0.0014901423 0.0066377716 0.0067251236
00000000: e7c0 243d 9189 c33c cb11 893c bd25 853c
00000010: 36b0 11bc 6bd0 f93e e89b 91bc 6355 703b
00000020: 7fe3 ba3c 3c98 b5bd e124 4d3c f354 de3c
00000030: 2d8a 903b cb44 74bd 257f cb3c ec12 c53c
00000040: c87e 80bc 4278 54be 0c33 b33e ed5e 753e
00000050: f92a 8dbc 19f3 bb3b 3441 0b3c b19e ccbc
00000060: 8416 fe3c 3b57 603c ad84 363d 44ab 113b
00000070: 69a1 03bd f880 6c3c 096d 1a3c 58f3 1e3c
00000080: 395a 75be a26f 92bb 6f76 c53a a7ba 3abd
00000090: e660 30be 106a ddbd 5c2c c73d e313 8b3e
000000a0: 9c73 4dbc b841 793d 8cf7 1abd 387c 213c
000000b0: 62fd a0bb edff f5bb cf21 49bb 120a 9ebc
000000c0: 837e 9e3c f74a 383d 2824 c6bc 7ae3 b83c
000000d0: ee07 a23d 075f 64bb 8df6 46bb 2366 803b
000000e0: a086 09bc c677 6cbc 74f1 e73b cf26 1f3c
000000f0: b5e3 e93d 4801 db3c 860a 67bd d390 03be
00000100: 4289 223d a954 543f fbcc a83c fac4 133d
00000110: 3439 603c c19f 36bd 894d 193e 121c 7cbd
00000120: 3212 143e 8155 243c 8e9f f23b d9e6 603d
00000130: e54d 5e3b f4e8 8d3c 9e21 133b a13b cc3c
00000140: 2d67 a5bc b377 a93d e83d 6fbe eaa0 babc
00000150: 741b f43d f9c2 11be 7e81 8f3c 4b4d 293d
00000160: 0a81 93bc 09f9 173d a0fa 26bc 2f5e 77bc
00000170: 0142 8bbd 2304 a73d 4220 58be 0821 803c
00000180: 3b4d c1bd c4bb e3bc db4c 893d bd16 073e
00000190: b78a a1bc 8c1d 3a3d 8913 a23d 0407 d4bb
000001a0: a409 4a3e 4e34 a3be 2de9 313c 22e1 873d
000001b0: 5832 35bd 9805 dcbc 9b32 c5bc eff8 2a3d
000001c0: 9e5d 67bd 8cf5 a93d 76da d43b 32c9 6f3c
000001d0: 4b06 97bd 4c43 53bd 0906 323d 98cc 9b3d
000001e0: 9993 cd3c 1b23 c1bd e151 fd3c 4a61 ffbc
000001f0: 5358 1fbd be47 933a 93c9 6cbd 6e61 af3c
00000200: eaf5 783d b6b9 be3d 8222 323d 19c4 9f3e
00000210: 3e71 dcbb 1489 0a3d 4aba 023d 28d0 bbbb
00000220: 42b1 8cbc 4281 193e 0732 d23b f2d7 143b
00000230: 51cc a83c 130e 1c3d 76cf 1b3b 0460 003c
00000240: fa3d e33a 3153 18bb 79df 1a3c 15d4 b13b
00000250: 09c1 c9bc a12a d8bc cebe 82bd 03a0 89bd
00000260: 4030 85bc 01fe e3bb c1ff 483c 3f49 993b
00000270: 576d 12bb 5365 793a f59d c53d c2a0 123e
00000280: 5e8c 90bd c8a9 d3bc f14c 02be 8802 983c
00000290: a726 343f bd56 abbd 55f8 d7bc eba5 e4bc
000002a0: c81e 17bd 7a80 64be 23e5 98be 26b1 173e
000002b0: a11a 45bd 7e33 9d3d ec20 0f3d 72f0 75bc
000002c0: 5eea 4ebc 829d e3bc aeba 77ba ee5f ca3d
000002d0: 1ca7 1dbd 6319 4e3e cdb8 0c3e 33af b83e
000002e0: 7c17 713e b297 a53c 92de 28bc cb9b 78bd
000002f0: f084 d1bc 6afa 913d add6 48bd d316 84bc
00000300: cc7a 743c 0114 983d fcd4 673d 03c1 233d
00000310: 566d 48bd c0e2 d43d 0216 05bd dae7 093e
00000320: c1b5 e5bd db23 6cbd 1301 bebd e440 f2ba
00000330: a4e7 a3bd f453 80bb af84 b0bc 53f9 713d
00000340: 2770 5cbc 3857 393d 8410 9cbc 9036 273d
00000350: 50c0 01be 87a7 073e 4b9b b4bd 39c3 b03d
00000360: 5fb5 abbd 5c63 e33c 1806 44bc 8a54 1bbc
00000370: e4c5 f63b cf85 a23c 758c b9bd 84d3 113d
00000380: 540d 15bc 54c7 24bb 2d2c 98bd e046 d8bb
00000390: 4b4e 95bb 9caf bb3c 85e6 dd3c 6664 15bd
000003a0: 3202 62bd 11b3 35bc f91d e0ba 2839 6fbd
000003b0: dfd1 9cbd a6c6 523d 896a 97bc 70ea 1fbd
000003c0: 3787 14bd 5017 33bc a51c b3ba 4b78 0f3a
000003d0: 7091 c33c b7f6 333c c659 c63c 0db6 9ebd
000003e0: 84db 873d 6f91 57bd 030c e23c ec8a 253a
000003f0: e5dd 113b e150 c3ba aa81 d93b 6d5e dc3b

fcs1.bias f4 [256]
0.07924646 0.058158785 -0.13951166 0.19797152 -0.08862824 -0.15347064 -0.21108812 -0.15708579
-0.14487997 -0.07291778 0.0152345365 -0.055754036 0.10953953 -0.20005125 0.055235263 -0.106689624
-0.11749258 -0.11191226 -0.044336874 -0.17803466 -0.05100489 -0.018280344 0.02920479 -0.16573633
-0.06019284 -0.07184096 -0.040579453 -0.049230587 0.044576384 0.01291935 -0.1258859 0.043854848
-0.24694042 -0.14095981 0.073593505 -0.091534555 0.019543173 0.07380702 -0.10038523 -0.06009937
-0.0154259335 -0.129879 0.16621953 -0.13933119 0.02275173 -0.112559654 0.006830435 -0.058316
0.059945263 -0.08862949 -0.18090576 0.041904952 -0.065714985 -0.15254383 -0.1793451 -0.028096844
-0.10233018 0.011887092 -0.06514636 -0.14651796 -0.045002166 0.029248033 -0.1682837 -0.04608464
-0.2179953 -0.19218852 -0.0038115701 0.07051969 -0.08804019 0.037653096 -0.041471507 0.020481413
0.014673066 -0.22358407 0.068690024 0.026992094 0.14833754 -0.13075368 0.05014303 -0.029723993
-0.11480488 0.17515025 0.027164854 -0.017075624 -0.07675468 -0.21841167 0.13856474 0.10786379
0.03488405 -0.08029641 -0.051376972 -0.07446042 0.104940675 -0.109668784 -0.1623568 -0.06804466
-0.015858304 -0.10466327 0.114021376 -0.003143052 0.055342376 -0.05472556 0.093832545 -0.13191254
-0.17187683 0.11670718 -0.18750256 0.108490884 -0.055612735 -0.15733269 -0.002505153 0.11797179
-0.16814004 -0.025881901 -0.008013747 -0.17263925 0.053518523 -0.16566797 -0.0029486667 -0.12622397
0.13080034 -0.16206816 -0.013457029 0.072701454 -0.11928066 0.010748261 -0.091493644 -0.00075208483
-0.03694677 0.1014826 -0.22867271 -0.19188277 0.017930673 -0.0076564318 -0.050708566 -0.1473619
-0.23442909 -0.03881836 -0.29120192 -0.131818 0.01911497 -0.14883861 -0.08129076 -0.110273086
0.00044017527 -0.14404945 -0.093327366 -0.10590251 0.011999196 0.088127986 -0.10739727 -0.105383344
-0.09075786 0.078615494 0.021745013 0.09070486 0.046452954 -0.10964923 -0.0509325 -0.105821386
0.009333581 -0.121398635 -0.0127351815 -0.2664685 -0.19234326 0.015977938 -0.03966692 -0.12050912
-0.10619025 0.15439464 -0.16572888 0.02600948 -0.010951566 0.11108419 -0.059458405 -0.056407463
0.07126617 -0.05835431 0.16048452 -0.10387861 -0.12519002 0.0924441 -0.05613004 -0.11138096
-0.11401989 -0.08456589 -0.14658275 -0.059673846 0.031989243 0.05927892 -0.15783155 -0.07975797
-0.0058472455 -0.028088553 0.067839846 -0.0948264 -0.10704846 -0.049506325 -0.03411668 -0.07644376
-0.11152416 0.007973165 0.07718824 -0.23553786 0.025890732 -0.02441324 -0.0697187 -0.0074647786
-0.0647255 -0.09572874 0.06447439 0.033293705 0.1432241 -0.13296719 0.0076541333 0.011555399
-0.01768622 0.0041713817 0.05891101 -0.06294923 0.019052641 -0.1783335 -0.23156671 -0.15365636
-0.057834554 -0.08043096 -0.16388375 -0.09194373 -0.20066866 -0.06752033 -0.10408393 0.0865059
-0.27295735 -0.23031913 0.056604527 -0.10695596 -0.107627906 -0.026574714 -0.2401863 -0.28768578
-0.10276867 -0.16786928 0.11264363 -0.08096705 -0.035594705 -0.01578615 -0.09033839 -0.1358703
0.120276876 0.0026681945 0.11134362 -0.15026835 0.07008531 -0.041706625 -0.007280087 0.052277986
00000000: f84b a23d e837 6e3d 25dc 0ebe 0cb9 4a3e
00000010: b982 b5bd 6827 1dbe 7c27 58be 19db 20be
00000020: 6a5b 14be eb55 95bd 479a 793c 585e 64bd
00000030: 4356 e03d 3cda 4cbe 5f3e 623d 1780 dabd
00000040: f39f f0bd 4132 e5bd 959a 35bd b84e 36be
00000050: 81ea 50bd a9c0 95bc e23e ef3c c9b6 29be
00000060: c48c 76bd 5a21 93bd a436 26bd 03a6 49bd
00000070: ba95 363d aeab 533c 3ce8 00be 24a1 333d
00000080: f3dd 7cbe c557 10be 31b8 963d 7876 bbbd
00000090: 0119 a03c 2328 973d c596 cdbd c22a 76bd
000000a0: 0ebd 7cbc 00ff 04be 7435 2a3e d6ac 0ebe
000000b0: d661 ba3c ad85 e6bd d7d1 df3b c2dc 6ebd
000000c0: 2a89 753d 6183 b5bd 5c3f 39be 87a4 2b3d
000000d0: 9495 86bd 7334 1cbe 3ea6 37be 5a2b e6bc
000000e0: 7c92 d1bd 14c2 423c 746b 85bd ce08 16be
000000f0: 3154 38bd 9299 ef3c 9052 2cbe 3fc3 3cbd
00000100: 293a 5fbe 11cd 44be 89cb 79bb a16c 903d
00000110: 6a4e b4bd 223a 1a3d 07de 29bd a3c8 a73c
00000120: 4d67 703c 39f3 64be 5bad 8c3d 861e dd3c
00000130: cce5 173e 4be4 05be c762 4d3d bb7f f3bc
00000140: d21e ebbd 965a 333e d488 de3c 2ee2 8bbc
00000150: 8f31 9dbd 4fa7 5fbe eae3 0d3e b1e7 dc3d
00000160: 94e2 0e3d 7272 a4bd a970 52bd b47e 98bd
00000170: 23eb d63d 079a e0bd dc40 26be 005b 8bbd
00000180: 46e9 81bc b259 d6bd 0a84 e93d aafb 4dbb
00000190: b0ae 623d e927 60bd 472b c03d 1514 07be
000001a0: 7b00 30be 2d04 ef3d ac00 40be 7830 de3d
000001b0: 2eca 63bd d21b 21be 7e2d 24bb 329b f13d
000001c0: e72c 2cbe 4806 d4bc 174c 03bc 58c8 30be
000001d0: 3d36 5b3d dda4 29be 6b3e 41bb db40 01be
000001e0: 86f0 053e 32f5 25be df7a 5cbc 80e4 943d
000001f0: 6b49 f4bd 7919 303c 0561 bbbd 8f27 45ba
00000200: 7f55 17bd 1cd6 cf3d 2e29 6abe eb7c 44be
00000210: 59e3 923c cee2 fabb c9b3 4fbd 0ae6 16be
00000220: 2e0e 70be 0000 1fbd 6b18 95be 4cfb 06be
00000230: ff96 9c3c 2669 18be c57b a6bd dbd6 e1bd
00000240: 53c7 e639 b381 13be 6b22 bfbd 6ae3 d8bd
00000250: 4798 443c 727c b43d 1af3 dbbd 39d3 d7bd
00000260: 42df b9bd 2901 a13d 9922 b23c 78c3 b93d
00000270: 7445 3e3d c78f e0bd 999e 50bd e2b8 d8bd
00000280: e0eb 183c d99f f8bd 39a7 50bc 8f6e 88be
00000290: a2f5 44be 2ae4 823c c879 22bd 7ccd f6bd
000002a0: 467a d9bd a119 1e3e d5b4 29be d511 d53c
000002b0: 326e 33bc 1c80 e33d a88a 73bd 830b 67bd
000002c0: fff3 913d ee04 6fbd 0e56 243e 4fbe d4bd
000002d0: d031 00be 5553 bd3d 9de8 65bd b31b e4bd
000002e0: 4383 e9bd e230 adbd ca19 16be 906c 74bd
000002f0: 2707 033d 74ce 723d 989e 21be 2658 a3bd
00000300: 409a bfbb f719 e6bc 9eef 8a3d 5834 c2bd
00000310: 393c dbbd 25c7 4abd efbd 0bbd 8c8e 9cbd
00000320: c766 e4bd e1a1 023c de14 9e3d d630 71be
00000330: cd18 d43c 46fe c7bc aec8 8ebd 1a9b f4bb
00000340: ce8e 84bd 6e0d c4bd 260b 843d fb5e 083d
00000350: 57a9 123e 8d28 08be 86cf fa3b db52 3d3c
00000360: b1e2 90bc 16b0 883b ac4c 713d 87eb 80bd
00000370: 4914 9c3c 0f9d 36be d31f 6dbe 1858 1dbe
00000380: ede3 6cbd fdb8 a4bd 24d1 27be ff4c bcbd
00000390: 167c 4dbe 1948 8abd f529 d5bd 012a b13d
000003a0: 11c1 8bbe c7d8 6bbe 26da 673d ba0b dbbd
000003b0: 056c dcbd 37b3 d9bc 66f3 75be 8d4b 93be
000003c0: 6178 d2bd ede5 2bbe b4b1 e63d 0dd2 a5bd
000003d0: c1cb 11bd f551 81bc 5503 b9bd 9521 0bbe
000003e0: b953 f63d e0dc 2e3b 2008 e43d f2df 19be
000003f0: e388 8f3d 91d4 2abd cc8d eebb 7121 563d

bn1.weight f4 [256]
0.6329773 0.64612114 0.65418243 0.036109887 0.7053946 0.43254516 0.21949497 0.6725143
0.5195663 0.021537865 0.6913017 0.6279253 0.652037 0.2629485 0.28294262 0.69251865
1.0859263 0.16732225 0.33733538 0.46154454 0.8796409 0.3879291 0.074559934 0.4054383
0.20906346 0.62562907 0.3558408 0.71228117 0.6242968 0.31750077 0.588535 0.5288162
0.27540424 0.3379207 0.7755662 0.33135682 0.6508464 0.8025599 0.16146141 0.5902663
0.3865406 0.386873 0.731003 1.0792079 0.34191772 0.39751333 0.6412001 0.30709413
0.783608 0.1932464 0.24245451 0.78668743 0.7203541 0.24031 0.4636306 0.7089804
0.65652746 0.6817525 0.72093713 0.30471244 0.80173725 0.74181104 0.2996765 0.6866511
0.36527207 0.68562096 0.9082526 0.3514692 0.42968744 0.23824288 1.0079092 0.27453133
0.68086433 0.37911955 0.6196939 0.34491494 0.69360775 0.3938754 0.33200458 0.3515152
0.22722879 0.9029752 0.5778935 0.34853205 0.32870105 0.34153393 0.55489796 0.28742304
0.79517376 0.24885693 0.36352488 0.84467524 0.21002056 0.18657933 0.059283778 0.5931005
0.8181709 0.22149836 0.4767185 0.5207983 0.676489 0.6223155 0.54157543 0.55743814
0.48450977 0.5845968 0.41737723 0.66570187 0.6645206 0.8172575 0.017438758 0.32516718
0.2326758 0.5909665 0.52555144 0.35768926 0.36141828 0.47757787 0.8099091 0.889391
0.6957582 0.26192725 0.67695147 0.6902032 0.6341024 0.19792093 0.48689783 0.2633754
0.46363547 0.65757096 0.6715556 0.2782978 0.46237963 0.3980571 0.4274613 0.59352106
0.4948315 0.33683738 0.6600285 0.36379376 0.70862573 0.0641982 0.7786177 0.68284357
0.22035603 0.65333235 0.43554142 0.80081934 0.72106194 0.26112723 0.3651775 0.3217388
1.0253736 0.20309578 0.41083002 0.5462332 0.73506945 0.8463549 0.61559045 0.2195197
0.37252796 0.46533954 0.7716449 0.379014 0.43612006 0.61749834 0.5503664 0.25618175
0.17650707 0.46024585 0.4554902 0.8367632 0.7486283 0.82616556 0.5466491 0.36815852
0.33425352 0.8269184 0.66833633 0.5420568 0.7667896 0.52740324 0.56199515 0.60700065
0.39008066 0.39414752 0.3210417 0.8777113 0.66121995 0.342114 0.7792785 0.5721494
0.6056658 0.7052279 0.05917402 0.2970388 0.6768938 0.65665317 0.6153135 0.6651327
0.24951129 0.24377249 0.74489206 0.52121407 -0.30095443 0.2962593 0.23027803 0.73752177
0.6009432 0.7737971 0.79242885 0.3283745 0.6260854 0.19237174 0.8325071 0.7806098
0.6223115 0.52627254 0.35772154 0.39388484 0.20724417 0.19522385 0.2603282 0.62162644
0.8024525 0.47359997 0.5197815 0.18929061 0.47613648 0.22947744 0.72712976 0.08980507
0.5105264 0.85609984 0.33728835 0.48029402 0.73192155 0.28104725 0.043820746 0.5150631
0.38911894 0.47812524 0.36876577 0.62539816 0.6268367 0.5020383 0.81851596 0.3601299
0.85290855 0.66906327 0.44230685 0.5619129 0.6163795 0.08452651 0.24357012 0.07513602
00000000: cd0a 223f 3268 253f 8078 273f f6e7 133d
00000010: be94 343f 8f76 dd3e 4ac3 603e e629 2c3f
00000020: 4c02 053f 2d70 b03c 26f9 303f b6bf 203f
00000030: e6eb 263f 30a1 863e dbdd 903e e748 313f
00000040: a2ff 8a3f 8656 2b3e 39b7 ac3e 914f ec3e
00000050: 2530 613f a59e c63e e1b2 983d 9c95 cf3e
00000060: bb14 563e 3a29 203f c430 b63e 0f58 363f
00000070: ead1 1f3f 768f a23e 3baa 163f 8060 073f
00000080: c901 8d3e f103 ad3e 828b 463f 9aa7 a93e
00000090: df9d 263f 9174 4d3f 2456 253e b11b 173f
000000a0: a6e8 c53e 3814 c63e 0323 3b3f 7c23 8a3f
000000b0: d70f af3e de86 cb3e b125 243f 713b 9d3e
000000c0: 899a 483f 62e2 453e ff45 783e 5964 493f
000000d0: 2069 383f d313 763e fd60 ed3e bd7f 353f
000000e0: 2f12 283f 5587 2e3f 568f 383f 4503 9c3e
000000f0: a73e 4d3f 54e7 3d3f 336f 993e 5ec8 2f3f
00000100: f104 bb3e db84 2f3f 3e83 683f c5f3 b33e
00000110: feff db3e f1f5 733e 2b03 813f 5f8f 8c3e
00000120: 204d 2e3f f51b c23e 42a4 1e3f b198 b03e
00000130: 4790 313f 09aa c93e 81fc a93e cdf9 b33e
00000140: aaae 683e 6229 673f d4f0 133f cb72 b23e
00000150: 814b a83e 89dd ae3e cb0d 0e3f 1d29 933e
00000160: 8290 4b3f 5ad4 7e3e ef1f ba3e a33c 583f
00000170: a10f 573e a70e 3f3e 8cd3 723d 6fd5 173f
00000180: a673 513f 77d0 623e 7214 f43e 0a53 053f
00000190: 622e 2d3f 1250 1f3f b0a4 0a3f 44b4 0e3f
000001a0: aa11 f83e 23a8 153f 78b2 d53e 706b 2a3f
000001b0: 061e 2a3f ca37 513f badb 8e3c 507c a63e
000001c0: 9142 6e3e 9549 173f 8a8a 063f 0c23 b73e
000001d0: d10b b93e 1685 f43e 3456 4f3f 21af 633f
000001e0: 361d 323f 541b 863e b14c 2d3f 28b1 303f
000001f0: 8954 223f c9ab 4a3e ac4a f93e 24d9 863e
00000200: a161 ed3e 9256 283f 11eb 2b3f 0d7d 8e3e
00000210: 06bd ec3e 24ce cb3e 35dc da3e fff0 173f
00000220: 8e5a fd3e f375 ac3e a1f7 283f 2d43 ba3e
00000230: 7f68 353f 597a 833d 7d53 473f d6ce 2e3f
00000240: 03a5 613e ca40 273f 49ff de3e 7f02 4d3f
00000250: 8497 383f 78b2 853e 8cf8 ba3e f3ba a43e
00000260: 713f 833f 57f8 4f3e 5058 d23e f0d5 0b3f
00000270: 832d 3c3f b7aa 583f 5697 1d3f c6c9 603e
00000280: fcbb be3e fc40 ee3e 858a 453f 1f0e c23e
00000290: 214b df3e 5f14 1e3f d0e4 0c3f 412a 833e
000002a0: 45be 343e 58a5 eb3e 0336 e93e 1d36 563f
000002b0: 1ba6 3f3f 967f 533f 32f1 0b3f 467f bc3e
000002c0: 4723 ab3e edb0 533f 1718 2b3f 3cc4 0a3f
000002d0: 534c 443f e603 073f eade 0f3f 6564 1b3f
000002e0: a7b8 c73e b4cd c93e 945f a43e b0b1 603f
000002f0: b645 293f 9129 af3e cc7e 473f 6278 123f
00000300: ea0c 1b3f d189 343f 7560 723d 7815 983e
00000310: e948 2d3f 6c1a 283f 2f85 1d3f 2346 2a3f
00000320: e37f 7f3e 7f9f 793e 3fb1 3e3f 496e 053f
00000330: b316 9abe 4daf 973e 01ce 6b3e 3ace 3c3f
00000340: 6ad7 193f 9117 463f 9edc 4a3f b420 a83e
00000350: 2247 203f 19fd 443e 2f1f 553f 0bd6 473f
00000360: ce4f 1f3f ccb9 063f 4727 b73e 46ab c93e
00000370: d137 543e c3e8 473e bd49 853e e922 1f3f
00000380: 876d 4d3f b27b f23e 6610 053f 66d5 413e
00000390: 29c8 f33e 22fc 6a3e 2d25 3a3f b8eb b73d
000003a0: dcb1 023f 5c29 5b3f 0fb1 ac3e 19e9 f53e
000003b0: 365f 3b3f 6de5 8f3e 627d 333d 2ddb 033f
000003c0: 993a c73e d5cc f43e dece bc3e 181a 203f
000003d0: 5f78 203f 9585 003f 438a 513f f262 b83e
000003e0: 3758 5a3f bb47 2b3f 0b76 e23e 86d9 0f3f
000003f0: 0ccb 1d3f 3c1c ad3d 726a 793e eae0 993d

bn1.bias f4 [256]
0.08757869 -0.05124135 -0.035249554 0.43864858 0.0482045 0.018788135 0.020381501 0.17468402
-0.038328115 0.42835847 0.08876182 0.004551608 0.112871416 -0.022092743 -0.15523888 -0.100315794
-0.09284285 -0.15848663 0.13713865 -0.019282293 -0.07403382 -0.0017026151 0.17076816 -0.031022416
0.065429926 0.078417875 0.27581945 0.2763794 -0.052765936 0.025578817 0.18216008 -0.15126815
0.008039416 -0.2518349 0.020496683 0.25752348 0.06638599 0.3056807 -0.067761995 -0.070015594
0.05637585 -0.03608653 0.14865538 -0.13219434 -0.15149042 0.09218466 -0.05303609 0.24300547
-0.14278707 -0.16565342 0.074050054 -0.058319815 0.17901972 -0.23131329 0.04566908 0.0501805
0.08859903 0.1307959 0.08473975 0.2089144 0.057481527 -0.12963387 0.047308855 -0.062862806
-0.061571904 0.057308953 0.22748335 -0.25461072 -0.19335154 0.12660585 0.07884747 -0.008962581
0.12765573 0.010426892 0.058199078 0.13805865 0.09954742 -0.034037843 0.11360566 0.12557702
-0.005172457 -0.04499628 -0.10469446 0.080681786 -0.05499204 0.2841404 0.0847444 -0.2628035
-0.05457392 -0.06602896 -0.10301785 0.09449376 0.32445163 0.35086378 -0.38204524 0.02800995
-0.15410902 -0.21726191 -0.11439774 -0.18095072 0.18301645 -0.04222717 0.060050204 0.035078224
0.010606836 0.08966602 0.024903359 -0.003739609 0.08317549 -0.10085491 -0.3454021 -0.124705605
0.07220543 0.17281975 0.14953807 0.02990667 -0.023429282 0.08013369 0.10574465 -0.03429189
-0.12841061 0.011668248 -0.10956476 0.23773463 -0.019683396 0.062489763 0.02028432 0.012201726
0.19524024 -0.12723476 0.036318585 0.07283039 0.22736555 -0.25691104 -0.051864494 -0.04682158
-0.02217846 -0.038410954 0.12840097 -0.24716064 -0.008416143 0.27558023 -0.08401273 0.28237623
-0.016387053 0.09501818 -0.027713 0.010261743 0.24139504 -0.12664105 -0.006799355 0.19670628
-0.025381701 -0.06810724 0.16168407 0.03542315 -0.07079885 -0.014001839 0.103773065 -0.111047775
0.041583125 -0.0318979 0.010797627 0.20026745 0.2169091 -0.07057291 0.016904036 0.17757106
0.10553388 0.21149437 -0.1955297 -0.13031855 0.14405252 -0.15808511 0.11463601 0.07233255
0.14785889 0.116182365 -0.07318171 0.055713143 0.21387523 0.011497889 0.16204225 0.119193085
0.16358224 0.21095592 0.017908366 0.04920038 0.11708404 0.12540118 0.1597437 0.16843554
0.14494927 -0.014520454 -0.3762677 -0.10461673 -0.020499712 -0.05009675 0.111363746 0.074303634
-0.06961911 0.022402015 0.10257787 -0.122693844 -0.3074466 -0.042728342 0.11126549 0.050981537
0.07204031 -0.07447388 0.0025475968 -0.10417439 0.098828785 0.3001179 0.13533503 0.050796036
0.12709704 0.022336213 0.25299785 0.10284557 -0.072344385 -0.020360816 -0.022848329 0.08567379
0.007365676 -0.1012627 0.13413633 -0.009604787 0.09364664 0.26616466 0.22137482 -0.12099777
0.025852611 0.12381936 -0.08651454 -0.023344161 -0.13259514 -0.06137649 -0.42317396 0.089318104
-0.022633227 0.13176061 0.07109049 0.2426219 -0.05081526 -0.101852484 0.064524435 -0.13847381
0.029655542 -0.21790962 0.070335075 -0.03473299 0.13882886 -0.32374606 0.046151336 -0.3950083
00000000: 755c b33d 73e2 51bd d661 10bd 8c96 e03e
00000010: 1572 453d 93e9 993c 1bf7 a63c 5ee0 323e
00000020: f1fd 1cbd cd51 db3e c2c8 b53d a825 953b
00000030: 2129 e73d d7fb b4bc f1f6 1ebe 5e72 cdbd
00000040: 6424 bebd 524a 22be 136e 0c3e e6f5 9dbc
00000050: 0b9f 97bd 482a dfba d9dd 2e3e b922 febc
00000060: 2000 863d 8d99 a03d 3538 8d3e 9a81 8d3e
00000070: 1821 58bd ab8a d13c 2c88 3a3e 0ae6 1abe
00000080: c1b7 033c 81f0 80be a9e8 a73c 1eda 833e
00000090: 61f5 873d 2e82 9c3e cdc6 8abd 5664 8fbd
000000a0: 5dea 663d 78cf 13bd 1e39 183e f45d 07be
000000b0: 4e20 1bbe 50cb bc3d 5f3c 59bd 6dd6 783e
000000c0: c636 12be 0da1 29be 8ea7 973d c2e0 6ebd
000000d0: f250 373e 64dd 6cbe 800f 3b3d 118a 4d3d
000000e0: 6973 b53d 5cef 053e 098c ad3d a8ed 553e
000000f0: c071 6b3d bebe 04be eec6 413d 37be 80bd
00000100: d232 7cbd cbbc 6a3d 65f1 683e 565c 82be
00000110: f2fd 45be f7a4 013e c87a a13d cad7 12bc
00000120: 2fb8 023e 8ed5 2a3c 2862 6e3d 3f5f 0d3e
00000130: 85df cb3d 446b 0bbd 16aa e83d 4397 003e
00000140: b77d a9bb 054e 38bd 0d6a d6bd 7e3c a53d
00000150: 553f 61bd da7a 913e 798e ad3d 2e8e 86be
00000160: e788 5fbd 313a 87bd 06fb d2bd f285 c13d
00000170: 861e a63e 6ba4 b33e 6f9b c3be 1f75 e53c
00000180: c1ce 1dbe e879 5ebe 5d49 eabd 254b 39be
00000190: aa68 3b3e 66f6 2cbd 34f7 753d 2fae 0f3d
000001a0: 4bc8 2d3c d1a2 b73d 2102 cc3c 3a14 75bb
000001b0: e957 aa3d 058d cebd 8bd8 b0be a765 ffbd
000001c0: 71e0 933d a9f7 303e 8220 193e d5fe f43c
000001d0: c4ee bfbc 221d a43d a790 d83d a775 0cbd
000001e0: 127e 03be 2e2c 3f3c 7d63 e0bd b570 733e
000001f0: 133f a1bc 44f5 7f3d 4d2b a63c c0e9 473c
00000200: 0fed 473e d449 02be ccc2 143d 1928 953d
00000210: 84d2 683e d889 83be dd6f 54bd fcc7 3fbd
00000220: 9aaf b5bc ce54 1dbd 8b7b 033e ae17 7dbe
00000230: dde3 09bc da18 8d3e de0e acbd 9e93 903e
00000240: 243e 86bc e498 c23d 6006 e3bc df20 283c
00000250: 4330 773e 31ae 01be 20cd debb 5f6d 493e
00000260: 49ed cfbc cf7b 8bbd 8290 253e dd17 113d
00000270: fdfe 90bd f867 65bc f986 d43d 046d e3bd
00000280: 1153 2a3d 5fa7 02bd 88e8 303c e912 4d3e
00000290: 6b1d 5e3e 8888 90bd 557a 8a3c 30d5 353e
000002a0: 2622 d83d fb91 583e f038 48be 3a72 05be
000002b0: 8182 133e 10e1 21be 49c6 ea3d 1723 943d
000002c0: 5268 173e 05f1 ed3d 4be0 95bd 7733 643d
000002d0: 1c02 5b3e a461 3c3c 67ee 253e 811b f43d
000002e0: 1a82 273e d404 583e 91b4 923c 5686 493d
000002f0: c2c9 ef3d 2b69 003e da93 233e 5e7a 2c3e
00000300: 956d 143e 33e7 6dbc 29a6 c0be 4c41 d6bd
00000310: 03ef a7bc 4032 4dbd ad12 e43d 812c 983d
00000320: 7794 8ebd 6e84 b73c 5914 d23d e946 fbbd
00000330: a469 9dbe ea03 2fbd 29df e33d 04d2 503d
00000340: df89 933d c385 98bd 95f5 263b 6259 d5bd
00000350: bf66 ca3d 0ea9 993e 4495 0a3e 810f 503d
00000360: ba25 023e 6ffa b63c ef88 813e b3a0 d23d
00000370: 4b29 94bd bacb a6bc 6b2c bbbc bd75 af3d
00000380: c55b f13b d262 cfbd 095b 093e 665d 1dbc
00000390: cfc9 bf3d bc46 883e 15b0 623e aecd f7bd
000003a0: dbc8 d33c 0195 fd3d 892e b1bd 413c bfbc
000003b0: 05c7 07be ea65 7bbd 42aa d8be 69ec b63d
000003c0: 5169 b9bc 41ec 063e e497 913d e071 783e
000003d0: a923 50bd 0998 d0bd 6325 843d 14cc 0dbe
000003e0: 2ef0 f23c b323 5fbe d60b 903d 2e44 0ebd
000003f0: 2729 0e3e 0bc2 a5be 2f09 3d3d 873e cabe

bn1.running_mean f4 [256]
0.15658782 0.11637378 0.19198212 0.36266205 0.1358872 0.066346005 0.03398291 0.092941165
0.6336746 0.048698895 0.22054785 0.2065746 0.15902726 0.232616 0.17264155 0.35498616
0.10285553 0.42033714 0.07805037 0.017769834 0.123061456 0.08680439 0.25519773 0.024222964
0.022695137 0.21032472 0.10829846 0.21771221 0.041224565 0.2170645 0.14651757 0.1258955
0.12127488 0.04230245 0.24032983 0.10298972 0.12930243 0.4148152 0.17028074 0.07605069
0.0803746 0.1821874 0.21690351 0.19118713 0.07656422 0.08229079 0.17579274 0.24503976
0.15395086 0.045621645 0.007390291 0.17563589 0.22614282 0.07825359 0.11089891 0.061756052
0.08119376 0.08647347 0.098118566 0.13409919 0.21060477 0.030993976 0.1424414 0.13490672
0.040706124 0.078140035 0.3481083 0.06102052 0.24967346 0.5410968 0.09023657 0.12715662
0.1926427 0.046583336 0.2153575 0.055563968 0.27771056 0.08537042 0.093574874 0.15985529
0.04663977 0.23897183 0.06853303 0.101423964 0.033960417 0.08556777 0.17936869 0.21756877
0.114022784 0.046675697 0.04180419 0.24623957 0.3022512 0.115886725 0.2641147 0.18096273
0.05667021 0.07224249 0.026918769 0.35536027 0.3234716 0.07331562 0.11953653 0.056504667
0.14739339 0.101151966 0.10904717 0.24626812 0.12981926 0.03542391 0.14504868 0.21907747
0.09178826 0.075473 0.09725389 0.04749565 0.19343098 0.14565782 0.18011765 0.06541258
0.26657054 0.03643313 0.11772056 0.21698366 0.15979886 0.14690991 0.05674331 0.05302963
0.1017776 0.03010845 0.15500072 0.13424768 0.07203536 0.11585058 0.057236925 0.05283922
0.1235768 0.32472613 0.13486485 0.04988876 0.07063464 0.521002 0.08158149 0.5122367
0.16761684 0.06470543 0.2477623 0.08518655 0.076056935 0.24918516 0.09414396 0.04380374
0.12203076 0.17508046 0.18085389 0.36624107 0.105810255 0.072425485 0.071536794 0.071436115
0.075748466 0.021185242 0.1558782 0.086480275 0.06378397 0.08693607 0.12905686 0.11871421
0.034137044 0.31146112 0.2153069 0.102492735 0.081545115 0.27311724 0.11451984 0.04072357
0.33770922 0.23755291 0.2190593 0.044425078 0.11405625 0.2852439 0.08739982 0.090597
0.13053526 0.10548759 0.11198397 0.13375175 0.1701022 0.18418808 0.044771083 0.053143706
0.17534027 0.045839448 0.49017176 0.04439089 0.10528692 0.22719705 0.08251499 0.15265784
0.12339909 0.01894969 0.21420035 0.0993985 0.384378 0.17692082 0.08436077 0.11300938
0.22833349 0.085618414 0.09025499 0.046013027 0.37446734 0.2163909 0.059424587 0.15338257
0.15251671 0.031348474 0.21274541 0.020393956 0.1309133 0.001976065 0.1237339 0.04472669
0.06855882 0.02845482 0.16218337 0.024927843 0.23044133 0.23099269 0.20605926 0.531513
0.11319853 0.081300974 0.046784416 0.07745483 0.1713861 0.11678829 0.00013370639 0.10843743
0.05459369 0.2849613 0.07982271 0.07802651 0.09765141 0.39859867 0.08426473 0.08967864
0.31908724 0.22992127 0.07949958 0.09974381 0.510615 0.13224252 0.23378003 0.73642325
00000000: 8f58 203e 6055 ee3d f696 443e d7ae b93e
00000010: 0426 0b3e 6ae0 873d aa31 0b3d f057 be3d
00000020: 8038 223f 7e78 473d 4cd7 613e 4b88 533e
00000030: 0bd8 223e e432 6e3e f2c8 303e bfc0 b53e
00000040: eca5 d23d 6e36 d73e dfd8 9f3d 0b92 913c
00000050: a507 fc3d 80c6 b13d 47a9 823e 3d6f c63c
00000060: 27eb b93c 5d5f 573e 95cb dd3d f3ef 5e3e
00000070: 17db 283d 2846 5e3e b408 163e c0ea 003e
00000080: f75e f83d 5545 2d3d 0619 763e 46ec d23d
00000090: db67 043e a862 d43e 135e 2e3e 77c0 9b3d
000000a0: 709b a43d 558f 3a3e f41b 5e3e 8fc6 433e
000000b0: b4cd 9c3d 1388 a83d 0303 343e b4eb 7a3e
000000c0: 4ba5 1d3e c3dd 3a3d 412a f23b e5d9 333e
000000d0: fc91 673e 6b43 a03d f81e e33d eaf3 7c3d
000000e0: ea48 a63d 0119 b13d 63f2 c83d 4c51 093e
000000f0: c7a8 573e 14e7 fd3c 29dc 113e fd24 0a3e
00000100: 77bb 263d e207 a03d 403b b23e a7f0 793d
00000110: 66aa 7f3e 5285 0a3f f3cd b83d 5835 023e
00000120: 2144 453e 2bce 3e3d ad86 5c3e 0b97 633d
00000130: 1430 8e3e b0d6 ae3d 2fa4 bf3d 1bb1 233e
00000140: 5809 3f3d 08b5 743e 0c5b 8c3d 5eb7 cf3d
00000150: 141a 0b3d 283e af3d 6dac 373e 59ca 5e3e
00000160: c784 e93d 042f 3f3d df3a 2b3d 3a26 7c3e
00000170: abc0 9a3e 0556 ed3d 0b3a 873e 4b4e 393e
00000180: 061f 683d dff3 933d c084 dc3c c8f1 b53e
00000190: 129e a53e 8026 963d 91cf f43d 7071 673d
000001a0: 4bee 163e c328 cf3d 1f54 df3d b62d 7c3e
000001b0: 57ef 043e a918 113d a487 143e d855 603e
000001c0: 7cfb bb3d 9791 9a3d 0c2d c73d cc8a 423d
000001d0: c512 463e 5327 153e c370 383e 08f7 853d
000001e0: ef7b 883e e83a 153d 7a17 f13d f730 5e3e
000001f0: 50a2 233e 8d6f 163e ac6b 683d 9935 593d
00000200: c670 d03d ffa5 f63c 82b8 1e3e 3978 093e
00000210: 4687 933d 1243 ed3d 4471 6a3d f06d 583d
00000220: d515 fd3d 8142 a63e 031a 0a3e 2858 4c3d
00000230: e5a8 903d 6360 053f 3214 a73d f221 033f
00000240: c0a3 2b3e 4884 843d 66b5 7d3e 4976 ae3d
00000250: bdc3 9b3d 652a 7f3e 8cce c03d 8d6b 333d
00000260: 43eb f93d 4b48 333e c331 393e f383 bb3e
00000270: 0cb3 d83d d053 943d e281 923d 194d 923d
00000280: 0322 9b3d ac8c ad3c 899e 1f3e 921c b13d
00000290: 2ca1 823d 8a0b b23d 7b27 043e 7020 f33d
000002a0: 49d3 0b3d d577 9f3e 6979 5c3e b6e7 d13d
000002b0: 2001 a73d 06d6 8b3e 6189 ea3d c2cd 263d
000002c0: 39e8 ac3e 1241 733e 1551 603e 12f7 353d
000002d0: 5396 e93d 7d0b 923e adfe b23d ec8a b93d
000002e0: 09ab 053e e109 d83d da57 e53d 38f6 083e
000002f0: 452f 2e3e cd9b 3c3e e261 373d 37ad 593d
00000300: 668c 333e 25c2 3b3d cbf7 fa3e 39d3 353d
00000310: aba0 d73d 58a6 683e 9efd a83d 5652 1c3e
00000320: a9b8 fc3d 613c 9b3c 5657 5b3e 7191 cb3d
00000330: 31cd c43e bb2a 353e 57c5 ac3d 7671 e73d
00000340: 41d0 693e b558 af3d 9cd7 b83d 2878 3c3d
00000350: 2fba bf3e 9395 5d3e 3267 733d 5210 1d3e
00000360: 572d 1c3e 4267 003d efd9 593e 3a11 a73c
00000370: 230e 063e df80 013b 3368 fd3d 5533 373d
00000380: 9168 8c3d 151a e93c 6613 263e 7a35 cc3c
00000390: d0f8 6b3e 5989 6c3e 3301 533e 3c11 083f
000003a0: a2d4 e73d 2081 a63d 04a1 3f3d a3a0 9e3d
000003b0: d67f 2f3e b32e ef3d 8933 0c39 7114 de3d
000003c0: a29d 5f3d 73e6 913e 177a a33d 5dcc 9f3d
000003d0: 76fd c73d 2015 cc3e fd92 ac3d 6fa9 b73d
000003e0: 675f a33e 7b70 6b3e add0 a23d 7c46 cc3d
000003f0: aab7 023f 956a 073e 0864 6f3e 3c86 3c3f

bn1.running_var f4 [256]
0.03722855 0.04149659 0.10462772 0.07965082 0.07564252 0.026326932 0.013176589 0.029874813
0.6180495 0.019468283 0.045024555 0.14579095 0.07720386 0.20269339 0.081124835 0.1601782
0.034092117 0.4219837 0.024157148 0.006100093 0.044167098 0.04135849 0.09600935 0.0056069074
0.008245398 0.069889 0.0555965 0.07336349 0.011536366 0.14424077 0.06588632 0.057593804
0.04871557 0.017758831 0.10232021 0.035383485 0.03912645 0.14135602 0.09347769 0.026746966
0.03455372 0.064001344 0.0638832 0.08332361 0.049945876 0.036874123 0.1108383 0.14770542
0.05467111 0.020014914 0.0030607064 0.07639044 0.06399619 0.031655584 0.030440943 0.019445477
0.027662648 0.03480314 0.0400903 0.067298576 0.09449796 0.007238737 0.0592048 0.054552123
0.020995973 0.033683788 0.09456089 0.025238795 0.16662104 0.14100009 0.028816422 0.058493983
0.109993786 0.018663093 0.10872044 0.012181052 0.0943005 0.0361681 0.030392943 0.087690964
0.02374459 0.062522575 0.021490328 0.037536275 0.011275419 0.036934134 0.059889928 0.12012115
0.0563697 0.020780796 0.018999893 0.08378206 0.19229817 0.0844228 0.23857157 0.11316622
0.018337177 0.039863978 0.0070687453 0.2006612 0.10211092 0.025452076 0.038312346 0.02142213
0.049479917 0.02979085 0.044117052 0.08707229 0.04648371 0.012577251 0.090224706 0.09801862
0.03119393 0.02201772 0.027461922 0.011587718 0.078910485 0.07582739 0.058359608 0.021633351
0.13719264 0.013672313 0.04946652 0.11499026 0.059397124 0.04556143 0.015224455 0.017326694
0.049046155 0.009254082 0.07438836 0.058702692 0.023737822 0.0649566 0.014792688 0.014944759
0.0542754 0.21510509 0.07259466 0.01904921 0.02688281 0.35660338 0.032283146 0.10932325
0.08670721 0.021008722 0.10420047 0.034840662 0.028157625 0.1272247 0.051463477 0.013802705
0.047620382 0.08440234 0.07685512 0.0828376 0.029440973 0.023729479 0.028369427 0.028818272
0.043729194 0.0074907173 0.04932387 0.06169211 0.025637474 0.04224307 0.073520966 0.034762505
0.018050758 0.06820444 0.10072314 0.033500917 0.020973027 0.120108195 0.039055042 0.013195137
0.09702683 0.066682994 0.09889935 0.01329524 0.03572152 0.091537595 0.024278495 0.027403835
0.051778805 0.04351091 0.04208462 0.04769786 0.06940386 0.09293131 0.012675848 0.0150022125
0.06856654 0.010587338 0.3939605 0.009352045 0.047688957 0.08518895 0.026904292 0.048306383
0.06313879 0.0061247605 0.11720571 0.046358015 0.13809411 0.12536904 0.036412805 0.040302593
0.11801906 0.04013301 0.03013806 0.019532125 0.08121304 0.1416625 0.024076363 0.042950206
0.044113476 0.011287819 0.09390427 0.0056556007 0.059872594 0.00094224693 0.09516054 0.015126001
0.022165176 0.00816616 0.072280124 0.009618639 0.13813104 0.1103511 0.07446784 0.39149258
0.050906803 0.03150586 0.015368815 0.029068874 0.047094014 0.040220093 3.2482636e-05 0.03513841
0.01899351 0.104247056 0.019491984 0.029678563 0.037347004 0.264172 0.032086354 0.03341509
0.12556797 0.1210044 0.02903642 0.04009365 0.110726096 0.051533464 0.09960464 0.8089436
00000000: f77c 183d 54f8 293d 0f47 d63d f81f a33d
00000010: 77ea 9a3d 94ab d73c 9fe2 573c 06bc f43c
00000020: 7e38 1e3f f37b 9f3c ab6b 383d 394a 153e
00000030: 0f1d 9e3d db8e 4f3e c724 a63d c105 243e
00000040: 2da4 0b3d 3f0e d83e 36e5 c53c 4ae3 c73b
00000050: 8fe8 343d 8567 293d 8da0 c43d 26ba b73b
00000060: b517 073c f721 8f3d 28b9 633d 993f 963d
00000070: 0703 3d3c dab3 133e 68ef 863d 7be7 6b3d
00000080: fa89 473d f87a 913c 428d d13d 46ee 103d
00000090: 0e43 203d a2bf 103e 3b71 bf3d 741c db3c
000000a0: 3488 0d3d 2313 833d 32d5 823d 92a5 aa3d
000000b0: 0c94 4c3d 5209 173d 31ff e23d 1740 173e
000000c0: d0ee 5f3d 51f6 a33c 2296 483b 9772 9c3d
000000d0: 6f10 833d 49a9 013d 495f f93c 1f4c 9f3c
000000e0: c79c e23c bd8d 0e3d ba35 243d d6d3 893d
000000f0: 2588 c13d ed32 ed3b bb80 723d 0c72 5f3d
00000100: bfff ab3c 03f8 093d 24a9 c13d 97c1 ce3c
00000110: b59e 2a3e 5462 103e 6b10 ec3c 6397 6f3d
00000120: 6c44 e13d 58e3 983c d2a8 de3d 0993 473c
00000130: 9f20 c13d 0025 143d 9ffa f83c 5297 b33d
00000140: 0484 c23c d60b 803d 7c0c b03c a3bf 193d
00000150: 89bc 383c 3f48 173d 244f 753d 1402 f63d
00000160: eae3 663d 7d3c aa3c aaa5 9b3c ee95 ab3d
00000170: d0e9 443e dce5 ac3d 1b4c 743e b1c3 e73d
00000180: d937 963c 6948 233d efa0 e73b 217a 4d3e
00000190: 881f d13d df80 d03c 68ed 1c3d 767d af3c
000001a0: 74ab 4a3d f10b f43c 15b4 343d f552 b23d
000001b0: b465 3e3d d010 4e3c bbc7 b83d fcbd c83d
000001c0: 6a8a ff3c 815e b43c d3f7 e03c 69da 3d3c
000001d0: d29b a13d 644b 9b3d 7c0a 6f3d 6d38 b13c
000001e0: 3a7c 0c3e d601 603c 689d 4a3d 0380 eb3d
000001f0: 664a 733d 9f9e 3a3d fe6f 793c b6f0 8d3c
00000200: 9fe4 483d 6f9e 173c ed58 983d 3c72 703d
00000210: d275 c23c f707 853d 085d 723c ddda 743c
00000220: e24f 5e3d 8244 5c3e 82ac 943d 170d 9c3c
00000230: 5739 dc3c b894 b63e 553b 043d dee4 df3d
00000240: 8d93 b13d 7c1a ac3c 0e67 d53d 15b5 0e3d
00000250: d2aa e63c 3147 023e 5ecb 523d be24 623c
00000260: 970d 433d 22db ac3d 3866 9d3d c2a6 a93d
00000270: 322e f13c 5364 c23c 0067 e83c 4c14 ec3c
00000280: 621d 333d b174 f53b d407 4a3d deb0 7c3d
00000290: ae05 d23c 1207 2d3d 2992 963d 2163 0e3d
000002a0: 2fdf 933c c5ae 8b3d ef47 ce3d 4238 093d
000002b0: a0cf ab3c 49fb f53d 2ef8 1f3d 6a30 583c
000002c0: 01b6 c63d 1891 883d be8b ca3d 47d4 593c
000002d0: bb50 123d 1078 bb3d b2e3 c63c 027e e03c
000002e0: 0316 543d 7f38 323d ec60 2c3d d55e 433d
000002f0: 9c23 8e3d c552 be3d 5cae 4f3c d7cb 753c
00000300: 9d6c 8c3d 8476 2d3c 31b5 c93e 5239 193c
00000310: 7f55 433d 8b77 ae3d 6466 dc3c eadc 453d
00000320: e94e 813d 37b2 c83b 8c09 f03d e7e1 3d3d
00000330: 8b68 0d3e be60 003e 9825 153d 5514 253d
00000340: fab3 f13d 8362 243d 18e4 f63c d601 a03c
00000350: 0653 a63d f90f 113e cb3b c53c 8eec 2f3d
00000360: 55b0 343d 8bf0 383c e250 c03d 9e52 b93b
00000370: f73c 753d 1f01 773a 87e3 c23d 0cd3 773c
00000380: be93 b53c 5ccb 053c 9a07 943d 7f97 1d3c
00000390: 3972 0d3e c2ff e13d 9882 983d b771 c83e
000003a0: a783 503d 4a0c 013d 7bcd 7b3c d921 ee3c
000003b0: a7e5 403d d3bd 243d f73d 0838 4bed 0f3d
000003c0: 4798 9b3c 7b7f d53d a7ad 9f3c 7520 f33c
000003d0: 2cf9 183d 8d41 873e fb6c 033d 43de 083d
000003e0: e494 003e 28d1 f73d c9dd ed3c 3d39 243d
000003f0: 5dc4 e23d c114 533d 84fd cb3d ee16 4f3f

fc2.weight f4 [256, 260]
-0.11750127 0.10670445 0.11246687 -0.23186214 -0.026754733 -0.028620439 0.012180251 -0.100911014
-0.06284754 -0.2404125 -0.16605915 -0.09371224 -0.015813688 -0.08245929 0.20572881 -0.021586599
0.11157985 0.14373533 -0.16803157 -0.009071286 -0.034364685 -0.0118173715 -0.11869193 -0.04174677
0.0013955431 -0.09965005 -0.09336129 -0.07557811 0.080934145 -0.096627906 -0.073888846 0.08754376
0.05009775 0.14648962 -0.07460026 -0.2710159 0.005364329 0.103715695 -0.110801645 0.15385194
-0.1542128 -0.025806012 0.040509496 0.082481295 0.12189197 -0.060633633 0.015840352 -0.16930328
-0.12699197 0.08337425 -0.17866246 0.11200549 -0.21640089 0.13386397 -0.20366995 -0.018977016
-0.07924118 -0.080712 -0.2216991 -0.07520699 -0.08765872 -0.058935568 -0.21226995 0.09600427
-0.08151929 -0.011380237 -0.09885015 0.09393619 -0.014411209 -0.0065980856 0.06450201 -0.084489964
0.028242273 0.016865235 0.061941437 -0.10054162 -0.13113675 0.1406921 -0.11009351 -0.038058724
0.106106214 0.04733887 -0.062519215 -0.10142415 -0.2026933 0.04597531 -0.090831384 0.18402971
0.04859089 -0.025752384 -0.050627768 0.13512625 -0.27588612 -0.3552902 0.19848344 -0.09188074
-0.13749754 0.07446951 -0.09140552 0.027687728 -0.15041189 -0.02030073 -0.17695186 0.014602198
-0.034238 -0.100895576 -0.02251547 0.072421245 0.11446531 0.027342044 0.14964809 -0.11478513
0.04301745 0.005392189 -0.0076685534 -0.34138197 0.019230785 -0.22690289 -0.1567277 0.065516606
-0.07246138 -0.12430438 0.05399985 -0.009875625 -0.14085066 0.006651836 -0.039010536 -0.019104447
-0.033604424 0.023373947 -0.06269962 -0.016819658 -0.12775669 -0.036389895 -0.012191225 -0.088947564
-0.24182047 -0.05161651 -0.010962608 0.038708888 0.036697816 -0.14353958 0.13049765 -0.06595527
0.044797927 -0.12030325 -0.054664727 -0.2825486 -0.1347042 -0.0115796495 -0.110366784 -0.24351919
0.0068733757 0.1367758 -0.08275631 0.014346263 -0.035174217 0.051736813 0.07741983 -0.10950109
-0.10390631 -0.32722288 -0.08965117 -0.032394957 -0.104032815 0.023461752 -0.11253117 -0.057453204
-0.24389336 -0.047664758 0.1178129 -0.015284621 -0.070723824 0.0048052515 -0.17876899 -0.03386773
-0.033039965 0.056643523 0.08189039 -0.07037473 -0.09783151 -0.17163032 -0.050873812 -0.06393808
-0.24143773 -0.008729735 -0.022612603 0.036278374 0.030328164 -0.07870899 -0.030557226 0.045576602
0.028353035 0.04644796 0.30497292 0.020754004 0.076562084 -0.061191365 0.015257109 -0.17872539
0.05238657 0.14645906 -0.03137764 0.09328068 0.41209722 -0.032908868 -0.21579957 -0.11896181
-0.01191515 -0.10290664 0.035516225 0.13000047 -0.17860459 -0.13199073 -0.056409758 -0.07327582
-0.016638163 0.061105378 -0.07534287 0.118548 0.10037873 0.012508426 0.07746983 0.025143227
-0.047256973 0.016276918 -0.07008559 -0.2736748 -0.2008959 -0.21025218 -0.1665007 0.047869056
0.032938205 -0.111460246 0.072779626 0.10322968 -0.037628654 0.12601687 0.10230931 0.06383541
-0.14193991 -0.12364 -0.132115 -0.24399185 0.14136046 0.027192887 -0.09044687 -0.22800426
-0.06872092 0.090290375 0.0051520187 -0.06773647 0.05880632 0.14230506 0.0689136 0.18123028
00000000: 81a4 f0bd dd87 da3d 0855 e63d 456d 6dbe
00000010: be2c dbbc 6975 eabc ad8f 473c 6faa cebd
00000020: 36b6 80bd b22e 76be 690b 2abe 34ec bfbd
00000030: b58b 81bc 6be0 a8bd 93aa 523e 61d6 b0bc
00000040: fa83 e43d 5b2f 133e 7810 2cbe bb9f 14bc
00000050: fcc1 0cbd a69d 41bc c114 f3bd a9fe 2abd
00000060: a8ea b63a 5315 ccbd 3434 bfbd b2c8 9abd
00000070: cdc0 a53d dae4 c5bd 0953 97bd 254a b33d
00000080: 4c33 4d3d 6001 163e 05c8 98bd 99c2 8abe
00000090: 41c7 af3b e568 d43d f9eb e2bd 5d8b 1d3e
000000a0: f6e9 1dbe 2167 d3bc 49ed 253d f4eb a83d
000000b0: 7fa2 f93d f95a 78bd a0c3 813c d75d 2dbe
000000c0: 2f0a 02be 1ec0 aa3d 4bf3 36be 2263 e53d
000000d0: 3298 5dbe a313 093e db8e 50be b075 9bbc
000000e0: 3349 a2bd 554c a5bd 1705 63be 1f06 9abd
000000f0: 6a86 b3bd 6c66 71bd 4b5d 59be e39d c43d
00000100: 96f3 a6bd 2c74 3abc f371 cabd 9e61 c03d
00000110: fe1c 6cbc c134 d8bb a119 843d 1309 adbd
00000120: 575c e73c f628 8a3c 4eb6 7d3d c4e8 cdbd
00000130: b648 06be 9711 103e b578 e1bd 77e3 1bbd
00000140: 374e d93d 67e6 413d 130a 80bd 77b7 cfbd
00000150: d58e 4fbe 9b50 3c3d ce05 babd 4972 3c3e
00000160: 3e07 473d aaf6 d2bc 105f 4fbd 895e 0a3e
00000170: f240 8dbe 99e8 b5be 3e3f 4b3e f82b bcbd
00000180: 28cc 0cbe 7883 983d d132 bbbd 60d1 e23c
00000190: 9305 1abe b74d a6bc de32 35be 0f3e 6f3c
000001a0: 253d 0cbd 57a2 cebd 5d72 b8bc 9751 943d
000001b0: ca6c ea3d 6cfc df3c 593d 193e 7714 ebbd
000001c0: 1133 303d f6b0 b03b 7d48 fbbb 9ec9 aebe
000001d0: e189 9d3c 3b59 68be 3a7d 20be 922d 863d
000001e0: a266 94bd 4b93 febd f22e 5d3d 60cd 21bc
000001f0: 283b 10be a5f7 d93b 83c9 1fbd ee80 9cbc
00000200: cba4 09bd b87a bf3c a968 80bd 61c9 89bc
00000210: a6d2 02be 920d 15bd b4bd 47bc 242a b6bd
00000220: c99f 77be d56b 53bd 839c 33bc 368d 1e3d
00000230: 7350 163d 0afc 12be 2da1 053e 8e13 87bd
00000240: 087e 373d 8d61 f6bd 1fe8 5fbd 36aa 90be
00000250: e6ef 09be 92b8 3dbc fb07 e2bd 185d 79be
00000260: 0e3a e13b f50e 0c3e 247c a9bd 970c 6b3c
00000270: d712 10bd fbe9 533d 4a8e 9e3d 1c42 e0bd
00000280: d5cc d4bd c289 a7be 089b b7bd 93b0 04bd
00000290: 280f d5bd dc32 c03c be76 e6bd 0d54 6bbd
000002a0: 2ebf 79be 1f3c 43bd e447 f13d 596c 7abc
000002b0: a7d7 90bd 5f75 9d3b 380f 37be e4b8 0abd
000002c0: ea54 07bd 0a03 683d 26b6 a73d a020 90bd
000002d0: e35b c8bd dcbf 2fbe 0f61 50bd f8f1 82bd
000002e0: 743b 77be 2a07 0fbc 113e b9bc a298 143d
000002f0: c572 f83c 2e32 a1bd 2653 fabc 88ae 3a3d
00000300: a044 e83c 3740 3e3d 6925 9c3e 4d04 aa3c
00000310: 95cc 9c3d cca3 7abd f4f8 793c ca03 37be
00000320: 4d93 563d 5df9 153e d785 00bd f109 bf3d
00000330: 68fe d23e 73cb 06bd 90fa 5cbe 40a2 f3bd
00000340: c337 43bc b7c0 d2bd 7679 113d d81e 053e
00000350: 1fe4 36be 9428 07be eb0d 67bd a211 96bd
00000360: c24c 88bc a249 7a3d 5d4d 9abd 4bc9 f23d
00000370: 5d93 cd3d 24f0 4c3c 81a8 9e3d 2bf9 cd3c
00000380: 8790 41bd 2c57 853c 0989 8fbd 1a1f 8cbe
00000390: a8b7 4dbe 594c 57be 297f 2abe 5812 443d
000003a0: 36ea 063d 4545 e4bd 7c0d 953d 156a d33d
000003b0: 8120 1abd 910a 013e 8b87 d13d 24bc 823d
000003c0: b258 11be f836 fdbd 2849 07be 00d9 79be
000003d0: ccc0 103e 9ec3 de3c 353c b9bd f379 69be
000003e0: 8ebd 8cbd 29ea b83d 44d2 a83b 6bb9 8abd
000003f0: e5de 703d 6bb8 113e 9322 8d3d 6e94 393e

fc2.bias f4 [256]
-0.2310359 0.19402795 0.08577614 0.07880834 -0.23706093 -0.1543241 -0.19438627 -0.13187343
-0.124651216 -0.068358496 0.09920835 0.050561123 -0.08049346 0.12690055 -0.02737048 -0.1246375
0.07663293 0.19323894 -0.21039757 0.046102345 -0.19238119 0.038952943 0.23161997 0.2723273
0.029050548 0.11835819 -0.050212912 -0.19109188 -0.22325315 -0.15655473 -0.16938373 -0.15048116
0.082290575 -0.11192101 -0.20559438 -0.17008443 -0.1558211 0.24112234 -0.079915516 -0.26810616
-0.17564604 0.08004937 0.07109828 -0.029645594 -0.2290449 -0.1298381 -0.044560045 -0.2296631
-0.18348104 0.08475975 0.14411004 0.059996836 -0.21736673 0.15632448 0.2542444 0.092116654
0.12925722 0.08296386 -0.17966816 0.014056743 -0.08492858 0.20260383 0.13721125 -0.07006609
0.16081893 -0.19535464 0.10649488 -0.18945612 -0.0813209 -0.244658 0.11632537 0.16142273
-0.15878722 -0.24531913 0.2369714 -0.21533151 -0.17474902 0.0086253 -0.21409185 0.08120474
-0.074858524 0.11053079 0.0761098 -0.029902698 -0.037267867 0.13733643 0.021404894 -0.1306315
0.040713027 -0.15610799 -0.14178053 0.107161656 -0.1793999 -0.07294283 -0.060441837 -0.16663867
-0.07898515 -0.14005107 0.31120726 -0.03275264 -0.08017722 -0.012423734 -0.17882024 -0.14098836
-0.07671959 -0.14353599 0.058206327 0.095776565 -0.08178931 -0.1725362 -0.13318123 -0.13878281
-0.13251899 0.27062523 0.096861646 0.0049985927 0.011678616 -0.03564922 0.1758594 -0.015038381
-0.15004642 0.12258082 0.0021017946 -0.002728619 0.18045256 -0.067019 -0.13951099 -0.12831022
-0.1661066 -0.24229544 0.08773556 0.113485195 -0.20613678 -0.12991442 0.19058345 -0.15678793
0.05994529 0.015776288 0.19239058 0.20738325 -0.010916879 -0.22283036 0.088190384 -0.18124458
0.1573255 -0.15243547 0.034534033 -0.1702522 -0.15750517 0.1445973 -0.23767677 0.04962897
-0.14603318 -0.13540938 -0.1325364 -0.19373204 0.13313402 -0.02270443 0.025266888 0.021971177
-0.17476699 -0.13256337 0.17281893 -0.15284197 -0.17416151 0.14295335 -0.10032734 -0.13931927
-0.2286342 0.17082192 0.026422735 -0.0106016155 -0.04983405 -0.16009331 -0.15891576 0.04480253
0.05464926 0.01642979 -0.10396803 0.11481182 -0.1318762 0.05381921 -0.22996895 -0.32284465
-0.12005954 0.046152055 0.016496949 -0.21013126 -0.1484499 -0.24147339 -0.15738198 0.13237524
-0.20437114 -0.2006925 0.20240234 -0.15329726 0.06323998 0.019003477 -0.14707865 -0.1411854
0.044132076 -0.1448356 -0.15035754 -0.14084417 -0.0099114105 -0.039122704 -0.20728937 -0.03811352
-0.14234535 0.1013348 0.2195343 -0.124510705 -0.022630196 -0.045848995 -0.14658436 -0.17070468
-0.20850243 0.13322517 -0.110674426 -0.16600022 -0.15136963 0.27103353 -0.13693619 0.2442338
-0.068886705 0.23252307 -0.17172013 -0.0894306 -0.0680461 -0.1423825 0.07413474 -0.19874616
-0.1612849 0.15318725 -0.19597168 -0.04253017 -0.15571722 -0.23373581 -0.10248281 0.17285044
-0.094153084 -0.23290674 -0.15627341 -0.20169923 0.19621007 0.070919976 -0.21345888 0.18641955
-0.11259739 -0.15814924 -0.08010352 0.016327629 -0.07370176 -0.14906007 0.13866645 0.08178436
00000000: ad94 6cbe 43af 463e 67ab af3d 4466 a13d
00000010: 1ac0 72be 2307 1ebe 320d 47be d409 07be
00000020: 2349 ffbd 8aff 8bbd bf2d cb3d 2e19 4f3d
00000030: c1d9 a4bd 38f2 013e 0f38 e0bc f241 ffbd
00000040: baf1 9c3d 6ee0 453e 7672 57be d0d5 3c3d
00000050: 93ff 44be 1f8d 1f3d c92d 6d3e 7c6e 8b3e
00000060: 6afb ed3c c765 f23d 0eac 4dbd 97ad 43be
00000070: 799c 64be e24f 20be ee72 2dbe bc17 1abe
00000080: f687 a83d d836 e5bd 5587 52be 9d2a 2ebe
00000090: 918f 1fbe c6e8 763e bfaa a3bd 3645 89be
000000a0: 8edc 33be edf0 a33d fa9b 913d 51db f2bc
000000b0: bf8a 6abe 47f4 04be 9884 36bd ce2c 6bbe
000000c0: 74e2 3bbe 8596 ad3d 9591 133e 3ebf 753d
000000d0: 6295 5ebe 8613 203e 522c 823e a8a7 bc3d
000000e0: 015c 043e f5e8 a93d eefa 37be 414e 663c
000000f0: 09ef adbd 6177 4f3e 1b81 0c3e cf7e 8fbd
00000100: b8ad 243e 0c0b 48be fd19 da3d c900 42be
00000110: 928b a6bd a087 7abe ff3b ee3d 004c 253e
00000120: 1e99 22be f034 7bbe a1a8 723e dd7f 5cbe
00000130: 68f1 32be 2151 0d3c e53a 5bbe ac4e a63d
00000140: 6d4f 99bd f85d e23d 74df 9b3d 81f6 f4bc
00000150: 31a6 18bd eca1 0c3e 5159 af3c 44c4 05be
00000160: b4c2 263d c6da 1fbe ea2e 11be 9277 db3d
00000170: 9bb4 37be 0d63 95bd dc91 77bd 54a3 2abe
00000180: f7c2 a1bd 8c69 0fbe 8f56 9f3e a227 06bd
00000190: f433 a4bd eb8c 4bbc a71c 37be 415f 10be
000001a0: 291f 9dbd 19fb 12be c269 6e3d 8126 c43d
000001b0: 2781 a7bd 54ad 30be a960 08be 151d 0ebe
000001c0: 0fb3 07be 648f 8a3e 665f c63d 3ccb a33b
000001d0: aa57 3f3c eb04 12bd 7d14 343e 8b63 76bc
000001e0: c5a5 19be a70b fb3d 43be 093b a1d2 32bb
000001f0: 8ec8 383e 4241 89bd f8db 0ebe c163 03be
00000200: d917 2abe 4c1c 78be b4ae b33d ed6a e83d
00000210: 8515 53be 4908 05be 4f28 433e 048d 20be
00000220: 3189 753d 463d 813c 0902 453e 465c 543e
00000230: b6dc 32bc a42d 64be 299d b43d 2e98 39be
00000240: f019 213e 0b18 1cbe 8f73 0d3d 9856 2ebe
00000250: 0949 21be 5111 143e 8a61 73be bf47 4b3d
00000260: b989 15be c2a8 0abe 9fb7 07be b161 46be
00000270: 4954 083e a4fe b9bc 81fc ce3c e6fc b33c
00000280: 1ef6 32be b1be 07be 72f7 303e 9b82 1cbe
00000290: 6557 32be 5d62 123e 6c78 cdbd b6a9 0ebe
000002a0: 151f 6abe f1eb 2e3e 7e74 d83c 66b2 2dbc
000002b0: ca1e 4cbd 80ef 23be d0ba 22be dc82 373d
000002c0: e7d7 5f3d c497 863c 31ed d4bd 7622 eb3d
000002d0: 8e0a 07be 8871 5c3d fb7c 6bbe e54b a5be
000002e0: c7e1 f5bd f009 3d3d 9c24 873c a62c 57be
000002f0: 4003 18be cd44 77be be28 21be 608d 073e
00000300: ab46 51be 5682 4dbe 8f42 4f3e f5f9 1cbe
00000310: f683 813d 2ead 9b3c c99b 16be e892 10be
00000320: d6c3 343d c94f 14be 54f7 19be 7439 10be
00000330: 7863 22bc 213f 20bd aa43 54be ec1c 1cbd
00000340: fbc2 11be 9f88 cf3d 99cd 603e 78ff febd
00000350: f662 b9bc 28cc 3bbd 361a 16be 35cd 2ebe
00000360: a981 55be 2e6c 083e 46a9 e2bd f6fb 29be
00000370: a400 1bbe e8c4 8a3e 0039 0cbe 6d18 7a3e
00000380: 7914 8dbd 871a 6e3e 67d7 2fbe 6427 b7bd
00000390: c15b 8bbd b8cc 11be f4d3 973d 1d84 4bbe
000003a0: de27 25be 1edd 1c3e cdac 48be 1e34 2ebd
000003b0: 5674 1fbe 7158 6fbe 82e2 d1bd b5ff 303e
000003c0: 55d3 c0bd 1b7f 6ebe 2306 20be 3e8a 4ebe
000003d0: 4beb 483e 7e3e 913d f794 5abe c4e4 3e3e
000003e0: 7699 e6bd e0f1 21be 500d a4bd 85c1 853c
000003f0: f3f0 96bd 34a3 18be 94fe 0d3e 8f7e a73d
