Project2_continuous_control/checkpoint_actor.pth (torch_old, 307634 bytes, 10 tensors)

fc1.weight f4 [256, 33]
0	0xbe5f6e09	-0.21819319
1	0xbde7e775	-0.11323444
2	0xbecc4e1f	-0.39903352
3	0x3ed28813	0.4111944
4	0x3c51a46f	0.012795552
5	0x3d8512a2	0.064976946
6	0xbea3d447	-0.31997892
7	0xbe576cc7	-0.21037589
8	0xbd9d8878	-0.07692045
9	0x3dd3ea92	0.10347475
10	0xbdb919ac	-0.090381
11	0xbdf56076	-0.11981289
12	0xbd90286a	-0.07038958
13	0xbc94d7d8	-0.018169329
14	0xbdd4a113	-0.10382285
15	0x3df95403	0.12174227
16	0xbe3599eb	-0.17734496
17	0x3e6ca9a0	0.23111582
18	0xbd6ee3a3	-0.05832256
19	0xbe17c15e	-0.14819857
20	0x3cb2eca8	0.021841362
21	0x3d867718	0.06565684
22	0x3d8748a7	0.06605654
23	0x3d13c5b7	0.036077227
24	0x3ce708ef	0.028202502
25	0x3e1552b4	0.1458233
26	0x3b8b4fb3	0.0042514442
27	0xbd8490e0	-0.06472945
28	0x3d318cb2	0.043347068
29	0x3d731074	0.059341863
30	0xbc9bbfbb	-0.019012323
31	0xbc87aef8	-0.016562924
32	0x3e2a467b	0.16628449
33	0x3d282ddd	0.041059364
34	0xbe36eddc	-0.17864174
35	0x3d762b99	0.06010017
36	0xbe3b7ad3	-0.18308572
37	0xbe1c44e4	-0.15260655
38	0x3eeda91e	0.4641809
39	0xbe66d07b	-0.22540466
40	0x3dd2798b	0.10277089
41	0xbe1210a7	-0.14264165
42	0xbd0cc422	-0.034366734
43	0x3d77d79b	0.06050835
44	0x3c62633f	0.013817607
45	0xbd66e3d5	-0.05636962
46	0x3e6d94fd	0.23201366
47	0x3e12cbb7	0.14335524
48	0xbd917fe5	-0.07104472
49	0xbb5baf7c	-0.0033521345
50	0x3e321984	0.17392546
51	0xbddaea16	-0.106891796
52	0x3e1fb241	0.15595342
53	0xbd0ec079	-0.034851525
54	0x3d0b5c97	0.034023847
55	0xbda4148d	-0.08011732
56	0xbaf46439	-0.0018645591
57	0x3d6b1615	0.057394106
58	0x3d06abb6	0.0328786
59	0xbe34bb66	-0.17649612
60	0x3df5e754	0.12007013
61	0x3da3eb06	0.080038115
62	0xbd1ab8de	-0.03777396
63	0xbd5049ad	-0.050851513
64	0xbd2704f2	-0.0407762
65	0xbf29c427	-0.6631493
66	0xbc52bbe7	-0.012862182
67	0x3db5ce46	0.08877234
68	0x3e45f7ab	0.19332759
69	0xbd0f7c88	-0.03503087
70	0xbd907d15	-0.070551075
71	0x3ed9f574	0.42570078
72	0xbe1e8187	-0.15479098
73	0xbd6de512	-0.058079787
74	0x3e076c75	0.13224967
75	0x3d9e001a	0.07714863
76	0x3d805834	0.062668234
77	0x3c15eab5	0.009150197
78	0xbdf7fa07	-0.12108236
79	0x3d8e048c	0.06934461
80	0xbdc8fa75	-0.09813396
81	0xbdf6f34b	-0.12058123
82	0xbee3ded0	-0.4450593
83	0xbcc4205e	-0.023941215
84	0xbe8f047e	-0.27933115
85	0x3c8c1a78	0.017102465
86	0xba9305fa	-0.0011216991
87	0x3d1ecf05	0.038771648
88	0x3bff3d73	0.0077893077
89	0x3c8aa221	0.016923012
90	0xbcd71720	-0.026256144
91	0xbde1dd0c	-0.110284895
92	0xbcb7784f	-0.022396235
93	0x3ed47de7	0.41502306
94	0xbe2e5fe1	-0.17028762
95	0xbb56a4e0	-0.0032752082
96	0xbeecd047	-0.46252653
97	0x3d38ea94	0.045145586
98	0x3e44aeae	0.1920726
99	0xbd25626b	-0.04037706
100	0xbd392dfc	-0.04520987
101	0x3e6bc59c	0.230246
102	0xbda0e461	-0.0785606
103	0x3ed3608e	0.41284603
104	0xbe32f98c	-0.17478007
105	0x3ec3beec	0.382316
106	0xbdb69311	-0.089147694
107	0xbe907db2	-0.28220898
108	0x3d06eb3d	0.032939184
109	0xbc0c6c9d	-0.008570817
110	0xbcfd77d9	-0.030940937
111	0x3b5a1f79	0.003328292
112	0xbd9a36a7	-0.07529955
113	0x3e3dc677	0.1853274
114	0x3d837459	0.06418676
115	0x3cb00d4e	0.02149072
116	0xbf0cc987	-0.54995006
117	0x3f06663b	0.5249974
118	0xbe9fb063	-0.3118926
119	0xbca39ba9	-0.019971685
120	0xba4f9c9c	-0.000791976
121	0x3c199949	0.009374925
122	0xbd0041e3	-0.031312834
123	0x3c993d18	0.01870589
124	0x3cefdd5a	0.029280353
125	0xbdfbd4d7	-0.12296455
126	0x3e3636be	0.1779432
127	0xbe1b628e	-0.15174314
128	0x3c97465c	0.018466167
129	0xbe691251	-0.22760893
130	0xbc89d8a4	-0.016826935
131	0x3e8becc2	0.2732907
132	0xbe16c52c	-0.14723653
133	0x3ce42f71	0.027854653
134	0xbe9db8cd	-0.30805054
135	0x3ab5282a	0.0013821174
136	0x3e9928e7	0.2991402
137	0x3ee5f2d9	0.4491184
138	0xbd89d548	-0.06730133
139	0xbe187bed	-0.14891024
140	0x3e8ef01d	0.27917567
141	0x3e2bf7ae	0.16793701
142	0x3e476a19	0.19474067
143	0xbe237f29	-0.15966477
144	0xbd687395	-0.056750853
145	0xbc866aa0	-0.016408265
146	0xbe61e8a8	-0.22061408
147	0x3de52739	0.11189122
148	0xbef42876	-0.4768712
149	0xbab61c96	-0.0013894017
150	0x3e6f1ef7	0.23351656
151	0xbd8302ff	-0.06397056
152	0x3da2229b	0.07916757
153	0x3d350916	0.04419812
154	0xbe2588b7	-0.16165434
155	0x3e14a32d	0.14515372
156	0xbc1685a6	-0.009187138
157	0x3d10958b	0.035298865
158	0x3b25b953	0.0025287464
159	0xbc9e7856	-0.01934449
160	0x3bc02c82	0.0058646807
161	0xbcfc7fa8	-0.03082259
162	0xbb93a04f	-0.0045051943
163	0xbd305162	-0.043046363
164	0xbeb77c8f	-0.35837218
165	0xbe1188e5	-0.14212377
166	0xbc8de25e	-0.017319854
167	0xbdf86d6b	-0.12130245
168	0xbda555db	-0.08073016
169	0x3e4f96b1	0.20272328
170	0xbe8006c7	-0.2500517
171	0x3daaef62	0.0834644
172	0xbe563891	-0.20920016
173	0xbc9dcbc3	-0.0192622
174	0x3ea77724	0.32708085
175	0x3e3a6ae1	0.18204834
176	0xbd19c843	-0.0375445
177	0xbcc88fc9	-0.024482625
178	0x3e15ba23	0.14621787
179	0x3e17ebb1	0.14836003
180	0x3c3c02bd	0.011475262
181	0xbef3a560	-0.4758711
182	0xbe92a2d7	-0.28639862
183	0x3ec44e89	0.38341168
184	0xbeaa524d	-0.33265916
185	0x3e888c5a	0.2666958
186	0xbcb15b2c	-0.02164992
187	0xbd2982f2	-0.041384645
188	0x3e3a512c	0.18195027
189	0xbcb4bf11	-0.022063764
190	0x3df27a48	0.118397295
191	0x3da52277	0.08063214
192	0xbd37cf48	-0.044875413
193	0x3d857a00	0.0651741
194	0x3c8cc9d8	0.01718609
195	0x3d9eb2f1	0.07748974
196	0xbd61adfc	-0.055097565
197	0x3e8ad1ce	0.27113193
198	0xbd6c3754	-0.057669953
199	0xbd8de523	-0.0692847
200	0xbda52395	-0.08063427
201	0xbdade3aa	-0.08490689
202	0x3e7501da	0.23926488
203	0x3f06a7bd	0.525997
204	0x3caa9399	0.020822333
205	0x3d628f64	0.05531253
206	0x3dfe5bad	0.124198295
207	0xbce5ac42	-0.02803624
208	0x3d5a1f81	0.0532527
209	0xbceda41f	-0.029008923
210	0xbd011648	-0.03151539
211	0x3d4f5c91	0.050625388
212	0x3d9c757c	0.07639596
213	0x3dd25937	0.10270923
214	0x3d72b132	0.059251018
215	0xbe06c3c0	-0.1316061
216	0xbe81f051	-0.2537866
217	0x3dcb33b8	0.09921974
218	0xbce23e34	-0.027617551
219	0xbcc3085b	-0.023807695
220	0x3b8a415e	0.004219218
221	0x3b3d8ec3	0.0028924204
222	0x3d1be51e	0.0380603
223	0x3d2628e0	0.040566325
224	0xbdbed4d8	-0.093179405
225	0x3dfc3dac	0.123164505
226	0x3c573dae	0.013137264
227	0x3d6cd206	0.05781748
228	0xbe4fe787	-0.20303164
229	0x3bd64d70	0.006539993
230	0xbf9c1ff1	-1.2197248
231	0x3da5ba7f	0.08092212
232	0x3e0aa91c	0.13541073
233	0x3d44c27c	0.048037037
234	0x3d3f4c4a	0.046703614
235	0x3bed9c3e	0.0072512915
236	0x3f3ec0a4	0.74512696
237	0xbdf59edf	-0.11993193
238	0xbe026c98	-0.12736738
239	0x3c917273	0.017754769
240	0xbdfafb36	-0.12254946
241	0xbdc936ba	-0.098248914
242	0x3d47f735	0.04881974
243	0xbd6c5a51	-0.05770332
244	0x3e225da6	0.15856037
245	0x3e02a705	0.12759025
246	0x3e17fa12	0.14841488
247	0x3dde7292	0.10861696
248	0x3e8169c8	0.25276017
249	0xbe05f516	-0.13081774
250	0x3e57515e	0.21027133
251	0xbdc6efb3	-0.09713688
252	0x3daae16f	0.08343779
253	0x3d9e08c5	0.077165164
254	0x3d2cac54	0.042156532
255	0x3da19c9d	0.078912

fc1.bias f4 [256]
0	0x3decd049	0.11563165
1	0x3d78ce5b	0.06074367
2	0xbef24563	-0.47318563
3	0xbda8ac26	-0.0823596
4	0x3cadabb4	0.021200038
5	0xbd5ed709	-0.054404292
6	0xbeac9411	-0.33706716
7	0xbe906eaf	-0.28209445
8	0x3d28f597	0.041249838
9	0xbdbc3bb9	-0.09191079
10	0xbb9db8b3	-0.0048132776
11	0xbe388c88	-0.18022358
12	0xbd1cba1b	-0.03826342
13	0xbeb5a23d	-0.3547534
14	0xbe1996c9	-0.14998926
15	0xbdb96eef	-0.09054362
16	0x3d0ff8c5	0.035149354
17	0xbe69a576	-0.22817025
18	0x3e94c780	0.29058456
19	0xbebf0f4b	-0.37316355
20	0x3e926dfd	0.2859954
21	0xbe46c8d7	-0.19412552
22	0xbe00c2ae	-0.12574264
23	0xbe23db83	-0.16001706
24	0xbe6192b8	-0.22028625
25	0xbe096559	-0.13417567
26	0x3d96f10c	0.07370195
27	0xbdc8d357	-0.09805935
28	0xbded9a1b	-0.11601659
29	0x3bf8915f	0.007585689
30	0xbdd3252b	-0.103098236
31	0xbd1e01a6	-0.03857579
32	0xbe1abbc6	-0.15110692
33	0xbe809441	-0.2511311
34	0xbdd0d863	-0.101975225
35	0xbe172a1a	-0.14762154
36	0x3cd0ee98	0.025504395
37	0xbd578bb9	-0.052623484
38	0xbe5345d1	-0.20632102
39	0x3dde9488	0.10868174
40	0xbdb06a6f	-0.086140506
41	0xbe35a6dc	-0.17739433
42	0xbdaf7d01	-0.085687645
43	0xbe4d3337	-0.20039068
44	0xbe21a971	-0.15787293
45	0xbdb3dee2	-0.08782746
46	0xbe272350	-0.16322064
47	0xbdd68aab	-0.104756676
48	0xbe113dca	-0.14183727
49	0xbee487b0	-0.4463477
50	0xbe9ecc02	-0.3101502
51	0xbbed0b66	-0.007234025
52	0xbec5f609	-0.38664272
53	0xbeb976c0	-0.36223412
54	0xbe7b52b3	-0.24543266
55	0x3d651672	0.05592961
56	0xbc7a66e0	-0.015283316
57	0xbe84a8a9	-0.25909927
58	0xbdb0fa0f	-0.08641445
59	0xbde23da0	-0.1104691
60	0xbe843f14	-0.25829375
61	0x3e32b961	0.17453529
62	0xbee544b7	-0.44778988
63	0xbddd7644	-0.10813573
64	0xbe33017a	-0.17481032
65	0xbe1d67bf	-0.15371607
66	0xbd70cb30	-0.058787525
67	0xbd79c5f0	-0.060979784
68	0xbe1d84e0	-0.15382719
69	0xbc446f4d	-0.011989427
70	0xbca203a2	-0.019777123
71	0xbdc6bd82	-0.097041145
72	0xbe2b32b9	-0.16718568
73	0xbead26fc	-0.33818805
74	0xbd7e5cbd	-0.06210016
75	0xbe827cf1	-0.25485948
76	0xbe143f53	-0.14477281
77	0xbe53e67f	-0.20693396
78	0xbe5df317	-0.21674763
79	0xbed82251	-0.4221368
80	0xbe69c378	-0.22828472
81	0x3ce01c76	0.027357321
82	0x3d92753e	0.071512684
83	0xbacbd56a	-0.0015551273
84	0xbc62b290	-0.013836518
85	0xbea6edf8	-0.3260343
86	0xbc890428	-0.016725615
87	0xbe0187dd	-0.12649484
88	0x3c0ca038	0.008583121
89	0xbe54884f	-0.20755123
90	0xbe41d02e	-0.1892707
91	0xbe63bbec	-0.22239655
92	0x3cd54cf0	0.026037663
93	0xbeacaac0	-0.33724022
94	0xbed468b6	-0.41486138
95	0xbdf5bdb8	-0.119990766
96	0xbc278789	-0.010225185
97	0xbdc305c8	-0.09522587
98	0xbde6a488	-0.112618506
99	0xbd7ec82b	-0.062202614
100	0x3d1ea88c	0.038734958
101	0xbd86bb11	-0.06578649
102	0xbe4a48ac	-0.19754285
103	0xbe462cd6	-0.19353041
104	0xbe25641d	-0.16151471
105	0xbd2d37a3	-0.042289387
106	0xbec6a1fa	-0.38795453
107	0xbcc79714	-0.024364032
108	0xbe931cc2	-0.28732878
109	0xbddb3596	-0.1070358
110	0x3cdd81d1	0.02703944
111	0xbcce3e4a	-0.025176186
112	0xbea75885	-0.32684723
113	0xbd3a6b53	-0.04551251
114	0xbe520d3e	-0.20512864
115	0xbdff057a	-0.124522164
116	0xbdf1a723	-0.11799457
117	0xbe6fee2c	-0.23430699
118	0xbd29acee	-0.041424684
119	0xbe46acda	-0.19401875
120	0xbea5b12b	-0.3236173
121	0x3d308165	0.04309215
122	0x3d00fa31	0.0314886
123	0xbd6b3624	-0.05742468
124	0xbe7a668a	-0.24453178
125	0xbe1c5785	-0.15267761
126	0xbe16a3ee	-0.14710972
127	0xbd8300c1	-0.06396628
128	0xbda37d6d	-0.079829074
129	0x3de1e6af	0.110303275
130	0xbe162215	-0.14661439
131	0xbe29555c	-0.16536468
132	0xbe6ee052	-0.23327759
133	0x3e9ecc57	0.31015274
134	0xbe50ad75	-0.20378669
135	0xbe8fc91a	-0.28083116
136	0xbe46e590	-0.19423509
137	0xbe377aa6	-0.1791788
138	0xbe7cffdd	-0.24706979
139	0xbe9cc1dd	-0.30616656
140	0x3e2b4bcb	0.16728131
141	0xbd8bc1f4	-0.06824103
142	0xbe8334d8	-0.25626254
143	0xbc936c97	-0.017996116
144	0xbe047d5c	-0.12938446
145	0xbeccf44c	-0.40030134
146	0xbd126b29	-0.035746727
147	0xbcb59f37	-0.022170646
148	0x3da3a790	0.079909444
149	0x3e0889e8	0.13333857
150	0xbd87f561	-0.06638599
151	0xbe2015ea	-0.1563336
152	0xbd816240	-0.06317568
153	0x3da9bcc8	0.0828796
154	0xbe1552c3	-0.14582352
155	0xbdc0af37	-0.094084196
156	0xbe62144d	-0.22078057
157	0xbdf15a04	-0.11784747
158	0xbe1a32d8	-0.15058458
159	0xbeabdf7b	-0.3356894
160	0xbeb4001d	-0.35156336
161	0xbe3c50ff	-0.18390273
162	0xbd8d2645	-0.06892065
163	0xbe770414	-0.2412265
164	0x3d8c0a31	0.06837881
165	0xbe847536	-0.25870675
166	0x3ded37c4	0.11582902
167	0xbe8f5af2	-0.27999073
168	0xbe596f16	-0.21233782
169	0x3dfb3772	0.12266435
170	0xbe0238f0	-0.12717032
171	0xbd10c6e4	-0.035345927
172	0x3e6e3135	0.23260958
173	0x3cddfc4f	0.02709785
174	0xbd155cc4	-0.03646542
175	0xbd0f7c6c	-0.035030767
176	0x3cc3120c	0.023812316
177	0xbd3b4748	-0.045722276
178	0x3c9d9995	0.019238273
179	0xbe9aa9cc	-0.3020767
180	0xbe30a178	-0.17249095
181	0xbe357a91	-0.17722537
182	0xbe55b243	-0.20868783
183	0xbe6363a4	-0.22205979
184	0xbe9baa6e	-0.30403465
185	0xbdd070ce	-0.10177766
186	0xbde5cbf2	-0.1122054
187	0xbcd50b73	-0.026006436
188	0xbdfb7a70	-0.122792125
189	0xbe971c1b	-0.2951363
190	0xbe551908	-0.2081033
191	0xbdb795e9	-0.0896414
192	0x3c8dbf49	0.017303126
193	0xbdf6b293	-0.12045779
194	0xbe49983b	-0.19686978
195	0xbd1ab4bc	-0.037770018
196	0xbd9e571a	-0.07731457
197	0x3e2873b9	0.16450395
198	0xbe6699b4	-0.2251957
199	0xbe87402d	-0.2641615
200	0xbecfe0f0	-0.406013
201	0xbe087197	-0.13324581
202	0x3dfcc8ba	0.12342973
203	0xbd3f138e	-0.04664951
204	0xbcc72a90	-0.024312288
205	0xbe3444cb	-0.17604367
206	0xbd079248	-0.03309849
207	0xbe22becb	-0.15893094
208	0x3c361ffc	0.011116024
209	0xbd4e8beb	-0.050426405
210	0xbe604c9a	-0.21904221
211	0xbe2d1873	-0.16903858
212	0xbcbf8541	-0.02337897
213	0xbe9e2257	-0.30885574
214	0xbd8c44ab	-0.06849035
215	0xbdd4ff3a	-0.10400243
216	0xbdc71c91	-0.097222455
217	0xbc5078fe	-0.012724159
218	0x3db886be	0.09010075
219	0x3df43158	0.11923474
220	0xbd81fe26	-0.06347303
221	0xbe669e77	-0.22521387
222	0xbe8661d2	-0.26246506
223	0xbe2347aa	-0.15945306
224	0xbe10a739	-0.1412629
225	0xbe7443ef	-0.2385404
226	0xbe5a5d0e	-0.2132456
227	0xbd2e5cfe	-0.042569153
228	0xbe699a43	-0.22812752
229	0xbec11ab8	-0.37715697
230	0xbe5351b1	-0.20636632
231	0xbe10f987	-0.14157687
232	0xbeb10de2	-0.34580904
233	0xbe1fc8cd	-0.15603943
234	0xbde6274b	-0.11237963
235	0xbd98f8bd	-0.07469318
236	0xbe300c5d	-0.17192216
237	0xbed53577	-0.41642353
238	0xbea06432	-0.31326443
239	0xbec17d80	-0.3779106
240	0x3df0cc4d	0.11757717
241	0xbe58269a	-0.21108475
242	0x3d02e417	0.031955805
243	0xbdcdedd2	-0.10055126
244	0x3d5b6a72	0.05356831
245	0x3dd3b95f	0.10338091
246	0xbe8a1f5f	-0.2697706
247	0xbe3a6859	-0.18203868
248	0x3c60430a	0.013687858
249	0xbe7b69bf	-0.24552058
250	0xbcbe25d7	-0.023211403
251	0xbe60310f	-0.21893714
252	0xbe35525e	-0.17707202
253	0xbd011317	-0.031512346
254	0x3dd27d5f	0.10277819
255	0xbd189be7	-0.037258055

bn1.weight f4 [256]
0	0x3f30da09	0.69082695
1	0x3f1f5775	0.62242824
2	0x3f2b226c	0.668494
3	0x3efab3d6	0.4896533
4	0x3f3f5be1	0.7474957
5	0x3f150ba1	0.5822087
6	0x3f7ea0ca	0.99464095
7	0x3f3cc813	0.7374279
8	0x3f35931a	0.70927584
9	0x3f0eae68	0.5573487
10	0x3f82dfcc	1.0224547
11	0x3f8ea1ee	1.1143167
12	0x3f716a3f	0.94302744
13	0x3f000734	0.5001099
14	0x3f090148	0.5351758
15	0x3f665483	0.89972705
16	0x3f81ba15	1.0134913
17	0x3f1b4614	0.60653806
18	0x3f0d933a	0.55302775
19	0x3f560f05	0.8361667
20	0x3f88cc01	1.0687257
21	0x3f29cddd	0.6632975
22	0x3ede6634	0.4343735
23	0x3f698030	0.91211224
24	0x3f0af9fe	0.5428771
25	0x3f8d34c0	1.1031723
26	0x3f15a96c	0.5846164
27	0x3f408f33	0.75218505
28	0x3f9d7d5f	1.2303885
29	0x3f255c2d	0.64593774
30	0x3f38014b	0.7187697
31	0x3f266ec9	0.65012795
32	0x3f545f20	0.8295765
33	0x3f1ec831	0.6202422
34	0x3f6c3834	0.9227326
35	0x3f41122d	0.7541836
36	0x3f4db648	0.80356264
37	0x3f85afa7	1.044423
38	0x3f2baff8	0.6706538
39	0x3f53d3fc	0.8274534
40	0x3f30620a	0.68899596
41	0x3f1a2e89	0.60227257
42	0x3f8ccd18	1.100009
43	0x3f7cbe35	0.9872773
44	0x3f8ad5d2	1.0846503
45	0x3f2924e1	0.660719
46	0x3f41b8a4	0.75672364
47	0x3f0fb072	0.5612861
48	0x3f79d668	0.9759278
49	0x3eb0a4d2	0.34500748
50	0x3eb8fdbe	0.3613109
51	0x3f96172c	1.1725821
52	0x3f5ad61e	0.85482967
53	0x3edc123f	0.4298267
54	0x3f1be41d	0.6089495
55	0x3f318dbf	0.6935691
56	0x3f6eb92a	0.9325129
57	0x3f7efd91	0.9960566
58	0x3f69c87d	0.91321546
59	0x3f2f1220	0.6838703
60	0x3fd54c1b	1.666385
61	0x3f83ed6b	1.0306829
62	0x3e78b93d	0.24289413
63	0x3fa79618	1.309268
64	0x3f40a207	0.75247234
65	0x3f52addf	0.82296556
66	0x3f91a1c6	1.1377494
67	0x3f19e5e3	0.60116404
68	0x3f0b1fe8	0.5434556
69	0x3f241276	0.6409067
70	0x3f5ef872	0.8709785
71	0x3f33f22e	0.7029141
72	0x3f4e301e	0.8054217
73	0x3f061d5d	0.52388555
74	0x3f7d21ef	0.98879904
75	0x3f3d7d36	0.7401918
76	0x3f76da4c	0.96426845
77	0x3f58e5bb	0.8472554
78	0x3e8d7d76	0.27634782
79	0x3e879e80	0.26488113
80	0x3f016bdc	0.50555205
81	0x3f7f75f8	0.9978938
82	0x3f423d4d	0.7587479
83	0x3f32fa44	0.69913125
84	0x3f316fe7	0.69311374
85	0x3ef75986	0.48310488
86	0x3f77a6cb	0.9673888
87	0x3f1092c3	0.5647394
88	0x3f3c5e05	0.7358096
89	0x3f9a0e4c	1.2035613
90	0x3f4613ef	0.77374166
91	0x3f6682ef	0.9004354
92	0x3f02f0c6	0.5114864
93	0x3f0060e6	0.50147855
94	0x3eee58ae	0.46552032
95	0x3f8091cd	1.0044495
96	0x3f860ef8	1.0473318
97	0x3f2aa289	0.6665426
98	0x3f3b2557	0.7310385
99	0x3f5940f8	0.8486476
100	0x3f895f06	1.0732124
101	0x3f54d846	0.8314251
102	0x3f56fc47	0.83978695
103	0x3f5cc711	0.8624125
104	0x3f512b98	0.81707144
105	0x3f55b309	0.8347631
106	0x3f6e733d	0.9314459
107	0x3f597ee3	0.8495924
108	0x3f38c2d9	0.72172314
109	0x3f8b841c	1.0899692
110	0x3e9e5185	0.3092157
111	0x3f379259	0.71707684
112	0x3f0c22c2	0.54740536
113	0x3f479da8	0.7797494
114	0x3f3e77f7	0.744018
115	0x3f249ca0	0.6430149
116	0x3f4779eb	0.7792041
117	0x3f9fe7a3	1.2492565
118	0x3f890419	1.0704376
119	0x3f88baca	1.0682003
120	0x3f8859ae	1.0652368
121	0x3f0b5afd	0.5443571
122	0x3f527be1	0.82220274
123	0x3f899051	1.0747167
124	0x3f3bbeb8	0.7333789
125	0x3f102b64	0.5631621
126	0x3f154c62	0.58319676
127	0x3f1960e8	0.5991349
128	0x3f827c4f	1.0194186
129	0x3f840cfd	1.0316464
130	0x3f8781f9	1.058654
131	0x3eae04eb	0.33988127
132	0x3f0c0d43	0.54707736
133	0x3f276039	0.653812
134	0x3f041d8b	0.5160758
135	0x3f2488a9	0.64271027
136	0x3f5fb43c	0.8738439
137	0x3f0c7919	0.5487228
138	0x3f6207f0	0.8829336
139	0x3f4ad1a0	0.7922611
140	0x3f7184c7	0.9434323
141	0x3f06ce46	0.526585
142	0x3f950aa0	1.1643867
143	0x3f83e9b0	1.0305691
144	0x3f01400b	0.50488347
145	0x3f358d01	0.7091828
146	0x3f7356ca	0.95054305
147	0x3f36c452	0.7139331
148	0x3f62a945	0.88539535
149	0x3f3e7672	0.74399483
150	0x3f45ca4e	0.7726182
151	0x3ec45f3e	0.38353914
152	0x3f6e41a7	0.9306893
153	0x3f06dcd1	0.5268069
154	0x3ed8bf1a	0.423333
155	0x3faec328	1.3653307
156	0x3f12fe64	0.5741942
157	0x3f8dcfde	1.1079061
158	0x3f6a892a	0.91615546
159	0x3ef1206f	0.47095057
160	0x3ef5580c	0.47918737
161	0x3f9468c4	1.1594472
162	0x3f7460e5	0.9546035
163	0x3f261aa6	0.6488441
164	0x3f384543	0.71980685
165	0x3f5b36a5	0.85630256
166	0x3f806d13	1.0033287
167	0x3ee9abce	0.4563889
168	0x3f0d44dd	0.551832
169	0x3f2527d0	0.64513874
170	0x3f87b6cb	1.0602659
171	0x3f6dab08	0.928391
172	0x3f2dc5a0	0.67879677
173	0x3f756686	0.95859563
174	0x3fa98d05	1.3246161
175	0x3f0b6ef5	0.5446618
176	0x3f645ede	0.89207256
177	0x3f83e05b	1.0302843
178	0x3f3156c6	0.6927303
179	0x3f43f8f5	0.76551753
180	0x3f5245ab	0.82137555
181	0x3f6c9d0f	0.9242715
182	0x3f655d75	0.8959573
183	0x3f0d08fe	0.55091846
184	0x3f12f375	0.57402736
185	0x3f311be7	0.691832
186	0x3f1998a2	0.59998524
187	0x3f9eba93	1.2400688
188	0x3f529e28	0.8227258
189	0x3f032c5f	0.5123958
190	0x3f8555cf	1.0416812
191	0x3f52685d	0.82190496
192	0x3f3b7e6c	0.7323978
193	0x3f7a1df7	0.9770197
194	0x3eea8268	0.45802617
195	0x3f24b070	0.6433172
196	0x3f471682	0.7776872
197	0x3f38726b	0.7204959
198	0x3f599bdd	0.85003453
199	0x3f1e5ad5	0.6185735
200	0x3e63c5c4	0.2224341
201	0x3f1c9099	0.6115814
202	0x3f9cdb04	1.2254338
203	0x3f540634	0.82821965
204	0xbeae222b	-0.34010443
205	0x3f27a1fd	0.6548155
206	0x3f074c05	0.5285037
207	0x3f53147c	0.8245313
208	0x3f71d23f	0.94461435
209	0x3f6a6512	0.9156047
210	0x3f35ff9d	0.7109316
211	0x3f52f5c1	0.8240624
212	0x3f659258	0.8967643
213	0x3f468b9b	0.7755677
214	0x3f6c7e96	0.92380655
215	0x3f542849	0.8287397
216	0x3f5366d9	0.8257881
217	0x3f5f5860	0.87244225
218	0x3f1c47af	0.6104688
219	0x3f1e02a3	0.61722773
220	0x3f45c878	0.77259016
221	0x3ef6ae00	0.48179626
222	0x3f0e9b34	0.5570557
223	0x3f48cf51	0.7844134
224	0x3f66ea1a	0.9020096
225	0x3f32d325	0.6985343
226	0x3f5c8cda	0.8615242
227	0x3eee9840	0.46600533
228	0x3f0bcde3	0.54611033
229	0x3f080bee	0.53143203
230	0x3f4fcf19	0.8117538
231	0x3eaa35b4	0.33244097
232	0x3f4ef05c	0.8083551
233	0x3f79a236	0.9751314
234	0x3f0bb14f	0.54567426
235	0x3f3f9fbb	0.74853104
236	0x3f7ce2d5	0.9878362
237	0x3e3357d7	0.17513977
238	0x3eb7bfb0	0.35888433
239	0x3f07642d	0.5288723
240	0x3f4422fb	0.76615876
241	0x3f08276e	0.53185165
242	0x3f570274	0.8398812
243	0x3f4f9a60	0.8109493
244	0x3f27086c	0.65247226
245	0x3f51ae72	0.8190681
246	0x3f8cff19	1.101535
247	0x3f4e299d	0.80532247
248	0x3f496f3b	0.7868535
249	0x3f6c4377	0.92290443
250	0x3f838d06	1.0277412
251	0x3f2f3037	0.68432945
252	0x3fb1350b	1.3844312
253	0x3ec81b44	0.39083302
254	0x3ee45456	0.44595593
255	0x3f06e011	0.5268565

bn1.bias f4 [256]
0	0x3e99b87b	0.3002356
1	0xbd1a60a3	-0.037689816
2	0x3e9a58b6	0.30145806
3	0x3e9994e6	0.29996413
4	0x3e280904	0.16409689
5	0x3e995c74	0.2995335
6	0x3edd7af5	0.4325787
7	0xbe748329	-0.23878159
8	0x3d8d5e60	0.06902766
9	0x3f010ea1	0.50412947
10	0x3d78b700	0.060721397
11	0x3d0704df	0.03296363
12	0x3cb97a24	0.022641249
13	0xbe62125d	-0.22077318
14	0x3c44dcc7	0.012015528
15	0x3e991ab5	0.29903188
16	0x3c5863e7	0.013207412
17	0xbdb9210b	-0.090395056
18	0x3e85a6dc	0.26103866
19	0x3e3b45c0	0.18288326
20	0x3d26cf67	0.040725138
21	0xbe9f99f1	-0.31172135
22	0xbe23ebad	-0.16007872
23	0x3e1ac89b	0.15115587
24	0xbd326ff3	-0.043563794
25	0x3e02ffed	0.1279294
26	0x3e1836ac	0.14864606
27	0x3d806bc0	0.06270552
28	0x3daba873	0.083817385
29	0xbe3e8769	-0.18606342
30	0x3d81a1a0	0.06329656
31	0xba0dbc3b	-0.00054067717
32	0x3c27cae9	0.010241249
33	0xbc27e573	-0.010247576
34	0x3e006326	0.12537822
35	0x3e04faaf	0.12986253
36	0x3e920265	0.28517452
37	0x3ef1b414	0.472077
38	0x3de02bbf	0.10945844
39	0x3df1ca22	0.11806132
40	0x3e207b9f	0.15672158
41	0xbdfad001	-0.12246705
42	0x3e86065b	0.26176724
43	0x3d7af625	0.061269898
44	0x3dba46d7	0.09095543
45	0xbe0b4a1a	-0.13602486
46	0xbdee0689	-0.1162234
47	0x3d2c2a40	0.04203248
48	0xbddb89fc	-0.10719678
49	0x3d4778ae	0.048699073
50	0xbde090cf	-0.1096512
51	0xbd9e0366	-0.07715492
52	0xbe5b3020	-0.21405077
53	0x3ea102cb	0.31447443
54	0x3ddfc764	0.109267026
55	0x3f0cbcd6	0.5497564
56	0xbdbbd598	-0.09171599
57	0x3ec53472	0.38516575
58	0xbd2e6622	-0.04257787
59	0xbd49d530	-0.049275577
60	0x3e37d74c	0.17953223
61	0x3f0fd756	0.5618795
62	0xbddf2bbf	-0.10897016
63	0x3ce0ee6f	0.027457444
64	0xbd952b76	-0.0728368
65	0xbe2af2b4	-0.16694146
66	0x3e4942e4	0.19654423
67	0xbe20bb03	-0.1569634
68	0xbc18483d	-0.009294567
69	0x3e18886e	0.14895794
70	0xbd33ea5e	-0.04392468
71	0xbe28b6ea	-0.16476026
72	0xbd8c0783	-0.0683737
73	0x3e2b29ff	0.16715239
74	0x3e2e309d	0.17010732
75	0x3c895493	0.016763961
76	0xbe80eb09	-0.25179318
77	0x3ee7135b	0.45131955
78	0x3e24cc55	0.16093571
79	0xbe332ca9	-0.17497505
80	0xbdbcf214	-0.0922586
81	0x3e84e908	0.2595904
82	0xbd2d177e	-0.042258732
83	0xbe390b1b	-0.18070643
84	0x3f4548a5	0.7706397
85	0x3e153cd9	0.14573993
86	0x3eb29f8e	0.34887356
87	0x3e1e32e9	0.15449108
88	0x3d3b6f00	0.045760155
89	0x3d9a2903	0.075273536
90	0x3dd0e754	0.10200372
91	0x3da7ac0e	0.08187114
92	0x3e37464a	0.17897907
93	0xbb9f6d31	-0.0048653116
94	0xbe34e3f5	-0.17665084
95	0x3cadb66d	0.021205151
96	0x3e520189	0.20508398
97	0xbdd5908c	-0.10427961
98	0x3de336dc	0.11094448
99	0x3dfe2e07	0.12411123
100	0xbe80c443	-0.25149736
101	0xbdd002cf	-0.10156786
102	0xbe02936a	-0.12751547
103	0xbc5735d1	-0.013135389
104	0xbddea4d5	-0.10871283
105	0xbe0c6594	-0.13710624
106	0x3e07d0ba	0.13263217
107	0x3ea5b26b	0.32362685
108	0x3d6ddd69	0.05807248
109	0xbe17f8a6	-0.14840946
110	0xbee1d394	-0.44106734
111	0x3d8dea5a	0.06929465
112	0x3e168226	0.14698085
113	0xbe3d5047	-0.18487655
114	0xbe25de9d	-0.16198201
115	0xbd15c79e	-0.036567323
116	0x3e222d97	0.15837704
117	0x3eab77a0	0.33489704
118	0x3eaac24a	0.33351356
119	0x3da7dd13	0.081964634
120	0x3f27c4ff	0.6553497
121	0x3ddf2230	0.108951926
122	0xbc50188b	-0.012701164
123	0x3e1d2201	0.15345003
124	0x3d0ef2e2	0.0348996
125	0xbdadb97f	-0.08482646
126	0x3eada345	0.33913627
127	0x3e03a80c	0.12857074
128	0x3c2d136b	0.010563712
129	0x3e08dfe6	0.1336666
130	0xbd4980aa	-0.04919497
131	0xbe5eef4b	-0.2177097
132	0x3bb057d0	0.005381562
133	0xbedba594	-0.42899764
134	0x3dcbc4d9	0.09949655
135	0x3ea6b902	0.32563025
136	0x3e55f128	0.20892775
137	0x3e26e9e8	0.16300166
138	0x3e809a4b	0.25117716
139	0xbebba829	-0.36651734
140	0x3d94b74d	0.07261524
141	0xbd1a7b54	-0.03771527
142	0xbdf0e0c7	-0.11761623
143	0xbd32ef81	-0.04368544
144	0xbd2cc28d	-0.042177726
145	0xbc29ba44	-0.010359351
146	0xbdd8fe46	-0.10595374
147	0xbe705c06	-0.23472604
148	0x3e7e0ca8	0.24809515
149	0x3e36a5c6	0.17836675
150	0x3e091bca	0.13389507
151	0x3c23fd0e	0.010009063
152	0xbd2b8e73	-0.041883897
153	0x3c0a18bf	0.0084287515
154	0x3ced5e63	0.028975671
155	0x3c972af7	0.018453104
156	0x3d6fb571	0.058522645
157	0x3e4f46b9	0.20241822
158	0x3d100436	0.035160266
159	0xbed748e4	-0.420478
160	0x3d91d451	0.07120574
161	0x3eea78ee	0.45795387
162	0x3d294345	0.04132392
163	0x3ecf6b11	0.40511373
164	0xbdc9da69	-0.098561116
165	0xbd8edd2b	-0.06975778
166	0x3c7887bc	0.01516908
167	0xbea137c7	-0.31487867
168	0xbcd419c0	-0.025891185
169	0x3da3b4ff	0.07993507
170	0xbea5701d	-0.32312098
171	0xbe80d510	-0.25162554
172	0xbd83a049	-0.06427056
173	0xbe72b215	-0.23700745
174	0x3ece0736	0.40239877
175	0x3e0a260c	0.13491076
176	0x3d9d1167	0.07669335
177	0x3e84c0bd	0.25928298
178	0x3de0774d	0.10960255
179	0x3e4f5ed3	0.20251016
180	0x3e31f0f3	0.17377071
181	0x3d1f10a7	0.03883424
182	0x3e87d5b5	0.26530233
183	0x3d9b4256	0.07581012
184	0x3cff49d5	0.031163136
185	0x3eaacf34	0.33361208
186	0x3f225ff3	0.63427657
187	0xbd47b03e	-0.048752062
188	0x3cb32d2e	0.02187213
189	0xbbff0cbb	-0.0077835
190	0x3ce2cea7	0.02768643
191	0xbc3eabcd	-0.01163764
192	0xbdf60d7c	-0.12014291
193	0x3dff19fa	0.124561265
194	0xbe1f12d9	-0.15534534
195	0x3e119caa	0.14219919
196	0x3d2fe244	0.042940393
197	0x3e53d0b3	0.20685081
198	0x3ea56e96	0.32310933
199	0x3e2d5313	0.16926222
200	0xbebb0e01	-0.36534122
201	0x3f3502bb	0.7070729
202	0x3dbbe63a	0.091747716
203	0x3e27f820	0.16403246
204	0x3f028ade	0.50993145
205	0xbc8c1ed3	-0.017104542
206	0xbd843009	-0.064544745
207	0xbf054326	-0.52055585
208	0xbecdb349	-0.40175846
209	0x3d409f1b	0.047026735
210	0xbe7e5979	-0.24838819
211	0xbc207bc0	-0.009795129
212	0xbdb9a476	-0.090645716
213	0x3e53e237	0.20691763
214	0x3db77ec3	0.08959725
215	0x3e99c9cb	0.30036768
216	0xbe9317a5	-0.28728977
217	0x3e896ddc	0.2684163
218	0xbea05e93	-0.31322154
219	0x3e0010b0	0.12506366
220	0xbdede550	-0.116160035
221	0xbe017191	-0.12640978
222	0x3e25d68c	0.16195124
223	0xbe9cd073	-0.30627784
224	0x3dd2e521	0.10297609
225	0x3e2998e0	0.16562223
226	0x3d8d20ad	0.06890998
227	0x3dde6443	0.10858967
228	0x3ddd1c47	0.10796409
229	0x3e16ff2e	0.14745781
230	0x3d8f9b13	0.07012
231	0xbe6d9e27	-0.23204862
232	0xbe6c1db1	-0.23058201
233	0x3e709932	0.2349594
234	0xbe56478a	-0.20925727
235	0x3cc6f7be	0.024288055
236	0x3ee470f9	0.4461744
237	0x3f661848	0.898808
238	0x3e93ddf3	0.2888027
239	0x3d01e314	0.0317107
240	0xbcafe9d2	-0.021473799
241	0xbc9ff4b3	-0.019525861
242	0xbe0260b8	-0.12732208
243	0xbc230503	-0.009949925
244	0x3cda5cf4	0.026655652
245	0x3e32b870	0.1745317
246	0x3e7e172a	0.24813524
247	0x3edff87a	0.4374426
248	0x3e2edbfc	0.17076105
249	0x3effeed8	0.4998691
250	0x3ef79137	0.48352978
251	0xbe498e92	-0.19683293
252	0x3e90eb74	0.28304636
253	0xbf0dfdcb	-0.5546538
254	0xbd9c44b8	-0.076302946
255	0xbec0f98a	-0.37690383

bn1.running_mean f4 [256]
0	0x3f7c1e28	0.98483515
1	0x3e6ff4fd	0.234333
2	0x3da5dac1	0.080983646
3	0x3dcab334	0.098974615
4	0x3f264332	0.6494628
5	0x3edba471	0.42898896
6	0x3dcdb3a7	0.100440316
7	0x3e7263d1	0.2367089
8	0x3f0131d9	0.50466686
9	0x3dbdd2cc	0.09268722
10	0x3f50c474	0.81549764
11	0x3e895bbc	0.268278
12	0x3e88dd62	0.26731402
13	0x3e0314c0	0.12800884
14	0x3e1710d4	0.14752513
15	0x3e1fb0ae	0.15594742
16	0x3ebff340	0.37490273
17	0x3e194a9e	0.1496987
18	0x3f97b3f6	1.1851795
19	0x3dec594f	0.11540472
20	0x3f4286b1	0.7598677
21	0x3dfdc3b0	0.1239084
22	0x3e8570bd	0.26062575
23	0x3e85eed8	0.26158786
24	0x3f030c7a	0.5119091
25	0x3e985bd4	0.2975756
26	0x3f54cabe	0.8312186
27	0x3e673448	0.22578537
28	0x3e523873	0.20529346
29	0x3ee31b2d	0.4435667
30	0x3e6f6b5b	0.23380797
31	0x3dcafe26	0.09911756
32	0x3e3d27ba	0.18472186
33	0x3e068cc0	0.1313963
34	0x3e28da13	0.16489439
35	0x3e0b8e07	0.13628398
36	0x3ed35323	0.41274366
37	0x3e8d1fce	0.27563328
38	0x3e3a4a98	0.18192518
39	0x3fa506d0	1.2892704
40	0x3e51d6a1	0.2049203
41	0x3e4eac26	0.20182857
42	0x3ebd9411	0.37027028
43	0x3e81af69	0.2532914
44	0x3eab519a	0.33460695
45	0x3f2d57e5	0.6771224
46	0x3e4e5a14	0.2015155
47	0x3ecc8be3	0.39950475
48	0x3e5a2d78	0.21306407
49	0x3c37285d	0.011179057
50	0x3e4df59e	0.20113227
51	0x3e68acd8	0.22722185
52	0x3dec9310	0.115514874
53	0x3dd64b6f	0.104636066
54	0x3e1ba1a0	0.15198374
55	0x3ead17a1	0.3380709
56	0x3e14bc0d	0.1452486
57	0x3de7b889	0.11314494
58	0x3ea447ab	0.32085928
59	0x3e402791	0.18765093
60	0x3e348632	0.17629316
61	0x3f4cc66f	0.79990286
62	0x3b694538	0.0035594236
63	0x3e3321b1	0.17493321
64	0x3e30e5f8	0.17275226
65	0x3e4bb4ef	0.1989324
66	0x3e33c1b3	0.17554359
67	0x3e026349	0.12733187
68	0x3d667142	0.056260355
69	0x3f20794e	0.62685096
70	0x3d3dd3ba	0.046344496
71	0x3e862c62	0.26205736
72	0x3e7c5d34	0.24644929
73	0x3e88160f	0.2657933
74	0x3ef13081	0.47107318
75	0x3d879538	0.06620258
76	0x3e3ef00a	0.18646255
77	0x3e4009ed	0.18753786
78	0x3b0985b1	0.0020984227
79	0x3c9b8714	0.018985309
80	0x3d83209d	0.06402705
81	0x3ea5747e	0.3231544
82	0x3e3f8fba	0.18707171
83	0x3f4e892d	0.80678064
84	0x3e9feac7	0.31233808
85	0x3e2d76cc	0.16939849
86	0x3e1b4787	0.15164004
87	0x3dc7575f	0.097334616
88	0x3e47dd3c	0.19517988
89	0x3dd776ea	0.10520728
90	0x3e37611e	0.17908141
91	0x3ecbffcf	0.39843604
92	0x3e707f67	0.234861
93	0x3de03762	0.109480634
94	0x3eaf728d	0.34267083
95	0x3e40e220	0.1883626
96	0x3eb24aa2	0.34822565
97	0x3e0b778a	0.1361982
98	0x3ec49ee0	0.38402462
99	0x3e92a880	0.2864418
100	0x3e762227	0.24036466
101	0x3e3a6377	0.18202005
102	0x3e3e1a1d	0.18564649
103	0x3e42db52	0.19028977
104	0x3f47c5c5	0.7803615
105	0x3e99a806	0.30011004
106	0x3e2a5dbc	0.1663732
107	0x3e971f67	0.29516146
108	0x3dfa742f	0.122291915
109	0x3ea167e3	0.31524572
110	0x3d834f89	0.064116545
111	0x3e76cce9	0.24101605
112	0x3e1889b4	0.1489628
113	0x3e965e49	0.2936881
114	0x3d8708e2	0.06593491
115	0x3e910012	0.28320366
116	0x3e74fb1a	0.23923913
117	0x3dea4a62	0.11439969
118	0x3f0bf790	0.54674625
119	0x3e4406a3	0.19143157
120	0x3d9148d6	0.070939705
121	0x3f2ad9df	0.66738695
122	0x3ea99da7	0.33128092
123	0x3f77ee47	0.9684796
124	0x3de11996	0.10991208
125	0x3e12fafc	0.14353555
126	0x3dfed50b	0.124429785
127	0x3e106ee2	0.14104798
128	0x3e3e34ed	0.18574877
129	0x3ece0e88	0.4024546
130	0x3e02c4c4	0.12770373
131	0x3cde2567	0.027117444
132	0x3d3fba4e	0.046808533
133	0x3e8291e7	0.2550194
134	0x3e8bdd4b	0.2731727
135	0x3e14d9da	0.14536229
136	0x3e84ba0d	0.25923195
137	0x3e6cd6d0	0.2312882
138	0x3ecec5a4	0.40385163
139	0x3e663de1	0.22484542
140	0x3f062ebc	0.5241506
141	0x3ec7062b	0.38871893
142	0x3d89c70d	0.06727419
143	0x3ee3f03a	0.44519216
144	0x3e42bbe1	0.19016983
145	0x3e33f1d0	0.17572713
146	0x3eeca72c	0.46221292
147	0x3db694aa	0.08915074
148	0x3e4afe76	0.19823632
149	0x3ed98118	0.42481303
150	0x3e81b199	0.2533081
151	0x3eff17c2	0.49822813
152	0x3ea019db	0.31269726
153	0x3e2f5c10	0.17124963
154	0x3ecaadba	0.39585668
155	0x3e3b8535	0.18312533
156	0x3a95383a	0.0011384555
157	0x3e83eec5	0.25768104
158	0x3e8dea74	0.27717936
159	0x3e51eab2	0.20499685
160	0x3dd17729	0.10227806
161	0x3e4a76a3	0.19771819
162	0x3eb2c813	0.3491827
163	0x3e6bc66e	0.23024914
164	0x3fb3b7e4	1.4040494
165	0x3e7e52ab	0.24836223
166	0x3dde2860	0.10847545
167	0x3e0f1cfc	0.139759
168	0x3e7256be	0.23665902
169	0x3f15764e	0.58383644
170	0x3e8b2746	0.271784
171	0x3e049a2b	0.12949435
172	0x3e977481	0.29581073
173	0x3f2c333f	0.67265695
174	0x3eb8009a	0.3593796
175	0x3ea5a272	0.32350498
176	0x3e91cde7	0.28477404
177	0x3ec396c3	0.3820096
178	0x3df355bd	0.11881588
179	0x3de4b7f6	0.111679
180	0x3dd53337	0.10410159
181	0x3dace40b	0.08441933
182	0x3e972e55	0.29527536
183	0x3f410699	0.7540069
184	0x3d73721c	0.059434995
185	0x3e87e3c1	0.2654095
186	0x3ec58f2b	0.3858579
187	0x3ee034b3	0.43790206
188	0x3e4fbea7	0.20287572
189	0x3d9b8232	0.07593192
190	0x3deeef19	0.11666698
191	0x3dc27da5	0.09496621
192	0x3ecc12ce	0.39858097
193	0x3e28c2cd	0.1648056
194	0x3ec2d5fa	0.38053876
195	0x3e18e9e2	0.14932969
196	0x3e5d5c77	0.21617304
197	0x3f819855	1.0124613
198	0x3d8555a1	0.06510473
199	0x3e30d6d5	0.17269452
200	0x3cdf1602	0.027232174
201	0x3eb9ca36	0.36287087
202	0x3e9913d1	0.2989793
203	0x3ebd0216	0.36915654
204	0x3d8a19da	0.06743212
205	0x3e885fe2	0.26635653
206	0x3e273a62	0.16330865
207	0x3e9f7b03	0.31148538
208	0x3eb01af4	0.34395564
209	0x3da3f017	0.08004778
210	0x3e16db95	0.14732201
211	0x3e888ee5	0.2667152
212	0x3e874c36	0.26425332
213	0x3e16365e	0.14669177
214	0x3e26d5e9	0.16292538
215	0x3dfbbb67	0.122916035
216	0x3e1fce85	0.15606125
217	0x3e4caca1	0.19987728
218	0x3eb4203f	0.35180852
219	0x3e9e7434	0.3094803
220	0x3db5356f	0.08848082
221	0x3e124dab	0.1428744
222	0x3eae4b4d	0.34041825
223	0x3efabd6b	0.4897264
224	0x3df2baa3	0.118520044
225	0x3e1d95bf	0.15389155
226	0x3e011fb6	0.12609753
227	0x3dc2776b	0.094954334
228	0x3e4a52a2	0.19758084
229	0x3e602bc3	0.21891694
230	0x3d99890c	0.07496843
231	0x3e87d618	0.26530528
232	0x3e449bd8	0.19200075
233	0x3e63aa79	0.22232999
234	0x3e4a3343	0.19746117
235	0x3e323430	0.1740272
236	0x3e154682	0.14577678
237	0x3c31f1c3	0.010860863
238	0x3e509c8c	0.20372218
239	0x3e92df10	0.28685808
240	0x3eddfc8a	0.43356735
241	0x3e91963c	0.28434932
242	0x3eaeed4c	0.34165418
243	0x3e63e009	0.22253431
244	0x3e8a7382	0.2704125
245	0x3ecfb363	0.4056655
246	0x3da4dbbc	0.080497235
247	0x3e8e927a	0.27846128
248	0x3dce48b2	0.10072459
249	0x3e9c16de	0.30486196
250	0x3e513a88	0.20432484
251	0x3e466f61	0.19378425
252	0x3dfb9be4	0.12285593
253	0x3e573300	0.21015549
254	0x3e46f4fd	0.19429393
255	0x3e76467b	0.24050324

bn1.running_var f4 [256]
0	0x3f0a8b68	0.5411897
1	0x3dd52f1c	0.10409376
2	0x3d7209c0	0.05909133
3	0x3da88df2	0.08230199
4	0x3ee4e5b5	0.44706503
5	0x3ed6902e	0.41906875
6	0x3d676194	0.056489542
7	0x3e47e44b	0.1952068
8	0x3ec5dec3	0.38646516
9	0x3da26dfd	0.07931135
10	0x3eca58e3	0.3952094
11	0x3e4a3d75	0.19750006
12	0x3e6a298c	0.22867411
13	0x3da852c3	0.082189105
14	0x3dc31748	0.09525925
15	0x3dde2371	0.10846604
16	0x3e97daee	0.29659218
17	0x3df1faa5	0.11815385
18	0x3f0e29e8	0.55532694
19	0x3d60be19	0.05486879
20	0x3e11dd55	0.14244588
21	0x3dbc8c07	0.092063956
22	0x3eba6f5a	0.3641308
23	0x3e62fb1d	0.22166105
24	0x3ecae772	0.39629704
25	0x3e4560c4	0.19275194
26	0x3e8d7213	0.27626094
27	0x3e4f334b	0.2023441
28	0x3e271ca2	0.16319516
29	0x3ea1f48c	0.31631887
30	0x3e1b8bd3	0.15190057
31	0x3dc99844	0.098434955
32	0x3dd8bb93	0.10582652
33	0x3e09a443	0.13441567
34	0x3dff11c7	0.12454563
35	0x3dc0b12c	0.09408793
36	0x3e788b7a	0.24271956
37	0x3e20efae	0.1571643
38	0x3deaff10	0.114744306
39	0x3fcf9eb0	1.6220303
40	0x3e565757	0.20931755
41	0x3e3b367b	0.18282501
42	0x3e90f519	0.28311995
43	0x3e370c0b	0.17875688
44	0x3e69b876	0.22824273
45	0x3ee74648	0.45170808
46	0x3dfdd8f2	0.12394895
47	0x3ec8175f	0.3908033
48	0x3e32244c	0.17396659
49	0x3c11d083	0.008899811
50	0x3e3557bf	0.17709254
51	0x3dff8dbf	0.12478208
52	0x3d8267d7	0.06367462
53	0x3dac0165	0.083987035
54	0x3dbaa5db	0.09113666
55	0x3e897cd6	0.26853055
56	0x3da98224	0.082767755
57	0x3d6bf5e0	0.05760753
58	0x3e674d55	0.22588094
59	0x3d9d151b	0.07670041
60	0x3ddd3f82	0.10803129
61	0x3f322d11	0.69600016
62	0x3ad9dedc	0.0016622203
63	0x3dd8b9ef	0.10582339
64	0x3e061802	0.13095096
65	0x3e2d521f	0.16925858
66	0x3dc749e6	0.09730892
67	0x3dd325af	0.10309922
68	0x3d05ffcf	0.03271466
69	0x3ebd5685	0.36980072
70	0x3ce65c62	0.028120223
71	0x3e225856	0.1585401
72	0x3e3b71ae	0.18305084
73	0x3e975e55	0.29564157
74	0x3ec6f44c	0.3885826
75	0x3d336717	0.043799486
76	0x3e197a2c	0.14988011
77	0x3dfa4188	0.1221953
78	0x3aaf8097	0.0013389763
79	0x3c833b4f	0.016019491
80	0x3d20511a	0.039139844
81	0x3e79a9d9	0.24381198
82	0x3dfb2ff0	0.12265003
83	0x3f0fac52	0.56122315
84	0x3e27c77a	0.16384688
85	0x3e113701	0.14181139
86	0x3e024121	0.12720157
87	0x3de1d150	0.11026251
88	0x3e5cebaa	0.21574274
89	0x3d7209c9	0.059091363
90	0x3e09b5a9	0.13448204
91	0x3ec2d97b	0.3805655
92	0x3e519c35	0.20469745
93	0x3dbfc913	0.09364524
94	0x3e97449d	0.29544535
95	0x3df94c54	0.121727616
96	0x3e5201ee	0.20508549
97	0x3dca3a68	0.09874421
98	0x3ef1aefe	0.4720382
99	0x3eb790eb	0.3585275
100	0x3df92877	0.12165921
101	0x3de16159	0.11004896
102	0x3e03c4e3	0.12868075
103	0x3ded2062	0.11578442
104	0x3f3b18d7	0.7308478
105	0x3e98cd9f	0.29844376
106	0x3dcc1350	0.09964621
107	0x3e848343	0.25881395
108	0x3da9482a	0.08265717
109	0x3e251334	0.16120607
110	0x3d588853	0.052864384
111	0x3e6c83b9	0.23097123
112	0x3e246ee1	0.16057922
113	0x3e49f8e0	0.19723845
114	0x3d3d6e7b	0.04624794
115	0x3e8a0e9c	0.2696427
116	0x3e29f6a3	0.1659799
117	0x3d850d1e	0.064966425
118	0x3eab9801	0.33514407
119	0x3e1b246e	0.15150616
120	0x3d2e264e	0.042517
121	0x3eefcb65	0.46834865
122	0x3e35e150	0.17761731
123	0x3eae8473	0.34085426
124	0x3db56f4f	0.08859121
125	0x3d9f39dd	0.077747084
126	0x3da2259f	0.07917332
127	0x3dc8a3e6	0.09796886
128	0x3e3d5442	0.18489173
129	0x3e2cff20	0.16894197
130	0x3d64d575	0.05586763
131	0x3c91b150	0.017784745
132	0x3cd9b960	0.026577652
133	0x3e122896	0.14273295
134	0x3eb74b73	0.3579975
135	0x3e1beee5	0.1522785
136	0x3e6d2bca	0.23161235
137	0x3e6610b4	0.22467309
138	0x3e9501a1	0.29102805
139	0x3e050e60	0.12993765
140	0x3ebcfcf9	0.36911753
141	0x3e8383a5	0.25686374
142	0x3ce5b424	0.02804
143	0x3e8aa75b	0.27080807
144	0x3e307cfe	0.1723518
145	0x3e0804b4	0.13283044
146	0x3e3d52b1	0.18488576
147	0x3db0f0b2	0.08639659
148	0x3defd1f3	0.117099665
149	0x3ea359d8	0.31904483
150	0x3e4ca944	0.19986445
151	0x3f097a0c	0.53701854
152	0x3e1dd893	0.15414648
153	0x3e07508a	0.13214317
154	0x3ee3bff2	0.4448238
155	0x3ddd3478	0.10801023
156	0x39e94c9e	0.00044498307
157	0x3e240d2d	0.16020651
158	0x3e76892d	0.24075766
159	0x3e3e79da	0.1860117
160	0x3d8c8e5f	0.06863093
161	0x3e120f0b	0.14263551
162	0x3e93f2be	0.28896135
163	0x3e5a442e	0.21315071
164	0x3f48817a	0.78322566
165	0x3e73fe69	0.23827519
166	0x3d8512f8	0.064977586
167	0x3e0a2c47	0.13493453
168	0x3e24fe6c	0.16112679
169	0x3e54264f	0.20717739
170	0x3dfc045a	0.123055175
171	0x3e161284	0.146555
172	0x3e58e8b3	0.21182518
173	0x3f105622	0.5638143
174	0x3e79c25d	0.2439055
175	0x3ed0f078	0.40808463
176	0x3df95663	0.1217468
177	0x3eaddb71	0.33956483
178	0x3dc37f07	0.09545713
179	0x3dd16cc1	0.10225821
180	0x3dd5bd4f	0.104364984
181	0x3d864c35	0.06557504
182	0x3e2f6f34	0.17132264
183	0x3f6426c9	0.8912168
184	0x3d1423cb	0.036166947
185	0x3e710346	0.23536405
186	0x3e904bae	0.2818274
187	0x3e45b3ea	0.19306913
188	0x3e035438	0.12825096
189	0x3d862495	0.06549946
190	0x3d901211	0.07034696
191	0x3d8809dd	0.06642506
192	0x3ef0b34f	0.47011802
193	0x3e16e5c6	0.14736089
194	0x3ebaad7a	0.36460477
195	0x3db1c366	0.086798474
196	0x3e2d7ab1	0.16941334
197	0x3e48a2e3	0.19593386
198	0x3d63fd35	0.0556614
199	0x3e0ba1fd	0.13636012
200	0x3c7f1b7f	0.01557052
201	0x3ecf51ad	0.40492
202	0x3e242dec	0.16033143
203	0x3e5566d0	0.20840001
204	0x3da65a45	0.08122686
205	0x3e2d37b4	0.1691578
206	0x3df4bb1e	0.11949752
207	0x3e8f9331	0.28041986
208	0x3e3154b8	0.17317474
209	0x3d7918ed	0.060814787
210	0x3df4d0a5	0.11953858
211	0x3e8cedea	0.27525264
212	0x3e7ef47f	0.24897955
213	0x3e1a12c8	0.15046227
214	0x3e01c043	0.12670998
215	0x3d85ecc7	0.06539302
216	0x3d9f90fa	0.07791324
217	0x3e080f7d	0.13287158
218	0x3eb44246	0.35206813
219	0x3e55166b	0.20809333
220	0x3d6ad250	0.057329476
221	0x3e2356f1	0.15951134
222	0x3ebeed9d	0.3729066
223	0x3ebc63f7	0.36795017
224	0x3d80f8bd	0.06297443
225	0x3e1b94ad	0.15193434
226	0x3da7bb91	0.08190072
227	0x3de689e2	0.11256768
228	0x3e238d81	0.15971948
229	0x3e0aa5dc	0.13539833
230	0x3d98e12f	0.07464825
231	0x3e79837a	0.2436656
232	0x3e28d761	0.1648841
233	0x3e0b9142	0.1362963
234	0x3e332294	0.1749366
235	0x3e199caf	0.15001176
236	0x3db77028	0.08956939
237	0x3c0c1783	0.0085505275
238	0x3e292ce4	0.1652103
239	0x3e826e3a	0.2547472
240	0x3e956e98	0.2918594
241	0x3e7cf4c1	0.24702741
242	0x3eb2ee39	0.34947374
243	0x3e242aee	0.16032001
244	0x3ead6779	0.33868006
245	0x3e4b85cf	0.19875263
246	0x3d6aa295	0.057283957
247	0x3e2ed181	0.17072107
248	0x3d85da21	0.065357454
249	0x3e8afd85	0.27146545
250	0x3e2165b5	0.15761454
251	0x3e0b2776	0.13589272
252	0x3d69bcf6	0.057064973
253	0x3e2ebc56	0.17064032
254	0x3e294792	0.16531208
255	0x3e47b9c7	0.19504462

fc2.weight f4 [256, 256]
0	0x3e1a3777	0.1506022
1	0xbceca4b3	-0.028887128
2	0xbd97cada	-0.07411738
3	0xbe0f7683	-0.14010052
4	0x3ca5ea43	0.020253306
5	0xbe860554	-0.2617594
6	0xbe30b5d9	-0.1725687
7	0x3bb4c5da	0.00551675
8	0xba359bc8	-0.0006927815
9	0xbeaa3e63	-0.33250722
10	0x3d01b72e	0.031668834
11	0xbd86fbc2	-0.06590988
12	0xbe5b7b17	-0.21433674
13	0x3e66eca0	0.22551203
14	0xbccbcfb7	-0.02487932
15	0xbdcc95d0	-0.09989512
16	0xbde53272	-0.11191262
17	0x3e44d431	0.1922157
18	0xbdf541e2	-0.11975457
19	0xbe499dd6	-0.19689116
20	0xbc70496f	-0.014665945
21	0x3e362e8f	0.17791198
22	0x3e9802fb	0.29689774
23	0x3dc5b252	0.096531525
24	0xbde32ecc	-0.1109291
25	0xbdd3a1b8	-0.1033358
26	0xbe27966c	-0.16365975
27	0xbda0f7c0	-0.078597546
28	0x3e4d4806	0.20047006
29	0xbcb81832	-0.022472475
30	0xbde9647e	-0.113961205
31	0x3e3d8b43	0.18510155
32	0xbaa30d9d	-0.001243997
33	0xbcc63c43	-0.024198657
34	0xbdb5f685	-0.088849105
35	0xbe9de2d5	-0.30837122
36	0x3d7a37a4	0.06108822
37	0x3be5e336	0.007015611
38	0xbe21bfb6	-0.15795788
39	0xbdb52bdd	-0.08846257
40	0xbe9922c8	-0.29909348
41	0x3e8592d6	0.2608859
42	0xbcdbda82	-0.026837591
43	0x3e579fc2	0.21057037
44	0x3dbc3529	0.09189827
45	0x3be5a23e	0.007007866
46	0x3e26bbb2	0.16282538
47	0x3f09779b	0.5369813
48	0xbdfb1975	-0.12260715
49	0x3bb84128	0.0056230016
50	0x3eb31129	0.3497403
51	0xbe3ebd04	-0.18626791
52	0xbdafe20a	-0.085880354
53	0x3cbfa9b2	0.023396347
54	0x3dfea9dc	0.12434742
55	0x3dabbe60	0.083859205
56	0x3e224d6e	0.1584985
57	0xbd9f8f02	-0.077909485
58	0xbd89f78e	-0.067366704
59	0x3ce8889d	0.028385455
60	0x3e410ae1	0.18851806
61	0xbd7c1da9	-0.061551724
62	0x3c280bef	0.010256751
63	0xbe987d67	-0.29783174
64	0x3e1eeb8a	0.15519539
65	0xbd81585f	-0.063156836
66	0x3e8225bb	0.2541941
67	0x3dcb3a37	0.09923213
68	0x3d8be6ee	0.06831156
69	0x3e287f3d	0.16454788
70	0xbe3dd84e	-0.18539545
71	0x3ec2cd66	0.38047332
72	0xbca89621	-0.0205794
73	0x3e448bca	0.1919395
74	0x3dee512a	0.116365746
75	0x3e09ccc0	0.13457012
76	0x3e7dc684	0.24782759
77	0xbdb776d2	-0.0895821
78	0xbe525c46	-0.20543012
79	0xbd8f36e6	-0.06992893
80	0x3c5cdedc	0.013480868
81	0xbe9f551e	-0.31119627
82	0xbe7edc15	-0.24888642
83	0xbcfd60f3	-0.030930018
84	0xbebb7540	-0.36612892
85	0xbde8bf12	-0.11364569
86	0x3d6defce	0.058090024
87	0xbdf0f3ca	-0.11765249
88	0x3c809a24	0.0156985
89	0x3eb15cab	0.34641013
90	0x3e0b0924	0.13577706
91	0x3d029b1f	0.031886216
92	0xbe8faae3	-0.28060064
93	0x3d9bc25c	0.076054305
94	0xbec19bdf	-0.37814233
95	0x3d999da1	0.075007685
96	0xbce99e9e	-0.028518017
97	0xbda33e80	-0.07970905
98	0xbe416112	-0.18884686
99	0x3d7331d0	0.059373677
100	0x3ecf2fc6	0.40466136
101	0xbd582e26	-0.052778386
102	0x3dbb5b11	0.09148229
103	0x3e298582	0.16554835
104	0xbd89c7e7	-0.067275815
105	0x3e06e089	0.13171591
106	0x3d96499b	0.07338258
107	0x3e763e50	0.24047208
108	0xbe349b79	-0.17637433
109	0xbbf3c057	-0.0074387
110	0x3e307584	0.17232329
111	0x3d5d5999	0.054040525
112	0x3e9cd1ba	0.3062876
113	0x3d5f3b53	0.054499935
114	0x3c5f9122	0.013645442
115	0xbe212660	-0.15737295
116	0x3d1d0b2d	0.038340736
117	0x3cdc1903	0.026867395
118	0x3d224f50	0.03962642
119	0xbd8a26da	-0.067456916
120	0xbe1bd2fc	-0.15217203
121	0x3d99e678	0.075146616
122	0xbbc2edb5	-0.005948747
123	0x3d0103ba	0.031497695
124	0x3eb6eff9	0.3572996
125	0xbd5b9db2	-0.053617187
126	0xbe34c73f	-0.17654131
127	0x3c80fca7	0.015745474
128	0xbde74e09	-0.11294181
129	0x3dc6c6c0	0.09705877
130	0x3e2e5cd7	0.17027603
131	0xbe6a066b	-0.22854011
132	0xbda25b80	-0.079276085
133	0x3d1ccb9a	0.038280107
134	0xbd910476	-0.07080929
135	0xbd61ed9f	-0.055158254
136	0x3e06fd8c	0.13182658
137	0xbe10121c	-0.14069408
138	0xbeea8d5e	-0.4581098
139	0x3e1cf468	0.15327609
140	0x3cba5d1c	0.022749476
141	0x3ea4d414	0.32193053
142	0x3e15552a	0.14583269
143	0x3de16c6f	0.1100701
144	0x3e226cde	0.15861842
145	0x3df553a6	0.11978845
146	0x3b0fe6b3	0.0021957576
147	0x3bbb94a0	0.0057245046
148	0xbd0e10c0	-0.034683943
149	0x3e2bd447	0.16780196
150	0xbeb66876	-0.35626572
151	0x3da4236f	0.08014571
152	0xbd4e096e	-0.05030196
153	0x3e183787	0.14864932
154	0xbe45192b	-0.19247882
155	0x3d23a430	0.039951503
156	0x3e257cbf	0.16160868
157	0xbc78cd62	-0.015185686
158	0x3e1702bd	0.14747138
159	0x3d8be964	0.06831625
160	0xbedc519f	-0.43031022
161	0xbd9509ef	-0.07277285
162	0xbd109d3b	-0.035306197
163	0xbe952395	-0.2912871
164	0x3cb2fab7	0.021848066
165	0x3ea617ba	0.32439977
166	0xbe279bb1	-0.16367985
167	0x3ef12c32	0.4710403
168	0x3d4dc118	0.050232977
169	0xbd3b2a4c	-0.045694634
170	0xbdd4d7cc	-0.103927225
171	0x3eb05d7f	0.34446332
172	0xbe02e9d7	-0.12784515
173	0x3e4c7691	0.19967104
174	0x3dc48803	0.09596255
175	0x3c06e12a	0.008232394
176	0x3dd974f8	0.10618013
177	0x3e015021	0.12628223
178	0x3d9b14ab	0.075723015
179	0x3ddea133	0.1087059
180	0xbe615349	-0.22004427
181	0xbea1b6f2	-0.3158489
182	0x3dd1d5db	0.10245868
183	0x3e16ecbe	0.14738747
184	0x3ea9f56c	0.33195055
185	0xbde9f05c	-0.11422798
186	0xbe23bad6	-0.15989241
187	0x3dfc4849	0.12318475
188	0xbe2ef013	-0.17083769
189	0xbdbbe1bc	-0.09173915
190	0x3ec5495b	0.38532528
191	0x3d86f989	0.06590564
192	0x3e9cec83	0.30649194
193	0xbdaeb089	-0.08529765
194	0xbe458255	-0.19287999
195	0xbded3337	-0.11582034
196	0xbd98a969	-0.074541874
197	0xbc1e8c86	-0.009677058
198	0x3d360235	0.0444357
199	0xbd5e2082	-0.05423022
200	0x3d87d95a	0.066332534
201	0xbdaf2752	-0.08552422
202	0x3e6b25f0	0.22963691
203	0xbde7ca27	-0.113178544
204	0xbe8efaa3	-0.27925596
205	0xbea2b5f5	-0.31779447
206	0xbdc1d7f1	-0.09465016
207	0xbe0ca6e9	-0.13735546
208	0x3c903e92	0.01760796
209	0xbe174147	-0.14770995
210	0x3e304521	0.1721387
211	0xbe12d725	-0.14339884
212	0xbe1ab39c	-0.15107578
213	0xbdb07c6b	-0.08617481
214	0x3e6c14e8	0.2305485
215	0x3e60f863	0.21969752
216	0xbd3a30db	-0.04545675
217	0x3e450c20	0.19242907
218	0x3889f503	6.578306e-05
219	0x3dd75539	0.10514302
220	0x3cb710c9	0.022346871
221	0x3baaf377	0.0052170116
222	0x3df53ce0	0.119745016
223	0x3e16555e	0.14681002
224	0x3d1011e7	0.035173323
225	0x3d27718c	0.04087977
226	0xbdb1ff16	-0.08691232
227	0x3b6d872a	0.0036243894
228	0xbe79a1e2	-0.2437816
229	0xbdbe9907	-0.093065314
230	0x3d70b089	0.058762107
231	0x3ce8cb69	0.028417306
232	0x3e1e9be8	0.15489161
233	0xbcdcdb41	-0.026960017
234	0xbd2ffd58	-0.042966217
235	0xbd586285	-0.05282833
236	0x3e2194e5	0.15779455
237	0xbef097a4	-0.46990693
238	0xbe173d53	-0.14769487
239	0xbe0c6372	-0.1370981
240	0x3ec87768	0.391536
241	0x3de1af61	0.11019779
242	0x3e2faba7	0.17155324
243	0x3cb55b9e	0.022138413
244	0x3d711213	0.058855128
245	0x3e3528f7	0.17691408
246	0x3e5fc5c6	0.21852788
247	0xbe134c93	-0.1438468
248	0x3cc9c8b5	0.024631837
249	0xbe5cf354	-0.21577197
250	0x3d4ee943	0.050515424
251	0xbe907512	-0.28214318
252	0xbe3beba7	-0.18351613
253	0x3dc0ca8b	0.09413632
254	0x3e34f601	0.17671968
255	0x3d8830e9	0.06649954
