Project3_collaboration_and_competition/ddpgActor2_Model.pth (torch_old, 320962 bytes, 10 tensors)

fc1.weight f4 [256, 48]
000000 eb 3c d5 3d 7d 35 46 3e 43 51 d6 bc db ae 17 3d
       0.1041201 0.19356342 -0.026161795 0.03703199
000010 7d 25 a1 3d 97 63 12 be 0f f3 18 bd 66 df c1 3c
       0.078684784 -0.14295803 -0.037341174 0.023666095
000020 dd fc 8e 3d d1 87 d9 3d a9 44 50 bd ed 65 21 bb
       0.069818236 0.10621608 -0.05084673 -0.0024627403
000030 55 bb 4b bd 5c 1e f1 bd ff 46 90 bc d0 c9 29 bd
       -0.0497392 -0.11773369 -0.017611979 -0.04145223
000040 18 f9 ce 3d 86 80 e6 3d 55 b7 2d 3d 28 ed a2 bd
       0.101061046 0.11254983 0.042411167 -0.0795539
000050 e4 23 cb bd 2f 58 4d 3c f0 30 43 3c d6 31 28 be
       -0.09918955 0.012533232 0.011913523 -0.16425261
000060 43 81 8f bd 91 61 5f bd be be 78 bd 3a 9d ab bd
       -0.070070766 -0.054536406 -0.06072878 -0.08379598
000070 50 4c 8b bd d0 a1 1d be b8 57 05 3d 72 b9 56 bb
       -0.06801665 -0.15393758 0.03255436 -0.0032764343
000080 2c 95 16 3c 57 05 a7 bd f1 6b 8f bb 5d 7c 1b be
       0.009190839 -0.08155315 -0.0043768813 -0.1518416
000090 65 28 84 3d 0a 6c 33 be 91 33 f8 3c e0 7d 10 be
       0.06453017 -0.17521682 0.030298026 -0.14110518
0000a0 40 f4 32 bd 2d ee 2f be a4 b5 42 bc dd 98 76 3d
       -0.043689966 -0.171807 -0.011884127 0.060204376
0000b0 fd 50 e7 3d da fd c5 bc e5 ee ce bc 93 9f 08 bd
       0.11294744 -0.024168897 -0.025260398 -0.033355307
0000c0 09 16 77 3d 2e 44 68 bc 52 10 29 bd cd ae 46 3c
       0.06032375 -0.014176412 -0.04127533 0.012126637
0000d0 67 1b 28 3e 47 7c 1c be 12 44 41 3d 92 4c f0 3c
       0.16416703 -0.15281783 0.047184058 0.029333387
0000e0 73 7d cc 3d 5b 55 05 3d f2 bd bf 3c be 79 c5 3c
       0.09984865 0.032552104 0.023406003 0.024105903
0000f0 52 26 a1 3d 44 70 25 be 9d ef 1f bd 18 00 cb 3d
       0.07868637 -0.16156107 -0.039046872 0.09912127
000100 ee 7c 02 3e 05 a5 03 3e a2 34 aa 3c 19 45 2f 3c
       0.1274297 0.12855919 0.02077705 0.0106976265
000110 ef 0c 47 bc cc 8d ab 3c c3 34 e9 bc 30 fe c6 3d
       -0.01214908 0.020941637 -0.028467542 0.09716451
000120 18 ef 8b 3d 6c 8d 11 bd d4 6c 0e bd 22 3c 31 3d
       0.06832713 -0.03553526 -0.034771755 0.043270238
000130 8c 19 a6 bd 58 9d 09 be 48 9c 44 3d a1 0e bb 3c
       -0.081103414 -0.13438928 0.048000604 0.022834124
000140 9b 8d 76 3d af 42 65 3d e0 68 17 3d dc cd dc bc
       0.06019364 0.055971798 0.03696525 -0.02695363
000150 c4 25 17 bd ad f9 b5 bd 75 8b 21 3d cb 54 47 3d
       -0.03690125 -0.088855125 0.039439637 0.04866485
000160 bc de 44 3e 00 dc f5 bd a6 56 3f 3c da b2 9d bd
       0.19225591 -0.12004852 0.011678373 -0.07700129
000170 a3 a4 bb bd 13 35 48 bd a9 46 33 3d f5 43 0c be
       -0.09162261 -0.04887874 0.04376856 -0.13697799
000180 3c f3 f2 bc 98 e0 14 be d2 00 35 3d 04 2b c4 bc
       -0.029656999 -0.145388 0.044190235 -0.023946293
000190 0e 34 22 bd bf 67 dd bc c4 bf f4 bc 30 be a1 bc
       -0.039600424 -0.027027009 -0.029876597 -0.019744009
0001a0 9f d3 ea 3b 70 51 97 bd c3 27 d0 bb fa 28 13 be
       0.0071663405 -0.0738858 -0.006352396 -0.143711
0001b0 26 f6 b7 bd e4 53 f4 bd 9d cb 39 bb 42 71 f1 bd
       -0.08982496 -0.11930063 -0.0028350123 -0.1178918
0001c0 6a b5 c6 3d da 78 2d be 06 e8 d9 bc 47 8f 74 be
       0.09702571 -0.16940632 -0.026599895 -0.23882781
0001d0 e0 4f f3 3b 84 39 bc bd 31 c7 c5 ba 93 da 41 be
       0.0074252933 -0.09190658 -0.0015089271 -0.18931036
0001e0 ad a5 89 3d 2d 23 05 be ec 66 28 3c 75 2e 11 be
       0.06721053 -0.130017 0.010278445 -0.14177878
0001f0 80 18 e9 3d 6a f1 d5 bd a1 d9 04 bc 95 cd 14 bd
       0.11381626 -0.10446437 -0.008108527 -0.03632887
000200 0d 04 91 3d fc ca b2 bd 28 1a 17 3d b8 0f 24 bd
       0.07080851 -0.087301224 0.03689018 -0.040054053
000210 91 11 f0 3d d4 63 ce bd 46 c0 95 bd fb eb be bd
       0.117221005 -0.100776345 -0.07312064 -0.093223535
000220 38 fe d5 3d cb 25 d3 bd 00 a9 6e 3c f0 a6 9b 3d
       0.10448879 -0.10309943 0.01456666 0.076002
000230 50 8f 8e 3d c3 a8 7f bd fb 68 16 bd d8 e5 be 3d
       0.069609284 -0.062416803 -0.03672121 0.09321183
000240 2f 29 1a 3e 1e 26 e6 3d 69 cd da bc 64 f4 a8 bc
       0.15054773 0.11237739 -0.026709275 -0.020624347
000250 51 3a 96 3c 09 7e 2f be 2a 10 aa 3c be bb 25 3c
       0.018338354 -0.17137922 0.02075966 0.010115562
000260 ec 40 27 3e bf ac 25 3d dd f3 b5 3b 06 13 e9 bc
       0.1633336 0.040447947 0.0055527524 -0.028451454
000270 95 b4 34 3c 21 86 f4 bc 39 55 6d bd b1 b0 b1 ba
       0.011029382 -0.029849114 -0.057942603 -0.0013556686
000280 8b e8 6b 3e b0 6c 4c 3d 32 79 c6 3c 26 12 89 3d
       0.23037927 0.04990834 0.024227712 0.06692915
000290 63 b2 df bc b0 51 31 bc 99 0f 74 bc 20 39 31 bd
       -0.027306741 -0.0108226985 -0.014896297 -0.04326737
0002a0 4a d5 24 3d 1b 1e 1b 3d a7 bb 3d bb c6 bc ad bc
       0.04024247 0.037870508 -0.002895096 -0.021208178
0002b0 96 b4 a5 3c 22 fd 2e be ff 12 ae bc 63 93 e1 bc
       0.020227712 -0.1708875 -0.021249292 -0.0275361
0002c0 b6 6a a4 3d bb 74 5a 3d 20 fa 41 3d e0 07 9a bb
       0.08028166 0.05333398 0.04735768 -0.004700646
0002d0 6b d5 77 bb a2 5e c1 bc a2 7a 61 bd b1 02 a2 ba
       -0.0037816416 -0.023604695 -0.055048592 -0.0012360421
0002e0 4c 82 16 3e cc a0 2f 3d bf 59 a2 bc ed 87 02 3d
       0.14698142 0.042877957 -0.019818185 0.03186791
0002f0 f7 1b 48 3d 20 52 e2 bd 23 ce 44 bc 39 bf 97 bd
       0.048854794 -0.1105082 -0.012012037 -0.0740952
000300 ec 85 c1 bd 79 fb 65 bd e5 5f 2f 3d ab ab b2 3d
       -0.09449372 -0.056148026 0.04281606 0.08724149
000310 f1 5d 16 be ec e0 0a 3e c0 37 e4 3c eb fc d7 3d
       -0.14684273 0.13562363 0.027858615 0.10546287
000320 78 80 55 bc 1c 3f cd bc d2 72 9c 3c e4 98 65 3d
       -0.013031118 -0.025054507 0.01909772 0.05605401
000330 ab 55 02 be 89 3c 00 3e 65 1b a8 3d 22 83 9a 3d
       -0.12727992 0.12523092 0.0820835 0.07544543
000340 9c 88 3a 3c a4 17 a5 bb 16 ef 28 3d aa 69 19 bc
       0.011385109 -0.0050382186 0.041243635 -0.009363571
000350 82 5f 4c bd 96 9f a1 3d 22 44 0c 3d c5 c7 38 3d
       -0.04989577 0.07891767 0.034244664 0.04511239
000360 00 e8 c7 bc ca 3e 84 3d 8d 8c 99 bc d1 23 a8 3c
       -0.024402618 0.064572886 -0.018743778 0.020524891
000370 78 74 27 3e 6a 05 b3 3d 8f 51 a6 bb 46 42 7f 3d
       0.16353023 0.08741267 -0.0050756405 0.062319063
000380 5c be cd 3c 27 f6 9d 3d 29 98 9d bd e3 6c 5f bc
       0.025115184 0.077129655 -0.07695038 -0.0136368
000390 84 28 6d 3d ed e2 07 3d 3c 19 3e bd ad ac 37 bd
       0.057899967 0.033175398 -0.046410784 -0.04484241
0003a0 42 f7 ff bc 33 1b b1 3c 71 c2 88 bd d5 d8 a7 bd
       -0.031245831 0.021619415 -0.06677712 -0.08195654
0003b0 3a c1 4b bb ee 29 27 3e 8a cc 03 bd 0c a4 63 bc
       -0.0031090514 0.16324589 -0.032177486 -0.013894092
0003c0 45 77 13 bd 09 8c 88 bc 14 68 c1 bc 18 2a 0a 3e
       -0.036002416 -0.016668336 -0.023609199 0.1349262
0003d0 d1 94 cc bd 8e b3 9e 3d 46 a1 be ba d3 c9 df 3d
       -0.09989322 0.07749091 -0.0014543913 0.10927167
0003e0 dd 9d 39 bd e8 9a fe 3d 6c a5 08 3d ad 1f 37 bc
       -0.045316566 0.1243189 0.033360884 -0.011176986
0003f0 19 75 93 bd 9a 78 0e 3d 65 aa 22 bd 41 40 e7 bc
       -0.07200069 0.034782983 -0.039713282 -0.02822888

fc1.bias f4 [256]
000000 a6 8b 55 bd 11 5c 90 bd fc f9 f9 bd 60 f1 80 be
       -0.052135132 -0.0704881 -0.12205884 -0.25184155
000010 6b bd 38 bd 06 98 ce 3d da 5f 8a bb 3e 5f f5 3c
       -0.045102518 0.1008759 -0.004222852 0.029952642
000020 cd 8c da bd a1 07 9d bd d7 bb 13 be 68 ad a7 bc
       -0.10671387 -0.07667471 -0.14427124 -0.020468429
000030 a2 28 ac 3d fe 8e a6 3d 43 15 76 be bc 9a 6a 3c
       0.084061876 0.08132742 -0.24031548 0.014319118
000040 2e 74 9f bd 1d 90 8b bd f6 c9 bd bd 11 dc 2b 3e
       -0.077858314 -0.06814597 -0.092670366 0.16783167
000050 96 76 9b 3c 50 5e 66 be e0 a5 19 3d 4a 78 0f be
       0.018977445 -0.22496915 0.037511706 -0.1401073
000060 a5 ef 36 3c a3 b8 c9 bd 92 df 12 bc cf 02 6d 3c
       0.011165534 -0.0984967 -0.008964436 0.014466002
000070 96 d4 89 bd f4 d8 15 be 0d da 57 be 15 c6 7f 3c
       -0.06730001 -0.14633542 -0.21079274 0.015611191
000080 c6 1c 1f 3d 98 a9 a9 3d e5 28 46 bc 70 d3 45 be
       0.0388458 0.082843006 -0.012094711 -0.19318938
000090 05 5d b9 bd 8e e1 6c 3c 22 cf 8b be 61 5c bf 3c
       -0.09050945 0.014458073 -0.27306467 0.02335948
0000a0 27 9c a1 bd 68 8f b8 bd ea 4a 3e bd 1e 3a 97 bd
       -0.07891112 -0.090117276 -0.046458162 -0.07384132
0000b0 b6 03 7d bd 2f 4b a5 3d db ac d0 3c 8a 90 08 be
       -0.061771117 0.08070981 0.025473049 -0.13336387
0000c0 8f 66 a2 3d 7e 4d 12 3d 34 0c 81 be 02 c5 61 be
       0.07929718 0.035718434 -0.25204623 -0.22047809
0000d0 a2 65 3c bd 58 46 97 bc f1 f1 23 bd 0a 92 df bd
       -0.045995362 -0.01846616 -0.040025655 -0.109165266
0000e0 cf 9b 6f 3c 60 08 6e 3c 99 f9 1d 3d 09 55 07 be
       0.01462455 0.014528364 0.038568113 -0.13216032
0000f0 08 bd 40 bd f9 91 6a bd df 09 79 ba 0b a9 81 3d
       -0.047055274 -0.057268117 -0.0009500067 0.063310705
000100 86 e5 29 3e 91 c2 c8 bc 55 54 50 be e0 f5 d5 bd
       0.16591462 -0.024506839 -0.2034467 -0.104472876
000110 dc 03 55 be 8e 64 a9 3d c4 8e 5b 3c f3 f6 5f be
       -0.20802253 0.082711324 0.013400737 -0.21871547
000120 d6 97 d3 bc a3 75 e1 3d 13 f5 81 3c c0 35 92 3d
       -0.025829237 0.110087655 0.01586393 0.07139158
000130 83 74 46 be 19 25 81 bc 6a 8e fa bc c0 66 40 be
       -0.19380383 -0.01576476 -0.030585486 -0.18789196
000140 cc 99 7d bd 0b 83 26 3d 87 45 e1 3d 39 88 54 be
       -0.06191425 0.040652316 0.109995894 -0.2075509
000150 04 2f dc 3d c6 41 95 3c 31 65 1f be 44 3a 58 bc
       0.10751155 0.01821984 -0.15565945 -0.013197485
000160 0b 2f 82 3d 93 2d 03 3e 19 0c e8 bd ce 16 e7 bd
       0.06356629 0.12810354 -0.113304324 -0.112836465
000170 ea 19 0f 3d c8 ba c6 3c d7 d3 70 bd 86 df 2f be
       0.034936823 0.024258986 -0.058795776 -0.17175111
000180 67 b8 90 3d 52 42 17 3d 12 65 8b bd f7 25 21 3d
       0.07066422 0.036928482 -0.06806387 0.039342847
000190 e5 4d 03 be ec 87 63 be b9 34 91 ba a8 48 bc 3d
       -0.12822683 -0.22219819 -0.0011078335 0.091935456
0001a0 90 20 63 bd e5 33 1c bd dd 95 00 be 51 0a ba bd
       -0.055450976 -0.038135428 -0.12557168 -0.09083999
0001b0 7e 90 9a 3d d8 85 01 be cc 24 81 be a9 a0 09 be
       0.07547091 -0.12648714 -0.25223386 -0.13440193
0001c0 c4 0a 37 be 9c f7 72 be f5 de 89 be d4 14 c0 bd
       -0.178752 -0.23727268 -0.26927915 -0.09378973
0001d0 f3 d5 1e be cc 69 c9 3b 6a 32 6c be e8 5b 25 be
       -0.15511303 0.006146645 -0.23066106 -0.1614834
0001e0 a1 14 d2 bd 1a 5e 16 be 61 c8 66 be 75 be 42 be
       -0.10257841 -0.14684334 -0.22537376 -0.19017966
0001f0 f8 97 1f be ed bc 1a 3e 68 e1 42 be a2 fe b5 3c
       -0.15585315 0.15111132 -0.19031298 0.022216145
000200 57 bb 13 3e 41 a9 75 3d b3 d7 63 bd 0c 43 38 be
       0.14426933 0.059975866 -0.05562563 -0.17994326
000210 0b ad 4d 3c ad a1 ac bd 7a f5 b0 bd 48 ba 70 3d
       0.012553464 -0.08429275 -0.08640571 0.0587714
000220 bd 3b 0f bd 68 8e aa bd 0c 73 97 3d 47 88 57 be
       -0.03496908 -0.08327943 0.0739499 -0.2104808
000230 1c 30 e6 bd 18 58 06 be 64 43 21 be b5 be 8a bd
       -0.11239645 -0.13119543 -0.15748364 -0.06774656
000240 f1 7c 34 3e 22 2c 64 bc 41 64 38 bd ae 2d e0 3d
       0.17625786 -0.013926538 -0.045017485 0.10946213
000250 84 1b b4 3d 3c d0 6b bd 14 de b7 bd 7e 15 f5 bd
       0.08794311 -0.057571635 -0.08977905 -0.1196699
000260 b0 17 4f 3a 77 2b 75 3d b3 da b9 3d d8 5f b2 bd
       0.0007899953 0.059855904 0.09074917 -0.08709687
000270 f0 6e d6 bd 5c c3 04 bb 37 68 8f bd d8 58 10 3d
       -0.104703784 -0.0020258045 -0.07002299 0.035240978
000280 d7 82 0f be 57 a0 2d 3d 57 0b 64 bd 4c d0 e3 bd
       -0.14014755 0.04238924 -0.055674877 -0.11123714
000290 dd b5 60 be 16 98 2a be 34 f8 f6 bd ee 97 28 bd
       -0.21944375 -0.16659579 -0.1205906 -0.041160516
0002a0 77 b8 bd 3c d9 03 c5 bd 2f 8b 06 3e 7c 4e 37 be
       0.023159249 -0.096198745 0.13139032 -0.17901033
0002b0 5e 6d 12 be 00 aa fd bb 96 f2 48 bc e1 34 ac bc
       -0.14299533 -0.007741213 -0.012264868 -0.021021308
0002c0 ac f1 bd 3d 38 db ac be 75 cb 82 3d bd 49 c9 3d
       0.09274611 -0.33761 0.063864626 0.098285176
0002d0 1a fb c4 bd a4 f2 1c bd 43 48 73 bc 5e 84 bc bc
       -0.09618206 -0.038317338 -0.0148487715 -0.023012336
0002e0 db d3 75 be 22 2d 02 be 98 8f 24 3c ea b4 05 bd
       -0.24006598 -0.1271253 0.010044001 -0.032643236
0002f0 79 ca 12 be 49 e8 e6 3a f5 bd 1f bd a4 7c 8e 3d
       -0.1433505 0.0017616834 -0.038999517 0.06957367
000300 8d ab 33 3c d2 53 d7 3d fe 26 48 be 7c ed b7 bd
       0.010966194 0.10514034 -0.19546124 -0.089808434
000310 6b e2 28 be a5 a6 80 be d8 68 c5 bd 8b fe 81 be
       -0.16492622 -0.2512714 -0.09639138 -0.25389513
000320 29 3f 0c bd 91 00 61 3d 21 88 fd 3b d8 0c 6f be
       -0.03423992 0.05493218 0.007737175 -0.23344743
000330 22 03 a6 3d 1b 9d 90 3d 42 40 a7 bc a7 e4 2a be
       0.08106066 0.070612155 -0.020416383 -0.16688786
000340 5d 3a 01 be 96 4d 05 3d 59 61 d8 bd 1f 2b 3c be
       -0.1261992 0.032544695 -0.105654426 -0.18375824
000350 37 3e 17 3d 5c b3 a2 3d 98 7b 78 be 58 53 80 3d
       0.036924567 0.07944366 -0.24265897 0.062658966
000360 b0 6b 1c be ed dd 32 3b 3c b9 36 be ee 13 23 be
       -0.15275455 0.0027292923 -0.17844099 -0.15925571
000370 eb 81 a1 3c 7c ea 39 be d0 9f f1 bd c5 ac f1 3c
       0.01971527 -0.18155855 -0.1179806 0.029501328
000380 97 d1 19 3e 3b 75 e7 bd 28 54 4f be 6e fa 10 3d
       0.15021358 -0.11301657 -0.20246947 0.03539508
000390 2d be cf 3d 61 e0 45 be ae 9b 48 be bf 5f c4 3b
       0.10143695 -0.19323875 -0.19590637 0.005992859
0003a0 91 c2 82 bd cb 35 6c bd 0b e3 37 be 16 50 12 bd
       -0.06384767 -0.05766849 -0.17957704 -0.035720907
0003b0 6a 8e 19 bd 99 36 cd 3d ac b5 80 3b ca 4b 01 bd
       -0.037489332 0.10020179 0.003927907 -0.03156642
0003c0 8b c7 0d 3d 86 94 81 bc 89 dd 31 bd 76 d3 ca bd
       0.034614127 -0.015817892 -0.043424163 -0.09903614
0003d0 84 64 2f be 9f 3f b3 b9 88 73 51 bd 90 88 9b be
       -0.17128187 -0.00034188942 -0.05113557 -0.30377626
0003e0 3d 5a cc bd 3c f6 34 3b 96 8b 35 be 14 c7 f6 bd
       -0.09978149 0.0027612587 -0.17729029 -0.1204969
0003f0 47 59 f7 bd 09 8b 43 bd 86 74 02 bd 9d 4b 00 be
       -0.12077575 -0.047740016 -0.031849407 -0.12528844

bn1.weight f4 [256]
000000 f8 b4 94 3f db 01 e2 3e 93 18 2c 3f 02 dd a0 3e
       1.1617727 0.4414204 0.67225 0.31418616
000010 c1 0d c1 3e c8 ee 8c 3f d0 31 e7 3e 5f 08 5f 3f
       0.37705806 1.101037 0.4515519 0.8712215
000020 a2 98 08 3f 61 6b 1a 3f 4a 9c bd 3e 24 09 84 3f
       0.533579 0.603201 0.37033302 1.031529
000030 26 58 3b 3e d1 33 2c 3f 44 8b 83 3f d6 ad c1 3e
       0.18295345 0.67266566 1.0276875 0.3782794
000040 63 c9 12 3f 68 91 38 3f 6a 02 8b 3f bc 8e 1f 3f
       0.5733854 0.7209687 1.0860112 0.6232717
000050 c0 b8 ea 3e 3d 6d aa 3e fe ff 41 3f 2b df 85 3f
       0.45844078 0.33286467 0.7578124 1.045873
000060 e1 a9 84 3e d0 ee 98 3e cf 97 f0 3e be cf 99 3e
       0.25910857 0.298697 0.4699082 0.30041307
000070 78 b6 28 3f fb 27 7e 3f 9d d6 07 3f 9a b0 14 3f
       0.65903425 0.99279755 0.5306185 0.5808197
000080 d1 54 5a 3f c9 5a 4d 3f a6 1b 87 3f d1 6a 11 3f
       0.8528567 0.8021665 1.0555313 0.56803614
000090 13 0c 1d 3f f5 6d cd 3e a4 70 9a 3e 18 5b 28 3f
       0.6134655 0.40122953 0.30164063 0.65764
0000a0 d2 51 51 3f 14 b6 40 3f 4d dd 96 3f 14 6d 92 3f
       0.8176547 0.7527783 1.1786286 1.1439538
0000b0 db e3 44 3f b4 92 f3 3e 81 01 64 3f d4 62 62 3f
       0.7691018 0.47572863 0.89064795 0.8843205
0000c0 b5 d2 0b 3f 76 13 c0 3e e3 f9 a1 3e fd df 80 3f
       0.5461839 0.37514848 0.3163596 1.0068356
0000d0 56 82 a0 3e 6c 99 85 3f 32 fa b4 3e 86 90 ea 3e
       0.31349438 1.0437446 0.35347134 0.45813388
0000e0 f3 10 21 3f 2e ce 89 3f d5 ef 4a 3f de e3 ab 3e
       0.6291649 1.0766046 0.79272205 0.33572286
0000f0 aa bd 74 3f 32 7b 3c 3f f5 49 c4 3e cb 36 8e 3f
       0.95601904 0.7362548 0.38337675 1.1110471
000100 b8 2c 83 3f 12 d3 3c 3f 4d 24 27 3f fe 5d 6c 3f
       1.0248022 0.7375957 0.65289766 0.9233092
000110 8b 8f 37 3f f0 98 16 3f 82 f2 65 3f f2 c8 9f 3f
       0.71703404 0.58827114 0.8982316 1.2483199
000120 68 e3 03 3f e0 25 82 3f dc 0d ec 3e 5e e9 8f 3e
       0.5151887 1.0167809 0.46104324 0.28107733
000130 aa ff 4a 3f c7 79 24 3f 00 19 69 3f bc cb 99 3e
       0.7929636 0.6424832 0.9105377 0.3003825
000140 32 1a 86 3e e5 28 3b 3f a1 c2 31 3f 0a 6c c1 3e
       0.2619186 0.73109275 0.69437605 0.3777774
000150 81 34 8a 3e 61 6e 94 3e ad c2 c6 3e 08 00 88 3f
       0.26993182 0.28990462 0.388204 1.062501
000160 fb c1 7c 3f bf 90 92 3f 25 f3 6e 3f f4 88 70 3f
       0.9873349 1.1450423 0.9333976 0.93958974
000170 6d 08 ef 3e f7 4e 48 3e 47 5f bd 3e 88 31 8d 3e
       0.46686116 0.19561373 0.36986753 0.27576852
000180 45 4d 80 3f 6a e4 ec 3e 99 be 71 3f 52 99 2e 3f
       1.0023581 0.46268016 0.94431454 0.682027
000190 80 89 7f 3e 79 e5 5e 3f 65 0a 1e 3f 02 e1 1a 3f
       0.24954796 0.870689 0.6173461 0.60499585
0001a0 9e a9 47 3f d3 36 94 3e 5c d2 9e 3e c1 7c 8a 3f
       0.7799319 0.28948078 0.31019866 1.0819322
0001b0 b6 00 4b 3f 75 20 1d 3f 6d 94 63 3f 3c 46 1d 3f
       0.7929796 0.6137765 0.88898355 0.61435294
0001c0 5f fe 49 3f 34 ce b6 3e 3d 40 c0 3e b2 c3 57 3f
       0.78903764 0.35704195 0.3754901 0.8428298
0001d0 19 01 1d 3f b3 72 22 3f 54 a1 25 3f 32 d6 7c 3f
       0.613298 0.6345627 0.6469929 0.98764336
0001e0 f7 23 86 3f 05 f2 72 3f 5e 64 e9 3e 2e 05 c2 3e
       1.0479726 0.9490054 0.45584387 0.37894577
0001f0 3b 8f 12 3f e5 7b c5 3e 76 8b 2b 3f 7d c3 10 3f
       0.572498 0.38571087 0.67009676 0.5654829
000200 1f b0 80 3f 98 4f bd 3e c5 4b 89 3f 24 28 89 3f
       1.0053748 0.36974788 1.0726248 1.0715375
000210 30 5b 8c 3f 78 8f 7d 3f d2 a2 65 3f 99 ff bf 3e
       1.0965328 0.9904704 0.8970157 0.37499693
000220 a0 6a 7c 3f 04 1d 72 3e 89 02 57 3f c0 ef 8a 3f
       0.98600197 0.23643881 0.83988243 1.0854416
000230 dc 1c 50 3f aa 37 30 3f 73 34 c1 3e a6 c1 9c 3e
       0.81294036 0.68834937 0.37735328 0.30616492
000240 14 f7 57 3f 81 6e 55 3f 6f b8 c7 3e 34 55 1f 3f
       0.84361386 0.8337174 0.390079 0.62239385
000250 a0 bc 3d 3f 23 5c d6 3e 4e 5f 5a 3f 2c 20 72 3e
       0.74115944 0.4186717 0.85301673 0.23645085
000260 1c 3d 7b 3f c9 c1 ba 3e 85 f8 60 3f 68 ff 86 3f
       0.9814012 0.3647597 0.8787921 1.0546694
000270 46 fa 64 3f b7 96 b8 3e 41 01 8f 3f e3 a5 24 3f
       0.89444387 0.36052486 1.1172258 0.64315623
000280 3a 56 b8 3e 22 08 7e 3f c1 1b 8a 3f f2 25 61 3f
       0.36003286 0.9923116 1.078972 0.87948525
000290 6a 96 ba 3e 21 26 2e 3f 36 5b 1d 3f 22 25 8c 3f
       0.36442882 0.6802693 0.614673 1.0948832
0002a0 68 bc a5 3e 04 66 9e 3e b4 bb 6a 3f 8f e4 53 3f
       0.32370305 0.30937207 0.9169266 0.8277063
0002b0 2e 6c 0e 3f ed 72 cc 3e eb 5a 41 3f a0 67 68 3f
       0.5563382 0.3993143 0.75529355 0.9078312
0002c0 bc 52 8b 3f 30 0d 6b 3f 00 1f b2 3e e1 d3 6d 3f
       1.0884624 0.91817 0.34789276 0.92901427
0002d0 e2 cb 77 3f f4 d2 bf 3e f7 0e 39 3f 65 27 58 3f
       0.96795475 0.37465632 0.7228846 0.8443511
0002e0 c2 94 17 3f bf f7 a3 3e 93 f0 04 3f b6 7f b9 3e
       0.5921136 0.32024953 0.5192959 0.36230248
0002f0 42 3f 4b 3f ec 42 6c 3f 2a 0b 39 3f 14 12 8d 3f
       0.793934 0.92289615 0.7228266 1.1021142
000300 2d 00 a5 3e 8c 4d 8d 3f 91 61 09 3f 2e 33 d2 3e
       0.32226697 1.103929 0.536645 0.41054672
000310 87 6c 7c 3f 38 b8 2a 3f dd a8 2d 3f f2 37 53 3f
       0.986031 0.66687346 0.6783579 0.8250724
000320 9a 8e 10 3f 06 c0 16 3f 7f 8b 5e 3f ce f0 8e 3f
       0.5646759 0.58886755 0.86931604 1.1167238
000330 e1 3b 03 3f 64 90 30 3f 4e ca 19 3f a2 61 26 3f
       0.5126324 0.6897032 0.6007432 0.64992726
000340 4f dd 82 3f ce 93 74 3f 83 4a 15 3f e9 f0 ae 3e
       1.0223788 0.9553803 0.5831682 0.34168175
000350 4e 6e 54 3f 8f 39 a4 3e 37 25 ce 3e 26 af eb 3e
       0.8298081 0.32075164 0.40262768 0.46032065
000360 f9 84 b1 3e d4 95 ef 3e f9 7e 54 3f 1f 9f 46 3f
       0.34671763 0.46793997 0.83006245 0.7758655
000370 6e e8 7a 3f 5d b6 3f 3f 74 54 5e 3f d7 74 66 3f
       0.9801091 0.7488764 0.86847615 0.90022033
000380 4b 41 6d 3f 02 ba d7 3e 38 c5 86 3f dc 7f 67 3f
       0.92677754 0.421341 1.0528936 0.9042947
000390 f1 64 84 3f 11 04 84 3f d9 d2 e7 3e 75 7e 20 3f
       1.0343305 1.0313741 0.45278051 0.6269296
0003a0 6a 91 47 3f aa 26 5d 3e a2 3b ea 3e db 73 ba 3e
       0.7795626 0.2159678 0.4574862 0.36416516
0003b0 a6 f7 2b 3f e6 a5 29 3f 5c 6b 7d 3f 52 56 a7 3e
       0.67174757 0.66268766 0.9899194 0.32683045
0003c0 04 a0 88 3f 41 8f 5f 3f 39 ca 19 3f 03 66 93 3e
       1.0673833 0.87327963 0.6007419 0.28788766
0003d0 a8 e1 3e 3f 44 e9 0f 3f 7d ab 0f 3f 66 7f 1c 3f
       0.74563074 0.5621531 0.56121045 0.61131895
0003e0 e0 f8 24 3f b9 ab fc 3e a9 79 1e 3f 01 ca eb 3e
       0.64442253 0.49349764 0.6190439 0.46052554
0003f0 5c cd 42 3f 1f ec ce 3e 8d 2d e6 3e b9 a2 39 3f
       0.76094604 0.4041452 0.44956627 0.7251392

bn1.bias f4 [256]
000000 bb 8a 8c 3d 5c b1 e8 bd bb ec 33 bc d6 8d ee bc
       0.06862398 -0.113619536 -0.010981734 -0.029120367
000010 cb d7 37 bc 47 09 e3 3d 1f 2e 66 3d 57 93 8f bd
       -0.011220883 0.11085754 0.05619633 -0.07010525
000020 35 02 e4 3c 90 11 6b 3d 83 b9 fe bc 6f a0 56 3d
       0.027833084 0.057389796 -0.031094318 0.052399095
000030 5c f4 cf 3d 34 ce 3a 3b 27 fe d3 bd 3f 5a af 3d
       0.1015403 0.0028504254 -0.1035121 0.08562135
000040 18 ab 16 3d 26 c3 08 bd 46 e3 58 bc 8d 3c 9c bd
       0.03678426 -0.033389233 -0.01323778 -0.07628737
000050 7a 91 4d bd 12 1f d5 bc 2f 8f ab bd 50 cd f6 bc
       -0.050187565 -0.026015792 -0.083769195 -0.030127198
000060 ea 26 30 be 93 3d cf bc 46 0a d3 bc eb 33 24 3c
       -0.17202345 -0.025297916 -0.025761735 0.010022144
000070 54 51 2b 3d 06 04 29 bd c5 90 14 3e fc 7b 99 bc
       0.041825607 -0.041263603 0.1450835 -0.018735878
000080 8b 97 75 bd af 7d 9e 3d 04 6e b6 bc a6 c9 06 bd
       -0.059958976 0.07738816 -0.022269256 -0.03290715
000090 10 1e aa bb 6d 36 96 3d a4 ae 0d be 9a f4 bd bd
       -0.005191572 0.073346 -0.13836151 -0.0927517
0000a0 cf 1a 89 3d 36 41 76 3d cd 7e f9 bc 9f 47 6e 3d
       0.066945665 0.060120784 -0.030455971 0.058173772
0000b0 c5 be 55 3c 14 95 8c 3d 0b 23 a5 bd 44 70 47 3d
       0.013045971 0.06864372 -0.080633245 0.04869105
0000c0 fa 11 83 bd 39 64 0f 3e 58 3c de bd 75 f4 35 3c
       -0.06399913 0.14003076 -0.108513534 0.011105646
0000d0 50 67 46 3c 19 8d 13 3e 2a 95 c2 bd 90 58 39 bd
       0.012109593 0.14409293 -0.09501107 -0.045250475
0000e0 fb 25 9e 3c 60 de 96 3c 0c f6 a5 bd 66 47 c4 bd
       0.01930522 0.018416584 -0.0810357 -0.09583931
0000f0 d3 a0 c0 bc cb ab 83 bc 7e 02 1a 3d 2b b2 f5 bc
       -0.023514187 -0.016073128 0.037600033 -0.029992184
000100 b0 65 f4 3d 1d 19 9c 3a d6 f9 65 bd 28 4d 36 bd
       0.11933458 0.001190934 -0.056146465 -0.044507176
000110 a4 26 07 bc 29 2d d0 3c ac c6 cc bc e8 7b 5a bd
       -0.008248959 0.025412159 -0.024997078 -0.053340822
000120 00 5a 71 bc f9 6c 0b bd 01 3d ff 3d 88 fb a2 bd
       -0.01473093 -0.03403947 0.124628074 -0.07958132
000130 40 b2 8b 3d 65 32 c4 bd 9f 46 32 bd 0d 2f 30 be
       0.06821108 -0.095799245 -0.04352438 -0.17205448
000140 c7 b8 58 bd eb b6 ef 3c 17 74 e8 3d 41 4c 76 bd
       -0.052910592 0.029262027 0.113502674 -0.060131315
000150 bc 68 a0 bc 96 1e 02 3d 41 45 8f bd d9 ac 16 bd
       -0.019581191 0.03176745 -0.06995631 -0.036785934
000160 22 e8 88 3c b9 67 e2 3c cd eb 54 3d 99 66 e4 3d
       0.016712252 0.02763735 0.05198269 0.111523814
000170 01 30 a4 3c 70 01 f1 bd ee e4 df bd 44 30 ed 3d
       0.020042421 -0.11767852 -0.10932337 0.115814716
000180 f5 a0 9c 3c 85 aa ff 3c e3 60 e5 bd 03 91 13 bc
       0.019119719 0.03120924 -0.1120012 -0.009006741
000190 c1 24 6e bd 8a 13 12 3d 85 d0 54 bc 86 c1 0a 3d
       -0.05814052 0.035663165 -0.012989168 0.033875965
0001a0 87 62 69 3d a4 1b 9e bd ce 06 64 bc 34 3f 1f 3d
       0.05697873 -0.07720116 -0.013917638 0.038878635
0001b0 00 ac b0 3d 3f 0b 87 bd 3b 55 9f bd 57 b6 3e bd
       0.086265564 -0.06593942 -0.07779928 -0.04656061
0001c0 d9 1c 62 3d 7c 68 60 3c 2c f1 a6 bd bd ab 21 bd
       0.055203293 0.013696786 -0.08151469 -0.039470423
0001d0 8b fb 21 3c 52 f3 c2 bc 50 d7 b7 3c fc 96 e9 3c
       0.009886633 -0.023797665 0.022441536 0.028514378
0001e0 6f d0 93 3d 86 6d 6d 3d a3 20 39 3d 22 9a 80 bb
       0.0721749 0.057965778 0.04519714 -0.003924624
0001f0 e6 96 ce 3a ef 40 f0 bd 4a bc cc 3b b5 41 c2 3c
       0.0015761524 -0.11731135 0.0062480317 0.023712972
000200 1c 97 8e bd 26 ad 31 bc 3a 6f 14 bd dd bf 1f bd
       -0.069624156 -0.010844504 -0.036238886 -0.039001334
000210 37 48 d9 bc 1a a1 aa 3d dc ff e7 bc de fa 06 3e
       -0.026523693 0.08331509 -0.028320245 0.13181636
000220 59 b5 20 bd 05 2b 35 3d bf 50 28 3c 5c 96 55 bd
       -0.039235447 0.04423048 0.010273158 -0.052145347
000230 e6 01 c7 3d 27 7c 39 3c c8 7a a8 3d a1 a3 7b 3d
       0.09717159 0.011321104 0.08226544 0.061435346
000240 cb 92 17 3d 54 35 17 be c2 f1 e9 3b 00 55 f3 3c
       0.037005227 -0.14766437 0.0071394155 0.029703617
000250 9c 3b d4 3d 64 72 e9 3d 5d 6a b4 bc 7a 98 00 be
       0.10362932 0.113987714 -0.022023374 -0.12558165
000260 88 57 8f 3d 16 90 1f bd bc 9f 4c 3d 58 80 b7 bd
       0.06999117 -0.03895577 0.049957022 -0.089600265
000270 18 cc 13 bd 95 d0 d1 3c e2 b0 c1 bc 2c f7 69 3c
       -0.03608331 0.025612155 -0.023643915 0.014280122
000280 3a 19 78 bd 91 db ae 3d 80 60 51 3d e5 e0 a0 bd
       -0.060570933 0.08537973 0.05111742 -0.07855395
000290 29 fc 12 3c d2 44 06 be 80 98 a4 bd 41 b3 3a 3c
       0.0089712525 -0.1311219 -0.080368996 0.0113952765
0002a0 ab 6e f4 3d 50 dd 8b bc c5 d4 3b 3d fb 0c 3b bd
       0.11935171 -0.017073303 0.04585721 -0.045666676
0002b0 bc 14 69 3c ca dd b5 3b df 4b 77 bd 9e 76 92 3d
       0.014226135 0.005550121 -0.06037509 0.07151531
0002c0 f2 4c 84 3d 8b 24 16 3d 10 ce 00 3d e6 b8 c6 3d
       0.06459989 0.036655944 0.031446517 0.09703235
0002d0 f0 0d 62 bd 95 8f 57 3d b9 c2 87 3d 8e c4 77 3d
       -0.055189073 0.052627165 0.06628937 0.060490184
0002e0 bd 2c 7e bd 05 d3 71 bd 0f 9d 0f bd 34 c2 7a 3d
       -0.062054384 -0.059039135 -0.035061892 0.061220363
0002f0 df e7 00 bd c1 09 ba bd ed 5f fe 3c 2a d2 46 3d
       -0.03147113 -0.09083892 0.0310516 0.04854027
000300 54 7f 5c 3c 79 ff 35 3d ee d2 95 bd e7 b3 22 3d
       0.013458092 0.04443309 -0.07315622 0.03972235
000310 19 0a a5 3c 89 5a b9 3d 23 b6 24 3d c4 a3 9f bc
       0.020146417 0.09050471 0.04021276 -0.01948727
000320 d6 80 89 bd 30 c6 02 bd 24 13 cb 3d af 47 ac bd
       -0.06714027 -0.031927288 0.0991576 -0.0841211
000330 79 88 45 3d b3 e9 b7 bc cd 4f 3e 3d 04 94 a5 3c
       0.048225854 -0.022450304 0.046462823 0.02021218
000340 66 82 ab 3c de 3c 95 bd 9d f7 ba bc 12 06 bd 3d
       0.020936202 -0.07287 -0.02282315 0.092296734
000350 1c ab e3 bd 4a 0c 9e 3d f2 28 27 bd ab 86 7d 3d
       -0.11116621 0.07717188 -0.040810533 0.061896008
000360 2e 7f 9d 3d e3 ad 18 3d f1 38 9d 3c 9d 49 cf bd
       0.07690273 0.037275206 0.01919219 -0.101214625
000370 06 1d cb bd 79 87 09 bd fe a8 11 be e7 3b fb bb
       -0.09917645 -0.033576462 -0.14224622 -0.007667053
000380 eb 44 ee 3c ed 25 c8 bd fb 77 db 3c 1b cb 7a bd
       0.029085597 -0.09772859 0.02679061 -0.061228853
000390 85 27 cc 3d aa c3 c4 bd 52 54 50 3c f0 8b 80 bd
       0.09968475 -0.096076325 0.012715416 -0.06276691
0003a0 51 91 ef ba 7e 83 f0 3b cc 84 88 bd ea 34 cf 3d
       -0.0018277561 0.007339894 -0.06665954 0.101175144
0003b0 a5 30 79 bd 74 6a 78 bd 45 f7 4a bd c2 2a e5 bc
       -0.060837407 -0.060648397 -0.04955222 -0.02797449
0003c0 73 b6 0a 3d e6 2b d1 3d c2 7c 04 be 8f ed 16 3e
       0.033865403 0.10213451 -0.12938216 0.14739059
0003d0 c0 ec 36 3d f7 9a 87 3b 02 20 3f bd 9a 26 f7 bc
       0.044659376 0.0041383463 -0.046661384 -0.030169774
0003e0 4a e5 b5 bd 2f c4 f2 bc 60 4f ee 3d 83 60 63 3c
       -0.08881624 -0.029634563 0.11636233 0.013877991
0003f0 af 7f ca bd a9 0d 1a 3d 54 c8 da 3d c4 50 56 3d
       -0.09887635 0.037610684 0.10682741 0.052323118

bn1.running_mean f4 [256]
000000 e8 61 0e 3e 6d 6a 1e 3e 05 6b e2 3e f2 2d c8 1f
       0.13904536 0.15470286 0.44222274 8.4779305e-20
000010 9b 9d 8b 40 f3 c3 69 40 f2 76 04 41 dc cb e2 3e
       4.362989 3.6525848 8.279039 0.44296157
000020 04 1f c9 3e d8 cb 62 3f 9e 9c fe 3e dc 1c 3d 3d
       0.39281476 0.8859229 0.49728864 0.0461701
000030 2f 35 22 3f 0b e2 72 3f 07 8a 40 3e dc aa 98 3f
       0.633624 0.94876164 0.18802653 1.1927142
000040 70 b7 d4 3f 5d 1e 01 40 56 e1 b4 3f fc 20 74 40
       1.6618481 2.0174782 1.4131267 3.8145132
000050 60 6c 5a 40 ad c1 83 3f 39 49 c5 3f c0 7c 10 3f
       3.4128647 1.029348 1.5412971 0.56440353
000060 7a 92 a3 3f 6b 14 e8 3e 59 51 f4 3d 1f 0f 85 3e
       1.2779076 0.45328078 0.11929578 0.259881
000070 95 5d 97 3f 00 17 78 40 a2 dc 1e 3e 90 b5 c3 3e
       1.1825434 3.8764038 0.15513852 0.3822446
000080 94 da a1 3f f2 6a 96 3f fc d6 9e 3f be 22 8f 3f
       1.264483 1.1751387 1.2409358 1.1182477
000090 49 2f 54 3f 42 cb 4d 40 cb 75 5c 40 d0 9c 89 3f
       0.8288465 3.2155309 3.4446895 1.075098
0000a0 8f 0b 27 3f 7f 90 66 3e f9 25 54 3f 8d 7e eb 3f
       0.6525201 0.22516058 0.8287044 1.8397995
0000b0 e5 4c 5e 40 a9 c0 f1 3e 6c f1 ff 3f 7f 15 42 3f
       3.4734433 0.472173 1.9995551 0.7581405
0000c0 3c 83 0b 40 f7 ea 2e 3d 0f 53 a8 3e 31 b6 2c 3f
       2.179885 0.04270455 0.3287587 0.674655
0000d0 2d ef 1c 40 08 32 ed 3f 83 f5 13 3f 7f 6a d7 3e
       2.4520981 1.8530893 0.57796496 0.42073438
0000e0 05 2f 1f 40 7d a6 67 3f 9e 9b 4e 3f 23 26 8e 3d
       2.4872448 0.90488416 0.80706203 0.06940868
0000f0 3b c4 81 3f 79 70 d2 3f df 4b a7 3f c4 f5 73 40
       1.013801 1.6440574 1.3070029 3.8118753
000100 2d 48 ca 40 1e cd 12 3f 4b f9 9e 3e ee 68 ca 3e
       6.3213105 0.57344234 0.3104957 0.3953318
000110 e5 67 93 3e b4 92 22 40 5e 79 0c 3f 8d 6b 10 3f
       0.28790203 2.540204 0.5487269 0.5641411
000120 b7 f7 26 40 5c 61 c5 3f 89 f1 f0 3e bb 91 9f 3f
       2.6088693 1.5420337 0.47059277 1.2466348
000130 b7 36 28 3e 9e 6e c0 3f 43 1d 6c 40 58 e8 54 3d
       0.16427122 1.5033758 3.689286 0.051979393
000140 f8 b0 16 3e f8 cc 75 3f 62 c6 40 3f ad a9 35 3b
       0.14715946 0.9601588 0.7530271 0.0027719543
000150 fb 13 e3 3f ee 0a 92 40 cf 3a a2 3f 8f f9 32 40
       1.7740473 4.563834 1.2674197 2.7964818
000160 8c ad ff 40 8c 9f 24 3f da e9 0b 40 90 7b 56 3f
       7.989935 0.6430595 2.1861482 0.8378229
000170 c3 8d 55 3e 05 c4 88 3f 78 6e df 3e 40 dd f6 3d
       0.20854859 1.068482 0.43638968 0.12053919
000180 41 36 70 40 f7 13 2a 3f db f4 84 3e e6 22 bd 3f
       3.7533114 0.66436714 0.2596806 1.4776275
000190 04 00 00 00 d0 f4 a6 3f 5d 88 bf 3d 89 42 b5 40
       6e-45 1.3043461 0.09352181 5.664372
0001a0 e3 c9 54 3f 80 b2 92 3f 67 05 be 3f 8b 13 fe 3f
       0.83120555 1.1460724 1.4845399 1.9849714
0001b0 90 5f e5 3f 28 0c d1 3d 63 d4 45 3e 02 92 6f 3d
       1.7919788 0.10207397 0.193193 0.058488853
0001c0 29 f5 9a 3e 6f 82 23 3e 8d 92 88 3f 28 49 57 3f
       0.30265167 0.15967725 1.0669724 0.84096
0001d0 38 14 2f 40 33 88 01 3f 89 f1 69 3e 39 0c b2 3f
       2.735609 0.5059845 0.22846045 1.390998
0001e0 a6 42 0d 40 54 7a ae 3f 86 1f d3 3f e8 b2 ca 3f
       2.207193 1.3631082 1.6493995 1.5835848
0001f0 41 8d 14 3f c4 19 3c 40 0a 60 00 3f 05 85 19 40
       0.58028036 2.9390726 0.50146544 2.3987439
000200 34 ff e1 3f 6f f0 f0 3f 10 cc b0 3f 33 c3 43 3f
       1.7656007 1.8823375 1.3812275 0.76469725
000210 9e 20 d3 40 11 00 4b 40 2c 18 a9 3e 16 6f fc 3e
       6.5977316 3.171879 0.33026254 0.49303502
000220 82 f3 40 40 21 9b b3 3f 13 c2 e7 3e 84 a5 9d 3f
       3.0148625 1.4031717 0.45265254 1.2316136
000230 9c 7b 57 3e 90 cb ae 3f 56 6d 7a 3f 1f 90 95 3f
       0.21043247 1.3655872 0.97823083 1.1684607
000240 3b a6 5f 3f b1 de 3e 3e e2 55 4d 3f 09 83 04 40
       0.8736302 0.18639638 0.8020917 2.0704978
000250 86 0b 81 40 d8 da de 3f 37 e7 8c 3e c5 21 2b 40
       4.0326567 1.7410536 0.27520153 2.6739361
000260 6d 7f 26 3e 92 2b 6f 40 22 9e a4 40 55 b5 66 40
       0.16259547 3.7370343 5.1443033 3.6048176
000270 b1 45 7d 3f 3c 8f df 3f 85 6e 38 3f 39 7d 9c 40
       0.98934466 1.7465587 0.7204364 4.890286
000280 5e 12 6e 3d 6e 27 49 3f a4 66 1f 3f 83 a1 46 3f
       0.058122985 0.7857579 0.6226599 0.775902
000290 5a 8e ee 3e b9 4b 9a 3f 15 b0 44 3f 40 ff 8b 3f
       0.4659298 1.2054359 0.7683118 1.0937271
0002a0 cd 41 4d 40 f5 9f 6a 3f 03 de 34 40 fd d8 45 3e
       3.2071412 0.91650325 2.8260505 0.19321056
0002b0 2e 86 fe 3e fd 92 0f 40 fe 15 22 40 53 30 5c 40
       0.49711746 2.2433465 2.5325923 3.4404495
0002c0 04 00 00 00 a5 23 27 3f e2 41 10 40 ba e1 e9 3e
       6e-45 0.65288764 2.2540212 0.45680028
0002d0 05 85 4e 40 fd 68 70 3c 7b 7c 4a 40 dd 15 89 40
       3.2268689 0.014673469 3.1638477 4.283919
0002e0 6b 2c ad 3e 52 89 2d 40 24 6b e0 3e 71 1b ca 3e
       0.3382295 2.7115064 0.43831742 0.3947406
0002f0 58 97 78 3f 2a c7 a5 3e b6 76 02 3f 68 7a 77 3f
       0.9710593 0.32378513 0.5096239 0.9667115
000300 1d ab e9 3d a5 63 dd 3f 44 a6 65 3f ca d0 8c 3c
       0.114095904 1.7296034 0.89706826 0.017189402
000310 53 37 1a 40 f4 5e 7c 3f 6a f1 4b 3f 84 93 76 3f
       2.4096267 0.98582387 0.79665244 0.9631884
000320 8e 82 82 3e 6b 0c 90 3f d3 9f aa 3f 7d 42 da 3e
       0.2549023 1.125379 1.3330024 0.42628852
000330 9b 3b c0 3f 9c 23 b5 3f 37 8a 9a 3f 71 07 2f 40
       1.501819 1.4151492 1.207343 2.7348292
000340 64 5b 0f 3f 2a 79 9f 3f 98 c9 63 3f 6e c8 1e 3f
       0.55998826 1.2458851 0.8897948 0.6202458
000350 ad 90 a1 3f 8b af cf 3f 2a 7c 82 3f 04 7e af 40
       1.2622277 1.6225446 1.0194142 5.484133
000360 d9 31 b3 3f 69 68 0e 3f 6b ad 04 40 4a 93 97 3e
       1.3999587 0.5562807 2.0730846 0.2960456
000370 f9 bd 92 3f d1 a1 93 3d af 8c 86 3f 4a 2c 7b 40
       1.1464225 0.072085984 1.0511683 3.9245782
000380 69 a1 ec 3e ca 2a 4c 3f 8d da 84 3e 74 05 74 3f
       0.46216896 0.7975279 0.2594799 0.9532082
000390 90 29 cf 3f 6c b5 01 3f 5e d4 8d 3e 63 0c bd 3f
       1.6184559 0.5066745 0.27701086 1.4769405
0003a0 f9 30 d2 3f 29 38 c2 40 ef 84 9a 3e 55 9f 98 3f
       1.6421195 6.0693555 0.30179545 1.1923624
0003b0 d5 61 2a 3f 9b 6e f5 3f 2d 74 38 40 a8 3d 3f 3f
       0.6655553 1.9174379 2.8820908 0.74703455
0003c0 99 7a d1 3e df ab d6 3f 62 58 e4 3f e1 62 38 3f
       0.40913847 1.6771201 1.7839472 0.7202588
0003d0 c9 2b 60 3f 00 89 1d 40 52 f4 87 3e 1a 76 1c 3f
       0.8756681 2.4614868 0.2655359 0.6111771
0003e0 4a fe eb 3f 64 9b 62 3d d9 12 2e 40 fe 05 18 3f
       1.8436978 0.055323973 2.7199004 0.59384143
0003f0 3d d0 ba 3f 57 df 7a 40 6d 50 36 3d 73 fd 46 40
       1.4594799 3.9198816 0.044510294 3.1092193

bn1.running_var f4 [256]
000000 a4 ce b5 3e d1 fd 03 3f 70 69 e9 3f d7 ed 60 1f
       0.35509217 0.5155917 1.8235302 4.763058e-20
000010 34 81 91 41 cb 0c a3 41 13 57 98 41 a8 e3 c7 3f
       18.188087 20.381247 19.042517 1.561635
000020 57 fc d9 3f 4a a4 60 40 7f 19 4d 40 6f 6a 01 3e
       1.7030133 3.5100274 3.2046812 0.12638257
000030 c8 1e 54 40 58 87 5c 40 fc 63 0b 3f 18 71 8c 40
       3.3143787 3.4457607 0.5444944 4.3888054
000040 a7 67 f6 40 6f 48 1e 41 38 30 09 41 b7 81 37 41
       7.700153 9.892684 8.574272 11.469169
000050 7f a1 4c 41 ad 57 89 40 53 6e 12 41 8b ea 0f 40
       12.789428 4.2919526 9.151935 2.2486904
000060 62 11 ce 40 b2 96 b8 3f 6d 16 b7 3e b7 8d 39 3f
       6.439622 1.4420989 0.35759297 0.72481865
000070 84 af 1d 41 b7 cc 43 41 e8 59 ba 3e b5 53 ca 3f
       9.8553505 12.237479 0.36396718 1.5806795
000080 7c dd 87 40 09 83 a4 40 d5 49 70 40 2a 07 95 40
       4.2457867 5.1409955 3.7545063 4.6571245
000090 11 4b 9d 40 ce ca 81 41 eb 45 01 41 89 df ab 40
       4.9154134 16.224026 8.07957 5.371037
0000a0 86 6a 69 40 f9 47 35 3f ff 53 41 40 2d 90 0b 41
       3.6471267 0.70812947 3.0207517 8.722699
0000b0 8b c7 76 41 90 7d 9f 3f c4 c2 1c 41 c1 70 62 40
       15.423717 1.2460194 9.79755 3.538132
0000c0 a3 85 0e 41 58 b3 20 3e 7f d0 a4 3f 29 ac 86 40
       8.907626 0.15693414 1.2876128 4.2085156
0000d0 a3 bb 2b 41 8c b4 e3 40 f2 e8 d8 3f 05 ec d8 3f
       10.73331 7.1157894 1.6946089 1.6947027
0000e0 57 87 2b 41 62 a2 4b 40 cb e8 4d 40 d5 7d 76 3e
       10.720542 3.181786 3.2173336 0.24071439
0000f0 2d 38 a3 40 ef af 15 41 67 db 95 40 8b 6f 43 41
       5.1006074 9.355453 4.6830325 12.214732
000100 1e f4 8a 41 55 b8 04 40 84 3f 8d 3f 4a 9e ca 3f
       17.369198 2.0737507 1.1035008 1.5829556
000110 e0 ca 92 3f 24 46 25 41 b9 08 ee 3f 74 ba c9 3f
       1.1468163 10.329624 1.8596412 1.5760026
000120 4c ec 20 41 a8 f0 9a 40 c9 ee d3 3f af 7e bc 40
       10.05769 4.841877 1.6557246 5.8904643
000130 f0 a0 fd 3e bf 4d fb 40 d9 25 43 41 90 2d f6 3d
       0.49536848 7.8532405 12.19674 0.12020409
000140 83 db f8 3e 36 95 9d 40 8f 4b 51 40 bf 08 42 3b
       0.48604974 4.924464 3.2702367 0.0029607264
000150 09 4d f4 40 32 70 2d 41 fb 40 a9 40 0b ae 54 41
       7.6344037 10.839891 5.289182 13.292491
000160 a2 50 38 41 89 82 3c 40 c0 20 3b 41 70 d5 92 40
       11.519686 2.9454672 11.695496 4.5885544
000170 98 b4 3d 3f ad 44 ac 40 af 9a a9 3f b1 02 d5 3e
       0.7410369 5.3833833 1.3250331 0.41603616
000180 1c 29 b2 41 fc f1 0d 40 aa 02 7a 3f 82 b6 ba 40
       22.270073 2.2178946 0.97660315 5.834779
000190 04 00 00 00 ca 94 9e 40 8f 36 4e 3e 6d 2b b8 41
       6e-45 4.9556627 0.20138 23.021204
0001a0 9c 2c 82 40 0b 56 2c 40 60 34 ee 40 b5 74 63 41
       4.0679455 2.6927516 7.4438934 14.215993
0001b0 03 df 3a 41 7b 62 a0 3e bf 7e 0f 3f f0 cf 23 3e
       11.679446 0.31325135 0.56052774 0.1599729
0001c0 97 09 9b 3f 59 a4 1a 3f b6 2d ac 40 96 85 a9 40
       1.2112302 0.60407025 5.38058 5.297557
0001d0 10 af 59 41 dd 3e 1f 40 99 8f 53 3f 67 0d 82 40
       13.60524 2.4882119 0.8264099 4.064136
0001e0 15 21 f0 40 92 cb d2 40 15 20 b8 40 50 52 28 41
       7.5040383 6.58735 5.7539163 10.520096
0001f0 3d 16 23 40 54 4f 85 41 46 f8 1c 40 7e 72 5c 41
       2.5482323 16.663734 2.4526534 13.777952
000200 a8 52 16 41 b0 18 e2 40 03 d3 be 40 f4 32 58 40
       9.39518 7.0655136 5.9632583 3.37811
000210 e6 ee 68 41 08 71 67 41 38 f6 c0 3f de d5 f5 3f
       14.558325 14.4650955 1.507514 1.9205892
000220 ce 1f 65 41 77 4a a8 40 bb 76 ae 3f c9 b7 8c 40
       14.320265 5.25909 1.3629984 4.3974347
000230 04 9d 36 3f 9b c8 01 41 7e 36 9e 40 38 f5 b9 40
       0.71333337 8.111476 4.944152 5.811184
000240 fc e4 18 40 50 c7 da 3e 32 95 79 40 de 2c 22 41
       2.388976 0.42730188 3.8997312 10.135954
000250 f0 d9 a2 41 ff 61 da 40 57 17 5f 3f ef 24 5f 41
       20.356415 6.8244624 0.8714499 13.946517
000260 07 de c6 3e b0 92 7e 41 0f 05 c0 41 ba f1 87 41
       0.38841268 15.910812 24.00247 16.99303
000270 76 26 97 40 a7 e7 1c 41 dc dd 15 40 ad de 6c 41
       4.723445 9.806556 2.3416662 14.804364
000280 58 ff 00 3e a0 97 5a 40 1e 99 26 40 2f 4a 30 40
       0.12597406 3.4155045 2.6030955 2.7545278
000290 df 2c ff 3f 3c f3 44 40 b5 68 2f 40 b2 bd d8 40
       1.9935569 3.0773458 2.7407658 6.773156
0002a0 b6 48 54 41 d5 bd 6c 40 43 f8 48 41 6b 67 66 3f
       13.267752 3.6990864 12.560611 0.90001553
0002b0 11 a0 2d 40 26 b9 da 40 d0 c2 3f 41 34 24 b1 41
       2.7128947 6.835101 11.985062 22.142677
0002c0 04 00 00 00 09 b9 92 3f 9f a1 07 41 28 cc a1 3f
       6e-45 1.1462718 8.476958 1.2640429
0002d0 4e 3a 70 41 70 50 b0 3c 89 16 5c 41 39 cb 8c 41
       15.014235 0.02152273 13.755502 17.59923
0002e0 fe ea 3b 3f 64 02 4a 41 d2 c8 eb 3f cd f2 6b 3f
       0.73405445 12.625584 1.842066 0.9216736
0002f0 c5 e5 61 40 c2 4d 8d 3f 92 22 0b 40 e3 f1 63 40
       3.529649 1.1039355 2.173985 3.5616386
000300 94 3b da 3e e6 ba 0f 41 c2 4e 45 40 e7 ad e9 3c
       0.4262358 8.9831295 3.082932 0.028525306
000310 48 6f 23 41 5e b8 33 40 c1 4d 47 40 90 21 92 40
       10.214668 2.8081279 3.1141207 4.566597
000320 a8 bf 94 3f d8 31 e1 40 e8 6d db 40 20 e8 b8 3f
       1.1620989 7.0373344 6.8571663 1.4445839
000330 94 98 e6 40 6d 9b 06 41 19 f9 a8 40 8f 96 19 41
       7.2061253 8.412946 5.2804074 9.599257
000340 f4 62 03 40 51 e5 96 40 07 b8 75 40 0e 86 1e 40
       2.0529146 4.7154927 3.8393571 2.476932
000350 3b 1e 03 41 1c 82 07 41 80 6c e7 3f 81 aa 0b 41
       8.1948805 8.469265 1.8079987 8.729127
000360 de 43 b0 40 3e 2f 15 40 2f fc 56 41 b8 cd 7c 3f
       5.5082846 2.3310084 13.436568 0.987514
000370 1b 28 96 40 65 bc 70 3e e7 68 0e 40 f3 67 b1 41
       4.6923957 0.23509367 2.2251527 22.175756
000380 3c 93 c4 3f 96 dc 95 40 04 1a 7f 3f 44 b6 5b 40
       1.5357432 4.683177 0.9964907 3.4329996
000390 96 1d e6 40 eb 29 fd 3f 63 7e 9c 3f 26 0c 0f 41
       7.1911116 1.9778417 1.222607 8.940466
0003a0 bb b6 24 41 f2 09 d3 41 01 4f 99 3f 4c 10 a7 40
       10.294612 26.379856 1.1977235 5.2207394
0003b0 32 48 30 40 19 95 00 41 e7 12 69 41 6e c0 4f 40
       2.7544065 8.036401 14.567115 3.24612
0003c0 a9 0d e7 3f 3d fe 0a 41 de c5 8a 40 d6 9d 63 40
       1.8051044 8.68707 4.3366537 3.5565085
0003d0 43 40 6c 40 08 76 7c 41 a9 9d 0d 3f 25 49 f6 3f
       3.6914222 15.778816 0.55318695 1.9241072
0003e0 31 bf f4 40 44 c2 39 3e 26 5a 39 41 8e f3 2a 40
       7.648339 0.18140513 11.584509 2.6711154
0003f0 6b e0 05 41 b9 0e 83 41 48 64 c1 3d 2a ad cf 40
       8.36729 16.382189 0.09442955 6.489888

fc2.weight f4 [256, 256]
000000 88 07 ae 3d 86 98 a6 3d 42 14 c5 bd be db 50 3d
       0.0849753 0.0813456 -0.096230045 0.050990812
000010 05 d9 00 3d c5 63 d8 3d ec 57 88 bb da 84 11 bd
       0.031456966 0.105659045 -0.0041608717 -0.035527088
000020 c8 8e 13 3d e6 ae 55 3d aa be 65 bd f9 23 a1 bd
       0.03602484 0.05216875 -0.056090035 -0.07868189
000030 11 5f 96 3d c8 38 ac bc 8d a4 d8 bc 5c c3 b8 bd
       0.07342351 -0.02102317 -0.026445651 -0.09021637
000040 de 05 89 3d 51 ca a4 b9 d0 45 f8 3c e9 f0 1b 3d
       0.06690572 -0.00031431255 0.030306727 0.038071547
000050 9c 60 91 be 07 dd f4 3c b0 a1 89 3d 1f e7 49 3d
       -0.2839402 0.02989055 0.067202926 0.04929268
000060 07 34 15 3d 28 0d 82 3d c0 96 bb bd 2f 22 8d be
       0.03642657 0.063501656 -0.09159613 -0.27565143
000070 b8 84 0b 3d cd 05 d1 3d c7 bc 97 3e 45 1a a9 3d
       0.034062117 0.102061845 0.29636213 0.08256964
000080 7a 26 4e 3c 44 26 0e 3d a9 c4 50 be c0 70 39 be
       0.012582416 0.03470446 -0.2038752 -0.18109417
000090 8b 75 b9 3d 15 89 04 3e 65 1d 18 3d 77 fa 02 be
       0.09055623 0.12942918 0.037137408 -0.12790857
0000a0 85 9c 03 3d 12 04 cc 3d d0 db fc 3d f4 5e 1e bd
       0.03213169 0.09961714 0.123466134 -0.038664773
0000b0 90 f7 67 bd 4f 65 ce bd 8a b0 a7 bc ae 0d 07 be
       -0.05663258 -0.10077917 -0.020469923 -0.13188812
0000c0 33 20 e3 3b af c2 e7 3d 2d 4e 3a be 56 10 d3 3d
       0.0069313287 0.1131643 -0.18193884 0.1030585
0000d0 ca 91 45 3c d8 e3 40 3d 9e 06 44 be e3 50 5c 3d
       0.012058685 0.04709229 -0.1914315 0.053788077
0000e0 0b 40 ee 3c 92 43 c4 bd 48 35 29 be 72 17 43 bd
       0.029083272 -0.095832005 -0.16524231 -0.04762978
0000f0 25 a0 cf 3d 3d 24 f0 bd 9c 34 3e be e5 d2 cd bd
       0.10137967 -0.11725662 -0.18574756 -0.100499906
000100 75 37 aa bc b6 e1 cf bb ba 52 bb bd c2 68 b7 bd
       -0.020778397 -0.0063440455 -0.09146638 -0.08955528
000110 55 66 8a bd c1 37 fb bd c9 ff f4 3d f0 66 4f be
       -0.067577995 -0.122664936 0.1196285 -0.20254111
000120 fd 30 29 3d 5a 41 02 be c6 05 6a bd 99 b9 08 bc
       0.041306484 -0.12720242 -0.057134412 -0.008345031
000130 52 6e 41 3d 59 fc 04 bd 5f 87 cf 3d 8c 1a 08 be
       0.04722435 -0.03246722 0.10133242 -0.13291377
000140 f4 f9 61 3d 27 ea 9a bd 2c 42 a7 3d ce a1 30 3e
       0.055170015 -0.07564192 0.08166918 0.17249224
000150 3e 97 f2 bd 40 d1 90 3d fa b3 02 3d 90 e2 8e bd
       -0.118452534 0.07071161 0.03190992 -0.06976807
000160 62 dd c2 bd 63 14 ee bc 06 dc 63 bc 62 f5 98 3d
       -0.09514882 -0.029062456 -0.013907438 0.07468678
000170 d9 19 53 bd e0 a4 f2 bd 2c 1f 72 bd c5 19 1f 3e
       -0.051538322 -0.11847854 -0.05911176 0.15537174
000180 39 d6 3a bd b0 0b 89 3d ce 86 94 bd 92 e8 a6 bd
       -0.045614455 0.06691682 -0.072522745 -0.08149828
000190 ad e8 1c bb 06 b4 e5 3d 86 79 56 be 79 d6 ae 3d
       -0.0023942397 0.11215977 -0.20944795 0.08537001
0001a0 85 d8 92 bc 21 f0 d0 bd ca 05 4c bb 99 03 a1 3d
       -0.01792551 -0.10202051 -0.003113138 0.07862014
0001b0 1d 05 f6 3d d3 d5 f2 3c 1d 9f 99 bd 93 35 0a 3d
       0.12012694 0.029642975 -0.075010516 0.0337425
0001c0 be 68 e0 3b 1b 24 b5 bb 80 07 6e bd 1d 9a d1 bd
       0.0068484237 -0.0055279857 -0.05811262 -0.10234473
0001d0 37 d1 df bc b7 bb 0b be ae 11 39 3a e4 87 ea 3c
       -0.027321441 -0.13645826 0.00070598244 0.02862925
0001e0 ae b6 99 3c fa d3 c5 3c ab eb 9b 3d 5a 9a a7 bd
       0.018763866 0.02414893 0.076133095 -0.08183737
0001f0 85 2f 15 bc fb 36 bb bc f2 be 11 be 16 2f 58 3d
       -0.009105568 -0.022853365 -0.14232996 0.05277928
000200 12 92 a7 bd 8e ee 03 be d0 e4 22 be 67 35 66 bd
       -0.081821576 -0.1288397 -0.15907598 -0.056203272
000210 40 27 e9 bd 79 bc 9d 3d b6 92 1f be 2e 81 33 3e
       -0.113844395 0.07701964 -0.1558331 0.17529747
000220 40 db 56 bd 49 1b 0c be 32 3a 76 be 4c 96 ec bd
       -0.052455187 -0.13682283 -0.24045637 -0.11552104
000230 da b5 c1 3c b2 56 f2 bd fd ed 1d 3d 48 ea f3 bd
       0.023646284 -0.11832942 0.03855704 -0.1190992
000240 50 52 a1 be 4d c4 b4 3c 01 b9 4a 3c f3 54 1c 3d
       -0.31508112 0.02206626 0.01237321 0.03816695
000250 68 8a 82 3c d0 08 94 3d 7f c2 01 bd c5 75 f1 bb
       0.015935138 0.07228243 -0.031679627 -0.0073687756
000260 e9 61 0a be a0 d4 9a bd 2d a6 31 bd 39 6b 2d bc
       -0.13513912 -0.07560086 -0.04337137 -0.010584646
000270 d9 da 2e be d5 ac 88 bd 8c dd a5 3d 8d a1 3e bd
       -0.17075671 -0.0667359 0.08098897 -0.046540786
000280 2c 7a 9b bd a0 8e e8 3d 68 e2 3a 3e c1 49 a3 3c
       -0.07591662 0.113553286 0.1825043 0.01993263
000290 28 44 0f 3d e0 95 23 3d 0a 83 e5 bc d9 74 6a bc
       0.03497711 0.039937854 -0.028016586 -0.014310085
0002a0 ac dd 30 3e 9d 3e 13 3c c3 3b a8 3d 0b 4c 9f 39
       0.17272061 0.008987096 0.08214524 0.000303835
0002b0 4a cf 53 3d 2a 7e 80 3d 7d de 8d bd 6e 0d 38 3c
       0.051711358 0.06274064 -0.06927202 0.011233671
0002c0 10 b6 c6 bd 64 f5 01 be 66 99 94 3c 88 09 b8 be
       -0.097026944 -0.12691265 0.018139552 -0.35944772
0002d0 a8 cf f9 3c 76 30 87 bc 85 f0 d5 3d 53 7e d9 3d
       0.030494526 -0.0165026 0.10446266 0.106197976
0002e0 98 bb cb 3d 81 8f e7 bd 10 e8 19 3c e4 90 7d be
       0.0994789 -0.11306668 0.009393707 -0.24762303
0002f0 c9 6c b8 3d ca f0 05 bd 7a 14 d6 3c 0f b0 00 3e
       0.09005124 -0.032700337 0.02613281 0.12567161
000300 02 3c bd bd d8 15 83 3b e4 f0 1a be ef ad 58 3d
       -0.09239961 0.0040004067 -0.15130955 0.05290025
000310 7d 1f ad bd 84 01 18 bd c6 01 db 3d 5a 73 6b bc
       -0.084532715 -0.03711082 0.10693698 -0.014370764
000320 2b e6 af bd 14 cd c0 3d 18 72 89 3d 80 82 a8 bd
       -0.08588823 0.094141155 0.06711215 -0.08228016
000330 09 bf 1c bc ca 23 c4 3d 83 31 25 3e c6 e4 90 bc
       -0.009567031 0.09577139 0.16132168 -0.017687213
000340 70 fd da 3b 94 13 0e bc 7d c8 9a bd bd d9 6d 3d
       0.006683044 -0.00867166 -0.07557771 0.05806898
000350 96 e7 4c 3d 5d 12 9b bd 01 80 11 be 0a 6c 01 bc
       0.050025545 -0.07571862 -0.14208986 -0.007899294
000360 e4 d6 d5 3d 19 2e 3f bd 70 ab 0b be 86 34 19 be
       0.10441378 -0.04667482 -0.13639617 -0.14961442
000370 88 32 1d be 63 e4 54 bd e2 5a 05 3d b3 72 62 bd
       -0.15351307 -0.05197562 0.032557376 -0.055285167
000380 69 36 13 be 89 85 c5 bd b1 6f c5 3d 51 37 b0 3d
       -0.14376225 -0.096446104 0.09640444 0.08604301
000390 ed 93 a1 3d f1 94 c2 3c 56 fc b1 3d 48 e7 b5 bd
       0.07889543 0.023752661 0.086907074 -0.08882004
0003a0 b3 8c 19 bd 21 27 b7 3d 96 68 26 be 1d 9e ff 3d
       -0.037487697 0.0894301 -0.16250834 0.124813296
0003b0 3a 13 41 bd cc a0 cd bd d4 f7 08 be b4 c2 75 3d
       -0.047137477 -0.10040435 -0.13375789 0.060000136
0003c0 62 7d 02 be 20 70 f5 bd 23 39 97 bd f0 0a 72 3e
       -0.12743142 -0.11984277 -0.07383945 0.23636985
0003d0 5e 20 b9 be 9a f2 23 bd 18 6d a6 be 5a 3c 85 bd
       -0.36157507 -0.040026285 -0.32505107 -0.06505652
0003e0 9b 5a 1b bc e4 fb 07 3c ab 10 db 3c dc 78 5f be
       -0.009482051 0.0082998015 0.026741346 -0.21823448
0003f0 e2 2c 54 bd ba e2 b5 bc 29 4e 72 3d ad b5 a4 bd
       -0.051800616 -0.022202838 0.05915657 -0.080424644
