Project3_collaboration_and_competition/ddpgCritic1_Model.pth (torch_old, 321965 bytes, 9 tensors)

fcs1.weight f4 [256, 48]
0	0x3db758d8	0.089524925
1	0xbd489ea1	-0.048979405
2	0x3d01a2b9	0.031649325
3	0x3c8cdcf0	0.017195195
4	0x3d484095	0.048889715
5	0xbd34cd2f	-0.04414099
6	0x3d067dd9	0.03283486
7	0x3bc5b960	0.0060340613
8	0x3dc2fe74	0.09521189
9	0xbd56a1e2	-0.052400477
10	0x3cccac3c	0.024984471
11	0xbd0c5502	-0.034260757
12	0xbcf803a9	-0.030275183
13	0xbb43a4f2	-0.0029852954
14	0x39077ee8	0.0001292188
15	0xbc0cead5	-0.00860091
16	0xbca2dfe4	-0.01988215
17	0xbd3ec011	-0.046569888
18	0xbd300af3	-0.042979192
19	0x3d74a3b5	0.059726436
20	0x3c770417	0.015076659
21	0x3d0020d3	0.031281304
22	0x3cc9874c	0.024600647
23	0x3d740574	0.059575513
24	0x3d6e49cf	0.058175858
25	0x3d8c7e53	0.06860032
26	0xbd2fb661	-0.04289854
27	0xbd81a198	-0.0632965
28	0x3cc67a82	0.024228338
29	0xbcd02e06	-0.02541257
30	0x3d1e0e50	0.03858787
31	0xbd1e4c3c	-0.03864692
32	0x3d5d60fb	0.054047566
33	0x3d7ed726	0.0622169
34	0x3d7896fe	0.060690872
35	0x3c586f12	0.013210075
36	0xbd2406d1	-0.040045563
37	0x3d8c719b	0.06857606
38	0x3d88b4b6	0.06675093
39	0xbd066903	-0.03281499
40	0x3cec0ebd	0.028815622
41	0x3bab5960	0.00522916
42	0xbd535ff8	-0.051605195
43	0x3d68b09e	0.05680906
44	0x3d298b97	0.04139289
45	0xbc03928c	-0.008030545
46	0xbc1cac63	-0.009562585
47	0x3db09c00	0.08623505
48	0x3d25edf7	0.040510144
49	0xbb912e5d	-0.0044305758
50	0x3c9acffe	0.018898007
51	0x3cdb8c74	0.026800372
52	0x3d88b7bb	0.06675669
53	0xbd4a05c8	-0.04932192
54	0xbd0e6d42	-0.034772165
55	0xbd912ddc	-0.07088825
56	0x3d9006c4	0.070325404
57	0xbd1bc7c7	-0.03803232
58	0xbc833cca	-0.016020197
59	0x3c8432fe	0.016137596
60	0xbc4a61dd	-0.012352434
61	0x3abaecf5	0.0014261293
62	0xbd288151	-0.04113895
63	0x3c1c1598	0.009526633
64	0xbd1e40a8	-0.03863588
65	0xbc27f7ff	-0.010251998
66	0x3d5aec59	0.053448055
67	0xbc6d035d	-0.014466134
68	0xbd63f9b2	-0.05565805
69	0x3d958ae9	0.07301886
70	0x3c5b5ab4	0.0133883245
71	0xbda24a7b	-0.07924362
72	0x3d67e5fb	0.05661581
73	0x3e2025af	0.15639375
74	0x3d00cdc9	0.031446252
75	0x3c2af772	0.010434972
76	0x3c93d51f	0.01804596
77	0xbdf3f9ec	-0.11912903
78	0x3c12e57f	0.008965849
79	0x3d6fedfc	0.05857657
80	0xbcad6fdb	-0.0211715
81	0x3d9bb528	0.07602912
82	0xbd05981d	-0.03261577
83	0xbd9aae8d	-0.07552824
84	0xbd43514f	-0.047684964
85	0xbd954413	-0.07288375
86	0x3cd53206	0.02602483
87	0xbd624789	-0.055244002
88	0xbda8d371	-0.08243454
89	0x3e2d67bd	0.16934104
90	0x3b4c132d	0.003113936
91	0x3cf7fcc3	0.030271893
92	0x3d0aff4d	0.03393488
93	0x3da3b942	0.079943195
94	0x3be99f56	0.00712959
95	0xbc58e590	-0.013238326
96	0x3d864f6b	0.065581165
97	0xbdcae632	-0.099071875
98	0x3d187e25	0.037229676
99	0x3d8dd96e	0.06926237
100	0xbdbf8c1f	-0.09352898
101	0x3ceacea8	0.028662995
102	0xbd37c3c5	-0.044864435
103	0x3bd2de42	0.0064351866
104	0x3d894649	0.06702859
105	0xbdae7b9e	-0.08519672
106	0x3d76cbcc	0.06025295
107	0x38a3ef5f	7.817032e-05
108	0xbc2826de	-0.010263173
109	0x3d07b0a4	0.033127442
110	0x3b3e4365	0.002903187
111	0xbce79ca1	-0.028272929
112	0x3d70ef85	0.058822174
113	0xbd6a36b0	-0.05718106
114	0x3d333905	0.04375555
115	0x3dd2fa6c	0.103016704
116	0x3d1e27fb	0.038612347
117	0x3d013e51	0.03155357
118	0x3cbae854	0.02281586
119	0x3d2d1be7	0.042262938
120	0x3c2ef1ed	0.010677797
121	0x3d873e07	0.06603628
122	0xb85690e5	-5.115652e-05
123	0xbc3c6f53	-0.011501151
124	0x3de25645	0.11051611
125	0xbd8cdbc3	-0.06877854
126	0xbcf9401f	-0.030426083
127	0xbdba8e32	-0.09109153
128	0x3d79344d	0.060840894
129	0x3d35f5cb	0.04442386
130	0xbcdf895b	-0.027287176
131	0xbc4782bb	-0.012177165
132	0x3cb6b68f	0.022303848
133	0xbcf268b1	-0.029590936
134	0xbcb12360	-0.021623313
135	0xbd56c884	-0.05243732
136	0x3d2a61b3	0.04159708
137	0xbdaf9f42	-0.08575298
138	0xbd2ba2eb	-0.041903418
139	0x3dd086ce	0.10181962
140	0xbcdb6ed3	-0.026786244
141	0x3b8bf0a5	0.0042706304
142	0x3d4268cf	0.047463235
143	0x3d9f20f4	0.07769957
144	0x3db0216c	0.08600125
145	0xbda12cb8	-0.078698575
146	0xb975a4b2	-0.00023426375
147	0xbc01c73f	-0.007921039
148	0xbd88c381	-0.066779144
149	0xbd344bea	-0.04401771
150	0xbc4f9017	-0.012668631
151	0xbc95b4c5	-0.018274674
152	0x3c90c684	0.017672785
153	0xbce31897	-0.027721686
154	0xba72f85b	-0.0009268575
155	0x3bf0a342	0.0073436806
156	0xbc9ba984	-0.01900173
157	0xbd77e62c	-0.060522243
158	0xbd1f6e9e	-0.038923852
159	0xbb496b23	-0.0030734024
160	0x3d453a38	0.048151225
161	0x3d025531	0.031819526
162	0x3d0db0f9	0.034592602
163	0xbc950ab9	-0.01819359
164	0xbd12cf0e	-0.035841994
165	0x3d82a898	0.06379813
166	0xbcc1e4d2	-0.02366868
167	0xbd56a5bf	-0.05240416
168	0x3dd313fb	0.10306545
169	0xbdb77003	-0.089569114
170	0xbc6cbfc4	-0.014450017
171	0x3ceea5e0	0.02913183
172	0x3dc34479	0.095345445
173	0xbe0c4bc0	-0.13700771
174	0x3cb3255e	0.021868404
175	0x3ad60cf3	0.0016330763
176	0x3cadd69e	0.021220502
177	0xbde1f2bb	-0.11032625
178	0xb9e28263	-0.00043203225
179	0xbd069958	-0.032861084
180	0x3cef4bc6	0.029210936
181	0xbd9abf1f	-0.07555985
182	0xbcb2fa1d	-0.021847779
183	0xbc154a81	-0.009112001
184	0xbc8701e7	-0.0164804
185	0xbe047901	-0.12936784
186	0xbc5cf941	-0.013487161
187	0xbd6a69f0	-0.057229936
188	0x3dd43b07	0.10362821
189	0xbd3c2e3a	-0.045942523
190	0x3c6215bc	0.013799127
191	0x3cc512c4	0.0240568
192	0x3d35f8be	0.044426672
193	0x3d3a160d	0.045431186
194	0x3ccd44df	0.025057254
195	0x3d8d8a7a	0.06911178
196	0xbc64045c	-0.013917055
197	0xbcc54220	-0.024079382
198	0x3d5439fb	0.051813107
199	0x3ddd9ceb	0.10820945
200	0x3d201d3f	0.03909039
201	0x3ce95a1a	0.028485347
202	0x3c99d066	0.01877613
203	0xbcf40070	-0.029785365
204	0xbd2d2b29	-0.04227749
205	0xbd1890c4	-0.037247434
206	0x3c2b8bca	0.01047034
207	0xbd0f3a62	-0.034967788
208	0x3c46c474	0.012131799
209	0x3d568f59	0.0523828
210	0xbce2cede	-0.027686533
211	0xbda77928	-0.081774056
212	0x38f85d81	0.00011842978
213	0xbd17fe90	-0.037108004
214	0x3d8fc264	0.07019499
215	0xbd93b5e9	-0.07212431
216	0x3d3371a1	0.043809537
217	0xbd438863	-0.04773749
218	0xbd834a86	-0.064106986
219	0xbd90208e	-0.07037459
220	0xbc871623	-0.016490048
221	0xbddf20e9	-0.10894949
222	0x3c8ef7cb	0.017452141
223	0x3b986c07	0.0046515497
224	0x3d9ac162	0.07556416
225	0x3c6e8286	0.014557486
226	0x3b66293a	0.0035119788
227	0x3bdc7eaf	0.006728969
228	0x3c8eaef6	0.017417412
229	0xbd294c7b	-0.041332703
230	0xbd2c801b	-0.04211436
231	0xbc2309bc	-0.009951051
232	0x3cf749ac	0.030186497
233	0x3d359571	0.04433197
234	0xbcf0e633	-0.029406643
235	0x3d6c57dd	0.05770098
236	0xbc866109	-0.016403692
237	0xbdad1ee8	-0.084531605
238	0x3c79177f	0.015203356
239	0x3d439bd2	0.047756024
240	0xbab0c117	-0.001348528
241	0xbe2c64a1	-0.16835262
242	0x3ccf072e	0.025271978
243	0xbd64fbe3	-0.05590428
244	0xba5952b5	-0.00082902174
245	0xbc1faa23	-0.009745154
246	0xbc71076f	-0.014711245
247	0x3ca327be	0.019916411
248	0xbc64ccab	-0.013964812
249	0xbdb8624f	-0.09003126
250	0xbd04383f	-0.032280203
251	0xbc9b0aa5	-0.018925974
252	0xbd01b90d	-0.03167062
253	0xbda6d62f	-0.08146321
254	0x3d675f8b	0.0564876
255	0x3c7044fc	0.014664885

fcs1.bias f4 [256]
0	0x3cc47071	0.023979397
1	0xb891fdcf	-6.961414e-05
2	0xbc62f3ea	-0.013852099
3	0xbe0a0fb7	-0.13482557
4	0xbd63e479	-0.05563781
5	0x3c8c28f1	0.017109366
6	0xbdaf18a7	-0.08549624
7	0x3e0b91e2	0.13629869
8	0xbd6db90a	-0.058037795
9	0xbda914b8	-0.08255905
10	0xbdeaa0fe	-0.11456488
11	0xbbc250c6	-0.005930039
12	0x3e055df7	0.13024126
13	0x3e096ad1	0.13419653
14	0xbe16f28e	-0.14740965
15	0xbcd497e5	-0.025951335
16	0xbd508d84	-0.05091621
17	0xbc99fe13	-0.01879791
18	0xbdfe50bb	-0.12417742
19	0x3e0fa3d5	0.1402734
20	0x3dd96177	0.10614293
21	0xbdc60b55	-0.0967013
22	0x3d0960d7	0.03353962
23	0xbcc5224d	-0.024064207
24	0x3dc62ed8	0.096769035
25	0xbc9031a7	-0.017601801
26	0xbb03aea8	-0.0020093117
27	0xbc8d425f	-0.017243562
28	0xbd8a2569	-0.06745417
29	0xbe288c89	-0.1645986
30	0xbe4f878d	-0.20266552
31	0x3dea64cf	0.11445009
32	0x3e0d6fe0	0.13812208
33	0x3dfebe91	0.124386914
34	0x3cdd52f4	0.027017094
35	0xbd0d36db	-0.034476142
36	0xbdb89add	-0.09013913
37	0xbc289f11	-0.010291831
38	0xbdf2ee2e	-0.118618354
39	0xbca75663	-0.020426935
40	0x3dc31fb6	0.09527533
41	0xbca2f91e	-0.019894179
42	0xbcc6c4e9	-0.024263816
43	0xba865321	-0.0010248163
44	0xbddc76d8	-0.10764855
45	0xbda09b62	-0.07842137
46	0xbc7c4bd0	-0.0153989345
47	0xbe0c4d10	-0.13701272
48	0x3dd77bdc	0.10521671
49	0x3d8e3959	0.06944532
50	0xbe10a92d	-0.14127035
51	0x3c24c104	0.010055784
52	0xbd2832c2	-0.04106403
53	0xbc267f71	-0.01016222
54	0xbde374ef	-0.11106288
55	0xbd2f6636	-0.042822085
56	0xbc34d61d	-0.011037377
57	0x3d569a9b	0.052393537
58	0x3d5cff9d	0.05395471
59	0x3d5884e5	0.052861113
60	0x3d183bbd	0.037166346
61	0xbcefdf8e	-0.029281404
62	0xbdee236e	-0.116278514
63	0xbd751dd0	-0.059842885
64	0x3d7f4d27	0.062329438
65	0x3ca33c97	0.019926352
66	0xbdfc271f	-0.12312149
67	0x3c930841	0.017948272
68	0xbe4bb4d7	-0.19893204
69	0x3cd310ed	0.025764907
70	0x3c849fbd	0.01618945
71	0xbdbb5070	-0.091462016
72	0xbd806c41	-0.06270648
73	0x3e0b877c	0.13625902
74	0x3d9914dd	0.074746825
75	0x3de8e17f	0.11371135
76	0xbd97a1a6	-0.07403879
77	0x3c20dd0f	0.0098183295
78	0xbe107c9a	-0.14110032
79	0xbe0c863e	-0.13723084
80	0x3c0eabb0	0.008707926
81	0x3dcab628	0.09898025
82	0x3c293742	0.010328116
83	0xbd5fb5e1	-0.054616813
84	0x3da9e9fd	0.08296583
85	0xbe0493a3	-0.12946944
86	0xbe17c4d1	-0.14821173
87	0x3d581c72	0.052761503
88	0x3d1c1b78	0.038112134
89	0x3dcb7775	0.09934894
90	0xbe4f1d99	-0.20226134
91	0xbd936522	-0.07197024
92	0x3e0d1cd6	0.13780531
93	0x3d1a47aa	0.037666
94	0xbd6d3044	-0.057907358
95	0xbda63913	-0.08116355
96	0x3df57e37	0.11986964
97	0x3dc2ac70	0.09505546
98	0x3db77398	0.08957595
99	0x3d03c482	0.032169826
100	0xbde19f6f	-0.11016738
101	0xbe3e98af	-0.18612932
102	0x3dcab891	0.098984845
103	0xbd421910	-0.047387183
104	0xbcccc600	-0.024996758
105	0x3d1abebf	0.037779566
106	0xbd9629ac	-0.07332167
107	0xbdcefe02	-0.10107042
108	0x3dbee7ae	0.09321533
109	0xbddd4dfe	-0.108058915
110	0xbe30b1b7	-0.17255293
111	0xbd4faba2	-0.05070079
112	0xbba2bee9	-0.004966606
113	0xbdf1d2af	-0.11807763
114	0xbe1971a6	-0.1498476
115	0xbd87d8a6	-0.06633119
116	0xbe19b453	-0.15010194
117	0x3c5c8b92	0.0134610105
118	0xbe104ed7	-0.14092575
119	0xbd7de14d	-0.06198244
120	0xbd9d1cef	-0.07671534
121	0xbe2ae0b3	-0.16687278
122	0xbe03a298	-0.12854993
123	0xbd20d43e	-0.03926491
124	0xbe1185d1	-0.14211203
125	0x3d2cc438	0.042179316
126	0xbe28f865	-0.16501005
127	0x3cb54762	0.022128765
128	0x3e13a676	0.14418969
129	0xbc4851c0	-0.012226522
130	0x3c96686d	0.018360341
131	0xbd7fc5e0	-0.062444568
132	0xbd4bfdfe	-0.049802773
133	0xbd984f22	-0.074369684
134	0x3c9a84fc	0.01886224
135	0x3e007ff0	0.12548804
136	0xbd5323d0	-0.051547825
137	0xbdb84d31	-0.08999098
138	0x3ce468e3	0.027882045
139	0xbdc6cac0	-0.0970664
140	0xbddb1719	-0.10697765
141	0xbe789f85	-0.24279602
142	0xbe0bebe5	-0.13664205
143	0xbdccf5f7	-0.100078516
144	0x3dbf6e56	0.09347217
145	0x3d975ad5	0.07390372
146	0x3bff100d	0.007783896
147	0x3e20e62a	0.157128
148	0x3c91e169	0.01780768
149	0xbd89bd9f	-0.067256205
150	0x3cd99807	0.02656175
151	0xbda2b509	-0.07944686
152	0x3cd902ce	0.026490595
153	0x3b96aadb	0.0045980043
154	0x3d0b0c21	0.033947114
155	0xbe1f5ac1	-0.15561964
156	0xbc8e9377	-0.017404301
157	0x3d782895	0.060585577
158	0x3d983be6	0.074333
159	0x3d740c27	0.059581902
160	0xbd9135c2	-0.070903316
161	0x3d771452	0.060322113
162	0xbd95fefa	-0.073240235
163	0xbdb4fc3a	-0.08837171
164	0xbe4177db	-0.18893377
165	0x3cd484f3	0.025942301
166	0xbe3e43a0	-0.18580484
167	0x3cd720ff	0.026260851
168	0xbb84145e	-0.0040307483
169	0xbd3dd234	-0.046343043
170	0x3df8d3fd	0.121498086
171	0x3ccf8681	0.025332691
172	0xbd6869cf	-0.056741532
173	0x3d1b4d41	0.037915472
174	0x3d493144	0.04911925
175	0xbc487d07	-0.01223684
176	0x3e242466	0.1602951
177	0xbe0a277f	-0.13491629
178	0x3dab4697	0.08363073
179	0xbd7dedf2	-0.0619945
180	0xbd77360b	-0.060354274
181	0x3d326d30	0.04356116
182	0x3d403225	0.04692282
183	0xbdb3b6ac	-0.08775076
184	0xbdc5c6a2	-0.09657027
185	0xbddfd9b9	-0.10930199
186	0x3e10c126	0.1413618
187	0x3dceff0b	0.10107239
188	0xbd18f44d	-0.03734236
189	0x3d42e9b2	0.04758615
190	0x3dbf8356	0.09351222
191	0x3d4a1fcc	0.04934673
192	0xbd533a68	-0.051569372
193	0x3e17fbaf	0.14842103
194	0xbd4d60f0	-0.050141275
195	0x3ca5d70d	0.020244146
196	0xbddb364e	-0.10703717
197	0xbe378c51	-0.1792462
198	0xbdb908ba	-0.090348676
199	0xbdb8ff14	-0.09033027
200	0x3c538b18	0.0129115805
201	0x3dd3738d	0.10324774
202	0xbce66a9a	-0.028127003
203	0xbe3c213c	-0.18372053
204	0x3d7b8d0e	0.061413817
205	0x3e05a6ce	0.13051912
206	0xbd212a1a	-0.03934679
207	0xbe445297	-0.1917213
208	0xbd9108d4	-0.07081762
209	0x3e0c96de	0.13729426
210	0xbe01753c	-0.12642378
211	0xbdef5993	-0.11687007
212	0x3dd5a8c4	0.1043258
213	0x3df0559f	0.11735081
214	0x3ca5b402	0.020227436
215	0x3d89a467	0.067208104
216	0xbe144a74	-0.14481527
217	0x3d659421	0.05604947
218	0xbdf3be95	-0.11901585
219	0xbd1c826a	-0.03821031
220	0x3d5710dc	0.052506313
221	0xbe2cfc0e	-0.16893026
222	0xbe15e156	-0.1463674
223	0x3c9e3987	0.01931454
224	0x3e1a4b49	0.15067782
225	0xbda945c9	-0.082652636
226	0xbdcb9dd6	-0.09942214
227	0x3d2c207a	0.04202316
228	0x3e069657	0.13143288
229	0xbd8cd4df	-0.068765394
230	0xbe152eed	-0.14568682
231	0x3da31b24	0.07964161
232	0x3d158f4a	0.036513604
233	0xbe2ad3d1	-0.16682364
234	0xbc8a98d3	-0.016918575
235	0x3d071014	0.032974318
236	0x3cefe5ea	0.029284436
237	0x3dee0933	0.11622848
238	0x3de4bd96	0.11168973
239	0xbcca57a5	-0.024699995
240	0x3db09028	0.086212456
241	0xbe27142c	-0.16316289
242	0x3d292756	0.04129728
243	0xbcf3e625	-0.029772827
244	0xbde5144f	-0.11185514
245	0xbd5ad9d3	-0.05343039
246	0xbda08f1e	-0.078397974
247	0xbe0a17f3	-0.13485698
248	0xbc9aa498	-0.018877313
249	0x3e37b5cf	0.17940448
250	0xbe4136e5	-0.18868597
251	0xbcc0d567	-0.023539258
252	0xbd51b95f	-0.051202174
253	0xbd9ae863	-0.075638555
254	0x3d89e7b8	0.0673365
255	0xbe0db3bd	-0.13838096

bn1.weight f4 [256]
0	0x3f46ff95	0.7773374
1	0x3dec0335	0.11524049
2	0x3ec6b9bf	0.38813588
3	0x3e4dcfd8	0.20098817
4	0x3e818a5f	0.2530088
5	0x3f3da52d	0.74080163
6	0x3ec773c4	0.3895551
7	0x3f241567	0.6409516
8	0x3e97fff0	0.29687452
9	0x3ef78ba1	0.48348716
10	0x3e3b9274	0.18317586
11	0x3f4bf361	0.7966824
12	0x3cd692b4	0.026193
13	0x3ed26440	0.4109211
14	0x3f4d8790	0.80284977
15	0x3dfa48bb	0.122209035
16	0x3ecd615e	0.40113348
17	0x3f089326	0.5334953
18	0x3f56039f	0.83599275
19	0x3ecd09e9	0.40046623
20	0x3df0c76c	0.11756787
21	0x3e1132a5	0.14179476
22	0x3f179d5c	0.59224486
23	0x3f66ed92	0.90206254
24	0x3d5371ae	0.051622085
25	0x3df726a8	0.1206792
26	0x3e1fa38d	0.15589733
27	0x3dc56c22	0.09639765
28	0x3ee8f02e	0.45495743
29	0x3f34f574	0.7068703
30	0x3e37bac4	0.17942339
31	0x3eae0dd8	0.33994937
32	0x3f0e6ea0	0.5563755
33	0x3f0ed3ac	0.55791736
34	0x3f300057	0.6875052
35	0x3ee2e685	0.44316497
36	0x3ea2babc	0.31783092
37	0x3e4df65f	0.20113514
38	0x3ddd92b5	0.10818998
39	0x3eea4a86	0.45759982
40	0x3f10b25a	0.5652214
41	0x3f004610	0.50106907
42	0x3f523a02	0.8211976
43	0x3f4d7774	0.80260396
44	0x3f163da5	0.5868781
45	0x3e91671b	0.28398976
46	0x3f2bffb3	0.6718704
47	0x3f23941b	0.63897866
48	0x3ec7621c	0.3894204
49	0x3db7b0e2	0.089692846
50	0x3cb8f88b	0.022579452
51	0x3f6586c3	0.89658755
52	0x3e8551af	0.26038882
53	0x3f5e8aea	0.86930716
54	0x3de594dc	0.11210033
55	0x3e59cc82	0.2126942
56	0x3ed3d761	0.4137526
57	0x3f7302ff	0.94926447
58	0x3f044ad9	0.5167671
59	0x3e83e207	0.25758383
60	0x3f42bb08	0.7606664
61	0x3f293333	0.6609375
62	0x3e92209f	0.28540513
63	0x3f6ee0b8	0.93311644
64	0x3f4fc30f	0.8115701
65	0x3ec93488	0.3929789
66	0x3ee68793	0.4502531
67	0x3f2798be	0.6546744
68	0x3f0877c1	0.5330773
69	0x3eb24ce6	0.34824294
70	0x3f3f304e	0.7468308
71	0x3f646cd4	0.8922856
72	0x3ec7b50c	0.39005315
73	0x3f1b29e8	0.6061082
74	0x3e878a84	0.26472867
75	0x3de61aab	0.11235555
76	0x3edb58c7	0.4284117
77	0x3f1f0e13	0.6213085
78	0x3f0a17b7	0.53942436
79	0x3da53ace	0.08067857
80	0x3db6c847	0.089249186
81	0x3ed9bb08	0.42525506
82	0x3f05dfd1	0.5229464
83	0x3d94338f	0.072363965
84	0x3e2ff633	0.17183761
85	0x3e3c57e7	0.18392907
86	0x3e5b8006	0.21435556
87	0x3f59a688	0.8501973
88	0x3f541fdc	0.82861114
89	0x3f49c380	0.78813934
90	0x3f683f75	0.9072183
91	0x3f28b23d	0.6589697
92	0x3eb0c13b	0.34522423
93	0x3d46c9f5	0.048532445
94	0x3e215bdd	0.157577
95	0x3d691210	0.05690199
96	0x3f311dee	0.69186294
97	0x3e60e677	0.21962915
98	0x3f31e244	0.6948588
99	0x3ea5d22f	0.3238692
100	0x3e6017d4	0.2188409
101	0x3f0316ed	0.51206857
102	0x3e959d0f	0.2922139
103	0x3ee6f9b9	0.45112398
104	0x3f06d949	0.526753
105	0x3e14290d	0.14468785
106	0x3da4a9f6	0.0804023
107	0x3f442e66	0.766333
108	0x3f072a97	0.5279936
109	0x3f028876	0.5098947
110	0x3f394302	0.7236787
111	0x3eaa7c99	0.33298185
112	0x3f19b68b	0.60044163
113	0x3e4297aa	0.19003168
114	0x3e3563a9	0.17713799
115	0x3f1b25d4	0.60604596
116	0x3effd170	0.49964476
117	0x3eb920ef	0.3615794
118	0x3f06f7e2	0.5272199
119	0x3f195e15	0.5990918
120	0x3f4908ef	0.78529257
121	0x3f4e04a0	0.8047581
122	0x3e5e335b	0.21699278
123	0x3e643226	0.22284755
124	0x3e9600f0	0.2929759
125	0x3e9f09a5	0.31062046
126	0x3eb6efb5	0.35729757
127	0x3f1136c5	0.56724197
128	0x3f34b439	0.705875
129	0x3e199a43	0.15000252
130	0x3f4bf172	0.7966529
131	0x3f4a6685	0.7906268
132	0x3f4d46f4	0.8018639
133	0x3f32170f	0.69566435
134	0x3f17f114	0.5935223
135	0x3d74a7ea	0.059730448
136	0x3f39fa51	0.7264758
137	0x3d1518dd	0.036400665
138	0x3ed70c4b	0.42001566
139	0x3f684704	0.9073336
140	0x3f1159fc	0.5677793
141	0x3efa90ba	0.48938543
142	0x3e232051	0.15930296
143	0x3e34d8bf	0.17660807
144	0x3ee8fd26	0.45505637
145	0x3f1c1433	0.6096832
146	0x3e4442e5	0.19166143
147	0x3ef02af7	0.4690778
148	0x3ede522d	0.4342207
149	0x3eab790e	0.33490795
150	0x3f01669a	0.5054718
151	0x3de24f1a	0.11050244
152	0x3f5f967b	0.8733899
153	0x3e47630e	0.1947138
154	0x3f480968	0.7813935
155	0x3f34b456	0.7058767
156	0x3f462b0c	0.77409434
157	0x3e26de24	0.16295677
158	0x3f28541a	0.6575333
159	0x3ef517aa	0.47869617
160	0x3d5b2351	0.053500477
161	0x3f51071a	0.8165146
162	0x3f601542	0.87532437
163	0x3f305950	0.6888628
164	0x3e7106f3	0.23537807
165	0x3e9cbf68	0.3061478
166	0x3efeea94	0.49788344
167	0x3f5904cb	0.8477294
168	0x3deb3834	0.11485329
169	0x3e15dae7	0.14634286
170	0x3f59dbce	0.8510102
171	0x3efda640	0.495409
172	0x3eaf2582	0.34208304
173	0x3e1e9cf2	0.15489557
174	0x3eb0ca60	0.345294
175	0x3f3167c1	0.6929894
176	0x3f3bcf3d	0.73363096
177	0x3ee33984	0.44379818
178	0x3ea1858d	0.31547204
179	0x3f0dc9fc	0.5538633
180	0x3f337c86	0.7011188
181	0x3e51a67c	0.20473665
182	0x3f04eb0b	0.5192115
183	0x3f277c61	0.6542416
184	0x3ed88a90	0.42293215
185	0x3d9776a1	0.073956735
186	0x3e28e2e1	0.16492797
187	0x3d97105e	0.07376169
188	0x3efa58b7	0.4889581
189	0x3f435ef2	0.7631675
190	0x3eca32bf	0.3949184
191	0x3f4929d3	0.78579444
192	0x3e4c1fa1	0.1993394
193	0x3f5c82db	0.8613717
194	0x3eabd0ae	0.33557647
195	0x3e14eb5c	0.14542907
196	0x3f5dd8be	0.8665885
197	0x3ea55295	0.32289568
198	0x3f112f3f	0.56712717
199	0x3f1193ae	0.56865966
200	0x3eac2b4c	0.33626783
201	0x3ed0ccf1	0.40781358
202	0x3f38f1f4	0.7224419
203	0x3f55199d	0.8324221
204	0x3e4a025b	0.19727461
205	0x3ed57408	0.41690087
206	0x3ecdcf40	0.40197182
207	0x3f122800	0.57092285
208	0x3f33a460	0.7017269
209	0x3f3f1e2a	0.746554
210	0x3eaae24e	0.33375782
211	0x3e7d54ac	0.24739331
212	0x3f2a6e83	0.6657488
213	0x3e141fce	0.14465258
214	0xbaa4e55e	-0.0012580564
215	0x3ed0eb3e	0.40804476
216	0x3e370aea	0.17875257
217	0x3e6a654d	0.22890206
218	0x3f148fb6	0.58031785
219	0x3f11b529	0.56917053
220	0x3f5ee74a	0.8707167
221	0x3f00e759	0.5035301
222	0x3f19c59a	0.6006714
223	0x3f331ad9	0.6996284
224	0x3f27c0c6	0.65528524
225	0x3de3278a	0.11091526
226	0x3f39bf21	0.72557265
227	0x3f2dd51d	0.6790331
228	0x3f552d4a	0.8327223
229	0x3f3d305a	0.73901904
230	0x3ed145a4	0.40873444
231	0x3f0f1cc6	0.5590328
232	0x3f089640	0.53354263
233	0x3d8ba3b6	0.06818335
234	0x3e8a990f	0.270699
235	0x3dc7da45	0.097584285
236	0x3f0543b4	0.5205643
237	0x3ee87abb	0.45406136
238	0x3f2e74a1	0.6814671
239	0x3e04cb12	0.1296809
240	0x3f50ac0b	0.81512517
241	0x3f2b4beb	0.66912717
242	0x3e9adfb8	0.3024881
243	0x3d5843cc	0.05279903
244	0x3ee16802	0.44024664
245	0x3e946c26	0.2898876
246	0x3e7ef20d	0.24897023
247	0x3e76539c	0.24055332
248	0x3edc8aa5	0.43074527
249	0x3e7f6f51	0.24944808
250	0x3ef64aa1	0.48103812
251	0x3e19664d	0.14980431
252	0x3f1cad63	0.6120207
253	0x3e7f91ea	0.24958006
254	0x3e29a7a6	0.16567859
255	0x3eb9316f	0.36170527

bn1.bias f4 [256]
0	0xbb4802ee	-0.0030519324
1	0x3dc1e169	0.09466822
2	0x3b93f595	0.0045153596
3	0xbc913c1a	-0.017728854
4	0x3d9d2b5b	0.07674285
5	0x3ae3c164	0.001737636
6	0xbba7ae7e	-0.0051172366
7	0x3ddd1c7f	0.10796451
8	0x3b93f352	0.00451509
9	0xbd0e8474	-0.034794286
10	0x3e1e3f70	0.15453887
11	0xbd24635d	-0.040133823
12	0xbde19792	-0.11015238
13	0x3d328ef7	0.043593373
14	0x3d81c9ea	0.0633734
15	0xbc72dfb7	-0.014823846
16	0xbd32c7c5	-0.043647546
17	0x3e5095a5	0.20369585
18	0x3d6a6ff4	0.057235673
19	0xbd2be03b	-0.04196189
20	0x3e0fb28d	0.14032955
21	0xbcb2e6a7	-0.0218385
22	0x3d9b657b	0.07587715
23	0x3d439234	0.047746852
24	0xbe1badf4	-0.15203077
25	0xbd205ed8	-0.03915295
26	0x3d880dbb	0.06643244
27	0x3df72867	0.12068253
28	0x3ca005de	0.019534048
29	0x3cfd09c6	0.03088845
30	0x3ca56852	0.020191345
31	0xbcb15343	-0.021646148
32	0x3e08d441	0.13362218
33	0xbd14602c	-0.03622453
34	0x3d6a097a	0.057137944
35	0x3c87c507	0.016573442
36	0x3d8bbc81	0.06823064
37	0xbd59ef00	-0.053206444
38	0x3d994d96	0.074855015
39	0xbc0daa32	-0.008646535
40	0xbdb41b4a	-0.087942675
41	0xbd1c9520	-0.038228154
42	0x3d5a990d	0.053368617
43	0xbd4b5c9a	-0.04964886
44	0x3c4b0b7d	0.012392876
45	0x3d089fd3	0.033355545
46	0x3dba311b	0.090913974
47	0x3db355b7	0.08756583
48	0xbd43f4b5	-0.047840793
49	0xbe1ad8a5	-0.15121706
50	0xbddf1889	-0.108933516
51	0xbd80a3df	-0.06281256
52	0x3d01ec4a	0.031719483
53	0x3d81d254	0.06338945
54	0xbdaa532b	-0.08316644
55	0xbd8f8b9c	-0.0700905
56	0xbd07fb98	-0.033198923
57	0x3d8144df	0.06311964
58	0xbdfe1c88	-0.12407786
59	0x3d62b182	0.055345066
60	0xbd4468f0	-0.04795164
61	0x3d2e3c26	0.04253783
62	0x3d40d618	0.047079176
63	0x3b6d9947	0.003625469
64	0x3d89dddb	0.06731769
65	0x3e0c1b90	0.1368239
66	0x3e3c9e8e	0.18419859
67	0x3de8581f	0.11344933
68	0xbd7710a6	-0.06031861
69	0x3d832dae	0.06405197
70	0x3c8b27cf	0.016986756
71	0x3d8149ee	0.06312929
72	0x3d3463a8	0.044040352
73	0xbc1587f3	-0.009126651
74	0x3daec8fa	0.08534427
75	0x3daa07ae	0.08302246
76	0x3cbb5ec6	0.02287234
77	0x3dbe45cc	0.092906564
78	0x3cacba3c	0.021084897
79	0x3da8ca83	0.08241751
80	0xbd4a7cde	-0.04943549
81	0x3e339c3c	0.17540067
82	0x3c1d22ca	0.009590814
83	0x3e0f2ac4	0.13981158
84	0x3cc2dff4	0.02378843
85	0xbdb4be2a	-0.088253334
86	0xbd7418df	-0.05959403
87	0x3ddbaa53	0.10725846
88	0x3ca63ae9	0.020291762
89	0x3d44b664	0.048025504
90	0xbc189dc0	-0.009314954
91	0x3d883518	0.06650752
92	0x3ce2519e	0.027626809
93	0xbde0cc3d	-0.10976455
94	0x3d6923c5	0.056918878
95	0xbd5bed50	-0.053693116
96	0x3d80a255	0.062809624
97	0x3d4001f9	0.04687688
98	0x3cc11417	0.02356915
99	0xbd7f350c	-0.06230645
100	0x3d8777f4	0.06614676
101	0xbc871622	-0.016490046
102	0x3ccf3baf	0.025297014
103	0x3c5719ed	0.01312874
104	0x3c62e5e1	0.013848753
105	0x3d8753ec	0.06607804
106	0xbd9dd868	-0.07707292
107	0xbc0782e4	-0.008270953
108	0x3bf654d1	0.007517435
109	0x3d6b81ce	0.05749684
110	0xbd1dd333	-0.038531493
111	0x3ca0a6b7	0.019610746
112	0xbd7d0944	-0.061776415
113	0x3bfb91b7	0.0076772827
114	0xbd4cc39c	-0.049991235
115	0xbdbf2527	-0.09333258
116	0xbd39b308	-0.045336753
117	0x3b276432	0.0025541899
118	0x3d099437	0.033588614
119	0xbc821e64	-0.015883632
120	0x3d7448e9	0.059639845
121	0xbde9330e	-0.11386691
122	0x3d5ed822	0.05440534
123	0xbd5a4fef	-0.053298887
124	0xbdf7a9d6	-0.120929405
125	0xbd9e501e	-0.07730125
126	0x3d2b7674	0.041861013
127	0x3d9cbc8d	0.07653151
128	0x3d162d44	0.036664262
129	0xbd46d693	-0.048544478
130	0xbdd48397	-0.10376661
131	0xbd8dff26	-0.06933431
132	0x3d4bbed6	0.049742542
133	0x3e0d09a9	0.13773216
134	0x3d971ab5	0.07378141
135	0x3e6f7724	0.23385292
136	0x3b98725c	0.0046523046
137	0x3e4971f7	0.1967238
138	0x3dd2aacf	0.102864854
139	0x3e03aea2	0.12859586
140	0x3d7a0905	0.061043758
141	0x3d9a9e7e	0.07549761
142	0x3d01aba4	0.03165783
143	0x3dc9dd9f	0.09856724
144	0xbc290f6b	-0.010318617
145	0x3cfa88cb	0.030582806
146	0xbd6b0aad	-0.057383228
147	0x3d21db14	0.03951557
148	0xbd4f08cb	-0.050545495
149	0x3d34d3a2	0.04414714
150	0xbd369924	-0.04457964
151	0xbd868ca2	-0.06569792
152	0xbd4a03d1	-0.049320046
153	0xbe0afd84	-0.13573271
154	0xbbaaa16c	-0.0052072313
155	0xbd1d1f52	-0.038359948
156	0x3d87ba2f	0.066273086
157	0xbc8f5cdd	-0.017500335
158	0xbb6ecf02	-0.0036439304
159	0x3d31937c	0.043353543
160	0xbc0248eb	-0.007951955
161	0x3d7333d2	0.05937559
162	0x3c882aad	0.016621912
163	0x3d085d37	0.03329202
164	0x3ce23df7	0.027617438
165	0x3d1287b6	0.035773955
166	0x3d4d1ca4	0.050076142
167	0x3d866dbc	0.06563899
168	0xbdd368e3	-0.1032274
169	0x3ddf0439	0.10889477
170	0xbbfa759e	-0.0076434156
171	0xbd55c517	-0.052189913
172	0x3d0c0e44	0.034193292
173	0x3d4d6dea	0.05015365
174	0x3dc05e57	0.09392994
175	0xbd5cbb5a	-0.05388961
176	0x3c42558f	0.011861219
177	0x3d2885a6	0.041143082
178	0x3e0f8fd5	0.14019711
179	0x3e08bb9b	0.13352816
180	0x3b17cfd9	0.0023164658
181	0x3cebb65b	0.028773477
182	0x3d3949b6	0.04523631
183	0x3c96770a	0.01836731
184	0x3cafd9ef	0.021466224
185	0xbdc0d794	-0.09416118
186	0xbd283f29	-0.04107586
187	0xbd9310cf	-0.0718094
188	0x3bc3a7ef	0.005970947
189	0xbd793826	-0.060844563
190	0x3e2b0c2f	0.16703866
191	0x3e18b6ff	0.14913557
192	0x3ce86eed	0.028373206
193	0x3d301f6e	0.042998724
194	0x3d2fda3f	0.042932745
195	0x3cfe81aa	0.031067688
196	0x3daa5bc5	0.08318285
197	0x3c4a0486	0.01233018
198	0x3d6b5eda	0.057463504
199	0x3db18175	0.0866727
200	0xbd253f12	-0.04034335
201	0x3c18cc3c	0.009326037
202	0x3d62ad8c	0.05534129
203	0x3e165f6e	0.14684841
204	0xbcd1b498	-0.02559881
205	0x3db21838	0.086960256
206	0x3d8e29c5	0.06941561
207	0xbc836ee3	-0.016044086
208	0xbcb94bd2	-0.022619162
209	0xbdd2f3e2	-0.10300423
210	0xbb725c90	-0.003698144
211	0xbb00ebbd	-0.001967176
212	0x3daf5827	0.085617356
213	0x3d5ea99a	0.054360963
214	0xbe256fa5	-0.1615587
215	0x3c4d291b	0.012522007
216	0x3a922309	0.0011149357
217	0x3d5abec5	0.05340459
218	0x3ca46149	0.02006592
219	0xbd8b869d	-0.06812785
220	0x3d0a13fc	0.033710465
221	0x3d26239f	0.040561315
222	0x3db4f6f1	0.08836163
223	0x3c6040d7	0.013687334
224	0xbbc75822	-0.0060835043
225	0xbdc1513e	-0.09439324
226	0xbd94526d	-0.07242284
227	0xbd1fef2c	-0.03904645
228	0x3d66ad2e	0.0563175
229	0x3cf3dea8	0.029769257
230	0x3ca90957	0.020634336
231	0x3d4999e9	0.049219046
232	0xbdc83637	-0.09775966
233	0x3e165443	0.14680581
234	0x3e39e95f	0.1815543
235	0xbdcaa328	-0.09894401
236	0xbddaf0a8	-0.10690433
237	0xbd055b25	-0.032557625
238	0xbc2076a4	-0.009793911
239	0x3dff14e0	0.124551535
240	0xbc9df870	-0.019283503
241	0x3db78849	0.08961541
242	0xbda26d99	-0.0793106
243	0xbe2c5525	-0.16829355
244	0x3dbe5285	0.09293083
245	0x3d270ed9	0.040785644
246	0x3de6e375	0.11273853
247	0x3d6581f6	0.056032144
248	0x3d9141f9	0.070926614
249	0x3d41677f	0.047217842
250	0xbbd8724a	-0.006605421
251	0xbc1bac2b	-0.009501497
252	0xbd0b4102	-0.033997543
253	0x3ccb6a6d	0.024831021
254	0x3dc4d7b7	0.09611457
255	0xbd20d8ec	-0.039269373

bn1.running_mean f4 [256]
0	0x3f16fecf	0.5898256
1	0x3ef6f22b	0.48231634
2	0x3e711960	0.23544836
3	0x3d774e82	0.060377605
4	0x3de619f2	0.112354174
5	0x3f81a38d	1.0128037
6	0x3f9252d6	1.143153
7	0x3ea5e48f	0.3240094
8	0x3ec9dd2c	0.39426553
9	0x3f05af76	0.5222086
10	0x3f8a7cec	1.0819373
11	0x409e5f45	4.9491296
12	0x3f3693ef	0.7131948
13	0x3fa3b451	1.2789403
14	0x3f02c5ed	0.5108326
15	0x3f71193b	0.94179124
16	0x3f5b5479	0.8567577
17	0x3f66ad84	0.90108514
18	0x3fa8e1fd	1.3193966
19	0x3f9465b3	1.1593536
20	0x3ee55230	0.44789267
21	0x3f08a681	0.53379065
22	0x3fa54c8b	1.2913984
23	0x3f42d9c0	0.7611351
24	0x3e8d47dc	0.27593887
25	0x3f013b76	0.50481355
26	0x3e517e11	0.20458247
27	0x3f8ee879	1.1164695
28	0x40913c5c	4.538618
29	0x3f8f76aa	1.1208088
30	0x401cc4f5	2.4495213
31	0x4067b220	3.620247
32	0x3f6d8260	0.9277706
33	0x3fe77833	1.8083557
34	0x3f93c37b	1.1544031
35	0x3e578ef4	0.21050626
36	0x3d92ab41	0.0716157
37	0x3f75db62	0.96037877
38	0x3f3f71bd	0.74782926
39	0x3f62ad5a	0.88545763
40	0x3ed3fd8d	0.4140438
41	0x3ecc1649	0.39860752
42	0x3e827b22	0.25484568
43	0x3f5573c1	0.8337975
44	0x3ed395dd	0.41325274
45	0x40155362	2.3332143
46	0x3ed0bb11	0.4076772
47	0x3e07c724	0.1325956
48	0x3ffe2b5f	1.9856986
49	0x3fa8e694	1.3195367
50	0x3e00812e	0.12549278
51	0x3dc12eb9	0.0943274
52	0x3fe5cd9a	1.795337
53	0x3f26b812	0.6512462
54	0x3e47e745	0.19521816
55	0x3f879dbb	1.059501
56	0x3f95b3a9	1.1695453
57	0x3db8b943	0.09019711
58	0x3ff6ab8b	1.9271101
59	0x3e4d8ccf	0.20073245
60	0x3ee6f116	0.4510581
61	0x404caa23	3.1978843
62	0x3f6c2c13	0.9225475
63	0x4086fd82	4.218446
64	0x3ef50ede	0.47862905
65	0x3faaf6e3	1.3356594
66	0x3fc69507	1.551423
67	0x3f4210bd	0.7580679
68	0x3f26a821	0.65100294
69	0x3f82448a	1.0177166
70	0x3e831709	0.25603512
71	0x3fb79725	1.4343001
72	0x3f19384d	0.59851533
73	0x3fc13f70	1.5097485
74	0x4031fc1a	2.781012
75	0x3f495f40	0.78660965
76	0x3ee3fb83	0.44527826
77	0x3d004d15	0.03132351
78	0x3ed6a608	0.41923547
79	0x3ebd8017	0.37011787
80	0x40057019	2.084967
81	0x3f677de3	0.9042646
82	0x3f54f587	0.83187145
83	0x3ee0665b	0.4382809
84	0x3ed405e5	0.41410747
85	0x3faf945f	1.3717154
86	0x3f1ae8df	0.60511583
87	0x3fe18b44	1.7620625
88	0x3fd34321	1.6504861
89	0x3fe0a320	1.7549782
90	0x3f1613d8	0.5862403
91	0x3fb73016	1.431155
92	0x3dc3fbf2	0.09569539
93	0x3ed68485	0.4189798
94	0x3e31f307	0.17377864
95	0x3f408085	0.75196105
96	0x3f4f1b1e	0.8090075
97	0x3ee64549	0.44974735
98	0x3fc412fc	1.5318294
99	0x3f0f65ff	0.5601501
100	0x3e48c347	0.19605742
101	0x3f23403d	0.63769895
102	0x40031fbf	2.0488126
103	0x3ec7aae7	0.38997576
104	0x3f84bd37	1.0370244
105	0x3ec80b05	0.39070907
106	0x3e7b0c6e	0.2451646
107	0x40510b6b	3.266322
108	0x40153bdc	2.3317785
109	0x402cee17	2.7020319
110	0x3f6e53f9	0.9309688
111	0x3f0947bd	0.5362509
112	0x3eb33a82	0.35005575
113	0x3e208357	0.15675102
114	0x4009a08b	2.1504238
115	0x3f4c1003	0.7971193
116	0x3ee94ee0	0.4556799
117	0x40325d50	2.7869453
118	0x407d7f3d	3.960891
119	0x3f4e716d	0.80641824
120	0x3e7c685e	0.24649188
121	0x4024749d	2.5696175
122	0x3e8da515	0.2766501
123	0x3f7b6627	0.9820275
124	0x3f2748eb	0.6534564
125	0x3f9846a7	1.1896561
126	0x3f788e41	0.9709206
127	0x3ec41554	0.38297522
128	0x3fbf8c1a	1.4964631
129	0x3fafdd48	1.3739405
130	0x4023488b	2.5513027
131	0x3ec8cf02	0.39220434
132	0x3fe66ddf	1.800228
133	0x3ee74597	0.4517028
134	0x3ed7baf6	0.42134827
135	0x40270e79	2.6102583
136	0x3fbeee73	1.4916519
137	0x3f925fcf	1.1435488
138	0x3f7ce647	0.98788875
139	0x3ecd2941	0.40070537
140	0x3ed044bb	0.40677437
141	0x3f8e119d	1.1099125
142	0x3f1776ce	0.59165657
143	0x3e5f9b11	0.21836497
144	0x3f7c2f45	0.9850963
145	0x3f6e1008	0.9299321
146	0x3ef915ca	0.48649436
147	0x3f27bfe9	0.65527207
148	0x3feed826	1.8659713
149	0x3e32419e	0.17407843
150	0x3f00fb47	0.5038342
151	0x4043556b	3.0520885
152	0x40028192	2.0391583
153	0x3f4f06ab	0.8086955
154	0x3f93d250	1.1548557
155	0x3f3cf5a4	0.7381232
156	0x3f3df4fd	0.7420195
157	0x3f83de6f	1.0302256
158	0x3fd382b6	1.6524265
159	0x3fba8ec6	1.4574821
160	0x3f8a1e2e	1.079046
161	0x3f33c384	0.7022021
162	0x3ebc862c	0.36821115
163	0x3edb6be5	0.42855754
164	0x3d49a90a	0.049233474
165	0x3f8e0f08	1.1098337
166	0x3e834290	0.2563672
167	0x3f9f1068	1.2426882
168	0x3f061e3d	0.5238989
169	0x3f8f6ab0	1.1204433
170	0x40493865	3.144067
171	0x3f84e1d2	1.0381415
172	0x3f3a0f8b	0.72679967
173	0x3d8c33ac	0.06845793
174	0x3f19a546	0.6001781
175	0x401986d0	2.3988533
176	0x3ffda000	1.9814453
177	0x3fd9af75	1.700667
178	0x3e4376b6	0.19088253
179	0x401981e3	2.3985527
180	0x3fd3c36c	1.6544013
181	0x3ec9218f	0.39283416
182	0x40188edd	2.3837197
183	0x3fbc72f1	1.4722577
184	0x3ee7ba74	0.4525944
185	0x3f05156b	0.51985806
186	0x3f18d3fc	0.5969846
187	0x3e6d792e	0.23190758
188	0x401dfa3b	2.4683979
189	0x3fef15b5	1.86785
190	0x3f990312	1.1954062
191	0x4038b729	2.8861792
192	0x4027441d	2.6135323
193	0x40766fd3	3.8505752
194	0x3e0dc108	0.13843167
195	0x3fc3c9e4	1.5295987
196	0x3f32d33a	0.69853556
197	0x3fd05a95	1.6277643
198	0x3fa9e7e8	1.3273897
199	0x3f2cd424	0.675112
200	0x400bf131	2.1865962
201	0x3eb8dae0	0.36104488
202	0x3e420e32	0.18950728
203	0x3fac755c	1.3473315
204	0x3fb87d02	1.4413149
205	0x3fdcb2ad	1.7242028
206	0x3f04181d	0.51599294
207	0x3e717b4f	0.23582195
208	0x3f9305c7	1.1486138
209	0x3fbb4c50	1.4632664
210	0x3fa463db	1.2842973
211	0x3e9668b4	0.29376757
212	0x3ed9ad80	0.42515182
213	0x3f1bc6b1	0.60850054
214	0x40584a70	3.3795433
215	0x3e88f042	0.26745802
216	0x3e2313d5	0.15925534
217	0x3d49b8c4	0.04924847
218	0x3dcfcff0	0.10147083
219	0x3fd117b1	1.6335355
220	0x40631525	3.5481656
221	0x3f2856b8	0.6575732
222	0x3e255563	0.16145854
223	0x3fbea8bb	1.4895242
224	0x3ea5e249	0.32399204
225	0x3e28698e	0.16446516
226	0x3f45bb50	0.7723894
227	0x3fd04708	1.6271677
228	0x3edb5d7c	0.4284476
229	0x3f2de401	0.6792603
230	0x3f885256	1.0650127
231	0x408ae57b	4.3405128
232	0x3ea70714	0.32622588
233	0x3f71a627	0.94394153
234	0x3f74080b	0.9532477
235	0x3f801989	1.0007793
236	0x3fd55844	1.6667562
237	0x3efb1fe6	0.49047774
238	0x3f2c8314	0.6738751
239	0x3ee00ad5	0.43758264
240	0x3e90a166	0.28248137
241	0x3ed02d78	0.4065969
242	0x3ea89dfe	0.32933038
243	0x3f56282f	0.83655065
244	0x3e766724	0.24062783
245	0x3fc90e79	1.5707542
246	0x3f0776d4	0.5291569
247	0x3fa05e87	1.2528847
248	0x3f227c6a	0.6347109
249	0x402f612e	2.7403064
250	0x3f922459	1.1417342
251	0x3f6e413e	0.930683
252	0x4068ab87	3.6354692
253	0x4044f073	3.0771759
254	0x3d5045c6	0.05084779
255	0x3f03b429	0.5144678

bn1.running_var f4 [256]
0	0x3fd86cc3	1.6908191
1	0x3f3e7f7f	0.74413294
2	0x3ef5506e	0.47912925
3	0x3d9d370e	0.076765165
4	0x3e468dfc	0.193901
5	0x3fd5c7b1	1.6701566
6	0x40687a16	3.6324515
7	0x3f237067	0.6384339
8	0x3f73a56d	0.95174295
9	0x3fe03733	1.7516845
10	0x403b4c44	2.92653
11	0x40a60491	5.1880574
12	0x401ddf50	2.466755
13	0x4052a6ce	3.291431
14	0x3f82d8f1	1.0222455
15	0x400ba878	2.1821575
16	0x3f176cda	0.5915047
17	0x3fb39346	1.4029319
18	0x401585c2	2.336289
19	0x40365d7d	2.849456
20	0x3f6d7f9a	0.9277283
21	0x3fcdf215	1.6089503
22	0x40012b1f	2.018257
23	0x3ecbf389	0.3983424
24	0x3f4990eb	0.7873675
25	0x3fa1a110	1.2627277
26	0x3ea9537c	0.33071506
27	0x40207813	2.5073287
28	0x40e25c20	7.0737457
29	0x3ff6f198	1.9292479
30	0x412233d2	10.137651
31	0x410782f2	8.469469
32	0x4007c3c1	2.1213229
33	0x40cbf823	6.37404
34	0x3f933ac1	1.1502305
35	0x3efe20e3	0.49634466
36	0x3dce0d09	0.1006108
37	0x4056ddc8	3.3572865
38	0x3f853058	1.0405378
39	0x400ae7bf	2.1703947
40	0x3f12d0a5	0.57349616
41	0x3f0785aa	0.5293833
42	0x3f168e46	0.5881084
43	0x401eca65	2.4811032
44	0x3f39f3b1	0.7263747
45	0x401c9bbc	2.4470053
46	0x3f76df33	0.96434325
47	0x3e46a8d1	0.19400336
48	0x409b7f86	4.859317
49	0x40336e6f	2.8036153
50	0x3ed20024	0.41015732
51	0x3db40bc8	0.087913096
52	0x408d7dc4	4.4216022
53	0x3f8c918d	1.0981919
54	0x3ea5ac4f	0.32358024
55	0x4042f11d	3.0459664
56	0x3fd0a910	1.6301594
57	0x3e169714	0.14706069
58	0x4088d945	4.276522
59	0x3e98a196	0.2981078
60	0x3fa0d8ea	1.2566197
61	0x414bc30c	12.735119
62	0x3f42a137	0.76027244
63	0x3fdfc2f9	1.7481376
64	0x3f59eb1f	0.8512439
65	0x40a639db	5.1945624
66	0x4065eef2	3.592709
67	0x3fdc0b10	1.7190876
68	0x3f6c6840	0.9234657
69	0x404b9025	3.180673
70	0x3e7135b8	0.23555648
71	0x3f8407ed	1.0314919
72	0x3fff8264	1.9961667
73	0x407ee94e	3.9829898
74	0x409073e4	4.514147
75	0x4022b23a	2.542128
76	0x3f81e4d4	1.0147958
77	0x3d2be744	0.0419686
78	0x3fde399f	1.7361335
79	0x3f04d6dd	0.51890355
80	0x4085fd5a	4.1871767
81	0x4080aff0	4.0214767
82	0x3fdb59b1	1.7136747
83	0x3f4501ef	0.76956075
84	0x3fde0ac2	1.7347033
85	0x4011a2b2	2.2755551
86	0x3faf5820	1.3698769
87	0x40663f58	3.5976162
88	0x400218df	2.032768
89	0x40de999c	6.956251
90	0x3f3a8df8	0.7287288
91	0x40332a78	2.799467
92	0x3de4762d	0.11155353
93	0x3f84a8a0	1.036396
94	0x3e9935a5	0.2992374
95	0x4022c16f	2.5430562
96	0x3fd7639a	1.6827271
97	0x3f9f00c1	1.2422105
98	0x3fd3231d	1.6495091
99	0x3fdcd32c	1.7251945
100	0x3ee50a6d	0.44734517
101	0x3f8aee93	1.0854057
102	0x40f147ca	7.5400133
103	0x3eb83b3b	0.3598269
104	0x400ed79c	2.2319098
105	0x3f22379a	0.6336609
106	0x3f157c1b	0.58392495
107	0x40c40d5c	6.126631
108	0x40e2d23d	7.088164
109	0x414726e9	12.447
110	0x403a88f9	2.9146101
111	0x3fc89e09	1.5673229
112	0x3f0fa934	0.5611756
113	0x3e65a44a	0.22425953
114	0x40c7cb1b	6.243543
115	0x3f9e621b	1.237369
116	0x3f6ae779	0.9175945
117	0x40c081ce	6.0158453
118	0x419fdbae	19.982265
119	0x401db425	2.4641201
120	0x3efce07f	0.49390027
121	0x40352ecc	2.8309813
122	0x3f434738	0.76280546
123	0x40164d3f	2.3484647
124	0x40040447	2.062761
125	0x405417b9	3.313948
126	0x400c16e9	2.1888983
127	0x3e86f8f0	0.263618
128	0x40c2c456	6.086467
129	0x405ff801	3.499512
130	0x4126a3ef	10.415023
131	0x3f00c200	0.5029602
132	0x40a9c84b	5.3057
133	0x3f5c797d	0.86122876
134	0x3f443257	0.7663931
135	0x409a64ab	4.8247886
136	0x4092232a	4.5667925
137	0x4020cfd1	2.512684
138	0x40333d75	2.800626
139	0x3f4f0dd4	0.80880475
140	0x3f4547ba	0.7706257
141	0x3fa11fa3	1.258778
142	0x3fc384f3	1.5274948
143	0x3eb6d377	0.3570821
144	0x402552b1	2.583172
145	0x3fb73f06	1.4316108
146	0x3f897e11	1.0741597
147	0x40136221	2.3028643
148	0x409c6032	4.8867426
149	0x3e5616ce	0.20907137
150	0x3f6fc542	0.93660367
151	0x404cda13	3.2008102
152	0x40c3be55	6.116984
153	0x3fad66a2	1.3546946
154	0x40485842	3.1303868
155	0x40008138	2.007887
156	0x3f90c2fe	1.1309507
157	0x3f85be61	1.0448724
158	0x4064e3ee	3.5764117
159	0x406b3de6	3.675653
160	0x4063e9f2	3.561154
161	0x3fa8ddc0	1.3192673
162	0x3f2799cf	0.6546907
163	0x3f355211	0.7082835
164	0x3d7e29d0	0.062051594
165	0x405778a9	3.3667395
166	0x3f03e848	0.5152631
167	0x4021fea5	2.5311673
168	0x3f748b0f	0.95524687
169	0x404f09f2	3.234982
170	0x41808cdd	16.06878
171	0x406fade1	3.7449877
172	0x3f822993	1.0168937
173	0x3dcf9866	0.101364896
174	0x3f9b9b56	1.215678
175	0x40e67d2a	7.202779
176	0x407b1b13	3.9235275
177	0x402b6c09	2.678469
178	0x3e986d93	0.29771098
179	0x4039befa	2.9022813
180	0x405b490d	3.4263337
181	0x3f8a5398	1.0806761
182	0x40b6324e	5.6936407
183	0x40a005e8	5.000721
184	0x3f09030f	0.5352029
185	0x3f9dee60	1.2338371
186	0x40055b75	2.083707
187	0x3ef26e91	0.4734998
188	0x40c365cc	6.1061764
189	0x40a9baec	5.3040676
190	0x402d8b83	2.7116401
191	0x4043aef8	3.0575542
192	0x4134cd6d	11.300153
193	0x40eb5c91	7.3550496
194	0x3e862108	0.26197076
195	0x408826d1	4.2547383
196	0x3fc44c2e	1.5335748
197	0x40b429e9	5.630116
198	0x402afe91	2.6717875
199	0x40039b0a	2.0563378
200	0x40aec594	5.4616184
201	0x3f62833d	0.88481504
202	0x3ea51282	0.32240683
203	0x4054119f	3.3135755
204	0x40906e02	4.5134287
205	0x401729de	2.3619304
206	0x3f45300c	0.7702644
207	0x3eb688ce	0.3565125
208	0x3f8bacab	1.0912069
209	0x403cc79c	2.9496832
210	0x402cc48e	2.6994967
211	0x3f1411a7	0.57839435
212	0x3f237de8	0.6386399
213	0x3ff1c283	1.8887485
214	0x40cfbe58	6.4919853
215	0x3eac3966	0.33637542
216	0x3e10fed1	0.14159705
217	0x3d7a9ff8	0.061187714
218	0x3e1cc6ba	0.15310183
219	0x409c2884	4.8799458
220	0x41a24490	20.283478
221	0x3fadee7a	1.3588402
222	0x3eac33fa	0.33633405
223	0x40881792	4.252877
224	0x3ef01464	0.46890557
225	0x3ecab8b0	0.3959403
226	0x3fb53986	1.415818
227	0x4073fdc7	3.8123643
228	0x3fa2b2b9	1.2710792
229	0x3ff45287	1.9087685
230	0x40070301	2.1095583
231	0x41b8dc2a	23.107502
232	0x3f504377	0.81352943
233	0x401f6e46	2.4911056
234	0x4020af6e	2.5107074
235	0x40669f31	3.6034663
236	0x4086a20b	4.2072806
237	0x3f45c666	0.77255857
238	0x4034e228	2.8263035
239	0x3f25068f	0.6446313
240	0x3f2b3e05	0.6689151
241	0x3f384bf6	0.7199091
242	0x3f3a128a	0.7268454
243	0x4011699f	2.2720716
244	0x3f11d7ca	0.5696989
245	0x409d0200	4.906494
246	0x3ff1dfb5	1.8896395
247	0x40798559	3.898764
248	0x3f8b0e9a	1.0863831
249	0x411659b5	9.396901
250	0x3fb6c4db	1.4278826
251	0x40291e78	2.6424847
252	0x40135a08	2.30237
253	0x40d47e0a	6.6403856
254	0x3d59589a	0.053063013
255	0x3fab0c57	1.3363141

fc2.weight f4 [256, 258]
0	0x3c831fdb	0.0160064
1	0xbc16ca3b	-0.009203489
2	0x3cc9b463	0.024622148
3	0xbd484427	-0.04889312
4	0xbda8899b	-0.08229371
5	0xbd3492bf	-0.04408526
6	0xbad09985	-0.0015914893
7	0x3c3a1601	0.011357785
8	0xba6b982c	-0.0008987214
9	0x3bca5bef	0.00617551
10	0x3b90cc09	0.004418854
11	0xbd812c4b	-0.06307276
12	0x3d3d7ed3	0.046263527
13	0x3d07bf7f	0.03314161
14	0x3d61ee2e	0.055158786
15	0xbcd9acfb	-0.026571741
16	0xbd7ca9ed	-0.06168549
17	0xbc347e48	-0.011016436
18	0x3cbbfbee	0.022947278
19	0xbd813dc4	-0.06310609
20	0x3c5de9f3	0.013544547
21	0x3ce9c859	0.028537916
22	0x3cebe4af	0.028795568
23	0x3c24451a	0.010026241
24	0x3d4e542b	0.050373238
25	0x3c37c27c	0.011215802
26	0xbd22c1a1	-0.03973544
27	0x3cad531c	0.021157794
28	0x3c5e6bc3	0.013575497
29	0xbd80b0ce	-0.06283723
30	0x3b2acd04	0.002606214
31	0xba2a7978	-0.00065030856
32	0xbd1eae98	-0.038740724
33	0xbc581a40	-0.013189852
34	0x3cffc17c	0.03122019
35	0x3cddcb04	0.027074344
36	0x3bede1b0	0.00725957
37	0xbd5af774	-0.053458646
38	0x3c2645d7	0.010148487
39	0xbc120f4d	-0.008914781
40	0xbc48959a	-0.012242699
41	0x3bcd3b75	0.0062631913
42	0x3ccccfd4	0.025001444
43	0xbb8112ce	-0.0039390093
44	0x3d64c559	0.055852268
45	0x3bc9b1f0	0.006155245
46	0xbd24dfd8	-0.040252537
47	0xbd148bf5	-0.036266286
48	0x3d8aeb43	0.06783154
49	0xbd1ed86b	-0.03878061
50	0x3d7e055d	0.062016834
51	0xbdb3a6de	-0.08772062
52	0x3cad5078	0.021156535
53	0xbd0ed530	-0.03487128
54	0x3d657b56	0.056025825
55	0x3d1ad3cc	0.03779964
56	0x3c442b82	0.011973264
57	0x3cbcd8fe	0.023052689
58	0xbccc6d93	-0.024954593
59	0xbd31b66b	-0.043386858
60	0xbd390e9a	-0.04517994
61	0xbb263af7	-0.0025364736
62	0x3d9751ae	0.07388626
63	0x3d21a648	0.03946522
64	0xbd3f37a6	-0.04668393
65	0xbdb14a97	-0.08656805
66	0xbc66f9a2	-0.014097603
67	0xbd27820f	-0.040895518
68	0x3c053af9	0.008131736
69	0xbc9f445c	-0.019441776
70	0xbd567d2b	-0.052365463
71	0x3d538ed1	0.051649872
72	0xbc216efe	-0.009853123
73	0x3d4155da	0.047201015
74	0xbd5ab1d5	-0.05339225
75	0xbd029a59	-0.03188548
76	0xbd2679e4	-0.040643588
77	0xbd3743c4	-0.04474236
78	0x3c99b76b	0.018764218
79	0xbc2c1ed2	-0.010505395
80	0xbcfe250b	-0.031023523
81	0xbd85911d	-0.06521819
82	0xbc9629a5	-0.018330405
83	0x3bad54c7	0.0052896473
84	0x3cd65da7	0.026167704
85	0xba4c2b07	-0.0007788394
86	0x3d1d469b	0.038397413
87	0xbd3073b5	-0.043079097
88	0xbccb7400	-0.024835587
89	0x3b22a00b	0.0024814631
90	0x3c1c1e6b	0.009528737
91	0xbc844b97	-0.016149325
92	0x3cc5e066	0.024154853
93	0x3ca8b921	0.020596089
94	0x3d262539	0.040562842
95	0x3c8495ee	0.016184773
96	0xbd5ad44d	-0.053425122
97	0xbc846ca6	-0.016165089
98	0x3ce243a5	0.027620146
99	0x3a19cd45	0.00058670744
100	0xbd828ad7	-0.06374138
101	0x3c983bb3	0.018583154
102	0x3d0b367a	0.0339875
103	0x3b0cc609	0.0021480343
104	0xbd91eec5	-0.0712562
105	0xbca81a5a	-0.020520378
106	0x3c9aadd2	0.018881712
107	0xbc09ab95	-0.008402725
108	0x3cdc8204	0.026917465
109	0xbd898d78	-0.06716436
110	0x3d46d744	0.048545137
111	0x3a5bdec8	0.0008387384
112	0x3d6d19f4	0.05788608
113	0x3d77d44c	0.060505196
114	0xbd86eb59	-0.06587858
115	0xbcd3886e	-0.02582189
116	0x3bf2e596	0.0074126227
117	0x3ce2328d	0.027611995
118	0xbd847f44	-0.064695865
119	0xbba86975	-0.0051395246
120	0x3c71772e	0.014737887
121	0xbce5c0fd	-0.028046126
122	0xbcc113b2	-0.023568962
123	0xbd0baf14	-0.034102514
124	0x3da3dac9	0.08000714
125	0x3dbde2c3	0.09271767
126	0x3cfef8bf	0.03112447
127	0x3d018222	0.031618245
128	0xbc67a04b	-0.014137338
129	0x3dbfec26	0.093712136
130	0x3d015d44	0.031583086
131	0x3c8e1f7a	0.017348994
132	0xbabda721	-0.0014469364
133	0x3d35f4d9	0.044422958
134	0xbceba689	-0.028765934
135	0x3cb0ec05	0.021596918
136	0xbc52a23f	-0.012856065
137	0xbca48a5c	-0.020085506
138	0xbc64f2cb	-0.013973902
139	0x3d09a462	0.033604033
140	0xbd76f551	-0.060292546
141	0xbcb3a65e	-0.021929916
142	0x3d193d76	0.03741213
143	0xbd888efe	-0.066678986
144	0xbca2b1b2	-0.019860122
145	0x3c22df98	0.009941004
146	0xbc96b962	-0.018398944
147	0xbbcec542	-0.006310136
148	0x39a5aa4b	0.0003159813
149	0xbcb501e1	-0.022095622
150	0x3dac387e	0.084092125
151	0xbc275160	-0.010212272
152	0xbbb580c1	-0.0055390303
153	0xbc3ae7cb	-0.011407803
154	0xbd5f5ed3	-0.05453379
155	0xbc3cc4de	-0.011521546
156	0x3d476625	0.048681397
157	0xbc8ef20b	-0.0174494
158	0x3d43fe8a	0.04785017
159	0x3d53e546	0.051732324
160	0x3d36364b	0.04448537
161	0xbd1cc463	-0.038273226
162	0x3cc8e6e3	0.024524158
163	0xbc613bcd	-0.013747168
164	0xbdc8d3e7	-0.09806042
165	0x3cfda2c8	0.03096141
166	0x3bf8979b	0.007586432
167	0xbc295c83	-0.010336998
168	0xbc6b66c6	-0.014367765
169	0x3d7ef60e	0.062246375
170	0x3d8aec12	0.06783308
171	0x3d176228	0.036958843
172	0xbda3a7ae	-0.07990967
173	0xbccf7b1c	-0.025327258
174	0x3d7d56c7	0.061850335
175	0x3c911810	0.01771167
176	0xbd83ab53	-0.06429162
177	0x3ad4f054	0.001624594
178	0xbd6eaad1	-0.058268372
179	0x3d87f686	0.066388175
180	0xbc0782bf	-0.008270918
181	0xbd391ee0	-0.04519546
182	0xbd4a1e2d	-0.049345184
183	0xbd21a710	-0.039465964
184	0xbc9ad165	-0.018898675
185	0x3d19442d	0.037418533
186	0xbd71508d	-0.05891471
187	0x3cc9d89e	0.024639424
188	0x3d4526fe	0.04813289
189	0x3d093c6f	0.0335049
190	0x3d81a786	0.06330781
191	0xbd261781	-0.04054976
192	0x3cfc94cd	0.030832672
193	0x3d7b0003	0.061279308
194	0x39820feb	0.00024807392
195	0x3cf3f581	0.029780151
196	0x3d0cba8e	0.0343576
197	0x3ca35898	0.019939706
198	0xbe011dc2	-0.12609008
199	0x3d1d2b09	0.03837112
200	0xbd46128b	-0.048357528
201	0xbb1a8660	-0.002357863
202	0x3db6edcd	0.08932076
203	0xbcf57787	-0.029964222
204	0x3d636964	0.05552043
205	0xbd7abecb	-0.06121711
206	0xbce86747	-0.028369559
207	0xbd7e8334	-0.062136844
208	0x3d938926	0.07203893
209	0x3ce0ee3a	0.027457345
210	0x3b1857ee	0.002324577
211	0x3d3110f5	0.043229062
212	0xba91b331	-0.0011116025
213	0xbc90a130	-0.017654985
214	0x3d9a2a6c	0.075276226
215	0x3cfc8578	0.030825362
216	0xbcdc2d68	-0.02687712
217	0xbd445b84	-0.04793884
218	0xbd12a9ef	-0.035806593
219	0x3c8dab75	0.017293671
220	0xbd3fc2ea	-0.046816744
221	0x3d6cbb8c	0.057796046
222	0x3cd31135	0.02576504
223	0xbc903d48	-0.017607346
224	0xbc97ed9f	-0.018545924
225	0x3bb92515	0.0056501725
226	0x3c718512	0.014741199
227	0x3da92716	0.08259408
228	0xbc91729d	-0.017754847
229	0xbcc3e4ae	-0.023912754
230	0xbda90561	-0.08252979
231	0xbd9d4c7e	-0.07680605
232	0x3d68929e	0.05678045
233	0x3d492288	0.049105197
234	0x3d0f5f80	0.035003185
235	0xbcdb5b33	-0.026776886
236	0xbccaa3c9	-0.024736302
237	0x3cd2ed9a	0.025748063
238	0x3c1121fb	0.008858199
239	0x3d85ba23	0.065296434
240	0xbc821f54	-0.015884079
241	0xbc65d290	-0.014027253
242	0x3cd57817	0.02605824
243	0x3c991f5b	0.01869171
244	0xbc861cff	-0.016371248
245	0x3c2fc3aa	0.010727802
246	0x3c87c0a0	0.016571343
247	0x3d00095f	0.031258937
248	0x3b003516	0.0019562892
249	0x3c902be0	0.017599046
250	0x3c136ae3	0.008997652
251	0x3c1a25b7	0.009408406
252	0x3c4ef9a2	0.012632759
253	0xbd80acc1	-0.0628295
254	0xbc2b512e	-0.010456366
255	0x3d5be710	0.053687155
