Project3_collaboration_and_competition/ddpgActor1_Model.pth (torch_old, 320938 bytes, 10 tensors)

fc1.weight f4 [256, 48]
00000000: 76a0 d03c 67e9 1abc 0df5 edb8 ba0b 833d
00000010: a2fb 573e 9550 8e3d 6d05 39bc a457 4f3d
00000020: d101 d13c a399 dfbb c2b4 a1bc 8cfd 8d3d
00000030: 3ac3 e93d 65de a53c 391b 5d3c 9e8f f83c
00000040: d6ac 463d 80fa 353d 812d 88bc 51c1 9e3c
00000050: 6b77 e03d b686 dd3d 7202 41bd 6ac5 85bd
00000060: e3b1 6cbc 8e53 33be e4dc 0abe aca5 fdbb
00000070: 050f 4dbe 75a8 6f3d fa5c 2dbd 750d 953d
00000080: 54a8 b93d 6c4d c0bd 6331 b83b b736 423c
00000090: c278 cbbd 6f82 18bd 860d 253d 020f b93c
000000a0: f8fd 0c3d fd28 f9bd 77d5 41bc 8dea e73d
000000b0: b04a c4bd 5d5c 923d 087f cebc 5b37 a13c
000000c0: 9046 20bd 1c90 9fbd c732 52bd c3e6 d93d
000000d0: 17aa 613c 3389 183c 7121 183d cd23 fd3d
000000e0: f3d9 6a3b 1db0 44bd 1159 3f3d 1894 493d
000000f0: 8639 ecbc 20a7 443d 93ea 80bc a36c fe3d
00000100: 75f0 083d 1a03 413d 6766 76bd 4059 083e
00000110: c9d6 e3bd a835 5c3e a00d e0bd e7e3 603e
00000120: af41 c83d 37b6 9f3d be2f 25bd ba71 643c
00000130: 28e8 8d3d df3b e33c 92d9 2d3d bdc3 d4bb
00000140: c75c db3c 787e 0b3e 3e01 28bd 33ed 83bd
00000150: 1da2 903d 713a f73d a3de 1dbd 5687 373c
00000160: 741d 143e 25db 8a3c 6e71 c5bb 3292 0ebd
00000170: a9fe f43b d1b6 143e a585 d53c ee1d c2bd
00000180: 409f c63d 645c 9a3c 9794 993c 2b6c 383d
00000190: 7743 543d 7b8e 59bd 5b96 62bd c5a2 493d
000001a0: 4942 b63d 8531 a13d 543e 9abc 748e 353b
000001b0: 5ea8 e2bc 6146 f7bd 21dc 7abc 0535 ea3c
000001c0: 16a3 253e d23c 043d 99a8 a0bc 11fb 2bbd
000001d0: 5b61 243d f553 c2bd 7688 b33b 14c9 f63b
000001e0: 1f45 c03d 4d8f af3d a62e 46ba 4a09 5ebd
000001f0: 8a72 b73c 83af 05be 7bd1 9cbc 53e4 513d
00000200: fef4 ad3d 236f e53d c313 673d 463d 5bbc
00000210: 758b 613d 9356 d1bd 3588 5bbd be4b 88bd
00000220: a031 f23d 63db ad3d d892 683c b0c0 5a3d
00000230: 3c27 173d fcee 85bd c0ee 17bd 459f 903d
00000240: 24dd 71bc 12bc 023e 28df 9bbd ca29 933d
00000250: 9a9d d8bb fa4e 57be f59f eabc 3e1e d23d
00000260: 2945 cbbc 12ed 833d 9b9d f13c e6c4 6e3c
00000270: 5e2e 87bc 106c 8fbd 8a45 0bbd adad 2a3d
00000280: d82c 0b3d 824d bf3d 68e6 773c a0e2 c43d
00000290: 73e6 b8bd 71b5 12bd a38d c4bc 5362 66bc
000002a0: 43bc 0fbc 98c1 9d3a 730e 01bd 54b3 20bd
000002b0: cd0a 393d 11ce 56be 023c 4cbd b39e 3abd
000002c0: 76b2 743d 05e7 ffbc 412f 063e 387c 24bd
000002d0: 9f8e c23c 0ea2 82bd 1691 ea3c 584b 16bd
000002e0: 6c1c d43d b292 8cbd 8b38 93bc a458 07bc
000002f0: 6307 e53d cac0 0abe fe8a 26bc 4cee e9bd
00000300: a9e1 d23c 8cbf 723e 07ea 513b 45d3 843d
00000310: ce3b 02bc 1f32 13be 8f95 40bc 7024 aa3d
00000320: b3e1 c63c 9305 303e 9ee2 27bd 8475 353d
00000330: 7f40 2ebd c62e cabc 0a35 b43c bf71 823d
00000340: 4064 223d c73c 313e 98fa fd3c 7598 98bd
00000350: 400c a3bc 33a1 b7bd fca4 c43c 521c a4bc
00000360: be30 753d 9b51 a13d 0085 03bc 129e 44be
00000370: 3ed3 c93c a990 44be 9ed7 b83b fad1 19be
00000380: 92ff ad3d 4619 52bd 8d9e d6bc 5523 3abd
00000390: d2db dbbc 2f13 efbd eb3d 8e3b 66fa 9cbd
000003a0: 0664 babb 4ff4 9fbd e8a5 0dbe e785 54bd
000003b0: 6a95 07bd e7cf aebb a86e d4bd 7384 843c
000003c0: 34f1 56bd d7fb 2a3e 3637 27bd e746 69bc
000003d0: 76e8 233d c90a 97bd faef 98bc 7065 23bd
000003e0: a1ba f5bd d590 873e c2ce edbc 84f5 4b3d
000003f0: e373 5d3c e329 80bc 1a1b d1bd 5b1e 063d
0.025467139 -0.0094550615 -0.00011346685 0.06398721 0.21092084 0.069489636 -0.0112927975 0.05062069
0.025513561 -0.006823735 -0.019739512 0.06933126 0.1141419 0.020247648 0.01349526 0.03034192
0.048504673 0.04442835 -0.01662326 0.01937929 0.10960277 0.1081671 -0.047121473 -0.06531794
-0.014446708 -0.17512342 -0.13560826 -0.007740697 -0.20025261 0.058510263 -0.042324997 0.07277957
0.09065309 -0.09389767 0.0056211217 0.011853865 -0.09935142 -0.037233766 0.0402961 0.022590164
0.03442189 -0.12166021 -0.011830679 0.11324034 -0.09584558 0.07146523 -0.025207058 0.019679716
-0.039129794 -0.077911586 -0.051317956 0.106397174 0.013773463 0.009310055 0.037141267 0.12360344
0.0035835474 -0.048019517 0.0467158 0.0492135 -0.028836023 0.048010945 -0.015736854 0.124230646
0.033432443 0.0471221 -0.060156252 0.13315296 -0.111249514 0.21504843 -0.10940099 0.21961938
0.09778153 0.077984266 -0.040328734 0.01394313 0.06929046 0.02773851 0.04244382 -0.0064930604
0.026777638 0.13622463 -0.04101681 -0.064417265 0.07062171 0.12071694 -0.0385424 0.0112017
0.1446436 0.0169502 -0.0060254848 -0.03480739 0.007476647 0.14522864 0.026064703 -0.09478365
0.09698343 0.018842883 0.018747611 0.045025032 0.051822152 -0.053114396 -0.05531917 0.049227495
0.08899362 0.07870773 -0.018828548 0.0027703317 -0.027668174 -0.120739706 -0.015311272 0.028589735
0.16175494 0.032284565 -0.019611644 -0.041987482 0.040131908 -0.0948867 0.005478914 0.0075312946
0.09388184 0.08572254 -0.0007560052 -0.054208077 0.022393484 -0.13055234 -0.019142857 0.051243138
0.08493994 0.11202838 0.05641533 -0.013381308 0.055064637 -0.10221591 -0.053596694 -0.06655072
0.118258715 0.0848911 0.0141951665 0.053406417 0.03690265 -0.06539723 -0.037092924 0.07061628
-0.014762197 0.12767056 -0.07610923 0.07185705 -0.0066105844 -0.21026221 -0.028640727 0.102596745
-0.024813252 0.06441702 0.029494097 0.014573311 -0.016501602 -0.07003033 -0.034001864 0.041669536
0.033978313 0.09340955 0.015130617 0.09613538 -0.0902833 -0.035817567 -0.023993319 -0.014061528
-0.008772912 0.0012035845 -0.03150792 -0.03923352 0.045176316 -0.20977046 -0.049861915 -0.045561504
0.059740506 -0.031238088 0.13103963 -0.040157527 0.023749648 -0.06378566 0.028633635 -0.036692947
0.103569835 -0.068639174 -0.017971298 -0.00826088 0.111830495 -0.13550106 -0.010164974 -0.11422405
0.025742369 0.23705882 0.003203036 0.06485609 -0.007948829 -0.14374588 -0.011754408 0.08307731
0.024277544 0.17189626 -0.040987603 0.044301525 -0.042541977 -0.024680506 0.021997947 0.063693516
0.039646387 0.17308341 0.031003281 -0.07450954 -0.019903302 -0.08966293 0.024004452 -0.020033035
0.059860937 0.07876893 -0.008027315 -0.19200924 0.024636861 -0.19195808 0.005640938 -0.15021506
0.08496012 -0.051293634 -0.02619865 -0.04544385 -0.026838217 -0.11673581 0.0043408773 -0.07664947
-0.0056881933 -0.0781027 -0.1383282 -0.05188551 -0.033101477 -0.0053348425 -0.103726685 0.016176438
-0.052476123 0.16697632 -0.040824138 -0.014238096 0.040016614 -0.07375104 -0.018669117 -0.03989166
-0.11998487 0.26477686 -0.029029254 0.04979469 0.013516399 -0.015644973 -0.10210247 0.032743793

fc1.bias f4 [256]
00000000: 70a9 8ebd bed7 bcbd 82af f2bd 184f 22be
00000010: 2081 b1bd 1c24 163d 9ad5 65be 9e80 0f3e
00000020: 383b 06be edcf 50bd e93f efbd 4218 323d
00000030: b35a c53d 888f 39bb dbcd f0bd 1d6a 84bd
00000040: 507e 68bd 26f7 edbc c0f2 8fbd 34e8 533c
00000050: 2956 573d 12fc cdbd 6dbc cd3c a82a 09bd
00000060: ac6b 82bd d63c a4bd 9803 11bd be9d 22be
00000070: bafb 2abe e972 89be 69d8 0fbe 51ba 643d
00000080: 5d2d 043e 592e 1bbd 5495 cb3d 41ed 00be
00000090: bb02 3abe a72c 613c d15b 35be 9a02 bcbd
000000a0: e832 43bc 06b2 5fbe 0c79 33bd f3b0 a9bd
000000b0: 07dc eebc 8a46 a9bd 2716 41ba e469 a2bd
000000c0: 76c1 743d 95a8 823d b3ea 2bbe 37cd e2bd
000000d0: 7202 03bd e88d 2abd 6f2c 1abe 6cd6 21bd
000000e0: e417 67bc cc15 d73b 8997 b7bc e227 21bd
000000f0: 7f74 373d 7dc8 c83d 4a57 f5bd cda7 033e
00000100: b111 fa3d 5f7e 0dbc 5623 69be 34a5 2b39
00000110: a73f 93be 1c5b c93c 6c17 ba3c 4cf2 19bd
00000120: 9cf8 5bbb ea5d 7f3c b2b6 10bd 56ce f53d
00000130: 23e8 68be 1544 be3c 0f0b e7bd 5e5b bfbd
00000140: 5cd7 a0bd 6c68 55bc 6dca b53c 8dad 39be
00000150: 2f05 473c b7de 53be f410 29be 2f78 11bd
00000160: 490d a93d 0814 213d d46b 7cbe b07c cbbd
00000170: 6886 073e 58e0 94bd b59e 11be 9b8c bdbd
00000180: 5f71 dc3d 4bf2 053e 0014 833d d03f 9b3d
00000190: 66e0 5ebe 632c 51be 8632 343e 5f5e 59bd
000001a0: a021 9fbc 9c32 08be f685 30be c0c3 d2bd
000001b0: 9ce8 89bd 6ea7 1dbe ff61 1bbe 2929 69bd
000001c0: 7043 bbbd f6c9 4dbe 5d24 46be 0f7b bfbd
000001d0: 50b2 93be 9f8e 9c3d 219e 58be 8688 ecbd
000001e0: 4096 3dbe 1438 bdbd 408f 8bbe 08ba 40be
000001f0: 4e0e 9cbd 6a21 b13d 1366 23be 6c0b 1d3e
00000200: 14e5 1b3e a8de cebd 89e8 3cbd dc7c e0bd
00000210: 43f9 e43c 17f6 49be 422f f0bb e71a c9ba
00000220: 345a fcbd 8c6e 55be aba7 bfbd 3a61 5bbe
00000230: 8ff5 33be 4812 4bbe f58c 07be 82c5 f2bd
00000240: 32a2 303e 51bc 2dbd 136d 85bd 61fc 7ebd
00000250: 2e6b 173e bf22 8b3d eac2 233d 1193 dbbd
00000260: c5e0 a1bd d0fc 3bbd cf6b 773b 35f4 23be
00000270: fc80 91bd 9a04 753d 5b65 843d 7178 76bc
00000280: c99f 46be 3c9b a23d a7a9 8cbd 2dba 3bbe
00000290: 2bd8 4cbe e10d c8bb dc8f b6bd 2c3c 3cbd
000002a0: 523f 883d 0c2c 13be 056b dd3d 8780 f8bd
000002b0: 865c 7cbd f296 2b3d ba1a bebb 9cd9 023c
000002c0: aca4 b93d 2683 40be 667b 53bc d186 c7bd
000002d0: cfdb abbd aaf6 c7bd f600 063d def0 11be
000002e0: ca7b 75bd f38d 05be 8660 bb3d 2e67 b93c
000002f0: 5eaa 91bd 518f 81bc feaa f13c 453e d93c
00000300: e1d2 e7bd 57e9 953d f9ad 61bd 312c 903c
00000310: a990 3bbe cda7 23be 34d4 bcbd 5f0c 8bbe
00000320: 9e6d 98bc a30b 9ebd 8649 55bd d77f 5dbe
00000330: 5d63 88bd 8cdc 443e aa18 0c3d d39b 22be
00000340: e3af d3bd bc61 b43d aa3f 86be 384c 41be
00000350: 46e7 803d 9ccc efbb d242 2cbe faf9 963d
00000360: ccc8 b3bd a9eb 3d3d 5050 82be eeb1 50bd
00000370: 71c7 073e fe42 12be ce1b 07be 1bac 14be
00000380: b81e 943d 3889 70bc 1084 5bbe 4231 0cbb
00000390: b68e b03c 76ec e4bd 9db7 13be 894f 3d3d
000003a0: d7c9 c43c 9180 3bbe 0c56 27be e637 9ebd
000003b0: 26ca b7bc 0d86 fa3c b3c1 2ebd c5c2 40bc
000003c0: 37ec e3bc ed11 e1bd 3779 873d a6fb 8abd
000003d0: 50ca 47be 91b0 11be 9bfe 28be 028f 0ebe
000003e0: 7ad2 8dbd bb50 d63d f5e5 91bd f62a 0fbe
000003f0: 221e ccbd 3db8 dcbd 4d7f 78bd 5405 02be
-0.069659114 -0.09220837 -0.11849882 -0.15850484 -0.08667207 0.03665553 -0.22444764 0.14013907
-0.13108528 -0.050979543 -0.11682112 0.043480165 0.0963644 -0.002831431 -0.11758014 -0.06465552
-0.056761086 -0.029048514 -0.07028723 0.0129337795 0.052572403 -0.10057844 0.025114262 -0.033487946
-0.06368193 -0.08019416 -0.035403818 -0.15880486 -0.16697589 -0.26845482 -0.14047398 0.055841748
0.1290793 -0.037885997 0.099405915 -0.12590505 -0.18165104 0.013743556 -0.17710806 -0.09180184
-0.011913992 -0.21845254 -0.04381661 -0.082857035 -0.029157652 -0.082654074 -0.00073656667 -0.07930353
0.05975481 0.06379811 -0.1678875 -0.11074298 -0.031984754 -0.04163924 -0.15056013 -0.03951113
-0.014104817 0.0065638777 -0.022411125 -0.039344676 0.044788834 0.09803865 -0.1197954 0.1285698
0.122104056 -0.008636086 -0.22767386 0.00016369374 -0.287595 0.024579577 0.022716247 -0.037584588
-0.003356493 0.015586356 -0.03533048 0.12002246 -0.22744803 0.023225823 -0.11281406 -0.09343599
-0.078535765 -0.013025384 0.02219125 -0.1813261 0.012147232 -0.20690428 -0.16510373 -0.035515007
0.08254487 0.039325744 -0.24650508 -0.09935892 0.13234866 -0.07269353 -0.14220698 -0.09255334
0.10763811 0.13080709 0.06400299 0.07580531 -0.21765289 -0.20427088 0.17597398 -0.053068515
-0.019425213 -0.13300556 -0.17238602 -0.102912426 -0.0673382 -0.153959 -0.15174101 -0.05692402
-0.09143722 -0.20096573 -0.19349809 -0.093496434 -0.2884698 0.0764439 -0.21154071 -0.11549477
-0.18514347 -0.09239212 -0.2725773 -0.18820965 -0.07619916 0.08648951 -0.15956907 0.15336388
0.15224105 -0.10101062 -0.0461202 -0.10961315 0.027950888 -0.19722782 -0.0073298523 -0.00153431
-0.123218924 -0.20842952 -0.09358152 -0.21423808 -0.17574142 -0.19831192 -0.13237365 -0.11854078
0.17249373 -0.04241592 -0.06514945 -0.062252406 0.1478698 0.06793737 0.039980806 -0.1072141
-0.079041995 -0.045895398 0.0037753468 -0.16011126 -0.0710468 0.05981884 0.064646445 -0.015043364
-0.1939689 0.07939765 -0.06868296 -0.18332739 -0.20004337 -0.00610517 -0.08914158 -0.045955822
0.066527024 -0.14372271 0.10811428 -0.1213389 -0.061611675 0.041892 -0.005801526 0.007986452
0.09064612 -0.18800029 -0.012907838 -0.09742511 -0.083915345 -0.09763844 0.03271576 -0.1425204
-0.059932508 -0.1304243 0.0914927 0.022632208 -0.07112573 -0.015815409 0.02950048 0.02651895
-0.11319519 0.07319897 -0.055097554 0.017599197 -0.18316902 -0.1598198 -0.09220162 -0.27157876
-0.018606957 -0.07717063 -0.05207207 -0.21630798 -0.06659577 0.19224757 0.03420321 -0.15879755
-0.10336282 0.08807704 -0.26220447 -0.18876731 0.06294112 -0.0073180925 -0.16822365 0.07371898
-0.08778533 0.04636732 -0.254519 -0.050950937 0.13259675 -0.14283368 -0.131942 -0.14518778
0.07232422 -0.014681153 -0.21437097 -0.0021391665 0.021552425 -0.11177914 -0.14425512 0.04621843
0.024022026 -0.18310763 -0.16341418 -0.077255055 -0.02243526 0.030581499 -0.042665195 -0.011765187
-0.027822597 -0.10989747 0.06614917 -0.067862794 -0.1951077 -0.14227511 -0.16503374 -0.1392174
-0.06924911 0.10464617 -0.07123939 -0.13981232 -0.09966685 -0.10777328 -0.06066828 -0.12697345

bn1.weight f4 [256]
00000000: f0d2 963f 24dc b23e 3837 e73e e753 a43e
00000010: 860e a63e d217 763f bf6a 193f c59c 633f
00000020: 2f48 d63e 7ed7 273f 4109 023f 42e2 8e3f
00000030: f9d3 c2be 90b6 1e3f ff61 833f 9c60 a93e
00000040: f126 223f 8ba1 543f eaf5 8d3f e5f5 293f
00000050: 506a b93e ea22 bd3e 1377 513f 6830 743f
00000060: 8dba 733e 2820 b53e 6f1f b43e 3b04 ae3e
00000070: c57a 313f d2e9 593f 2c70 993e fcfe 1e3f
00000080: b8fb 3b3f 8418 3c3f bd54 583f 28af f33e
00000090: 83e3 003f 2a57 da3e 4edf c33e cd1c 2d3f
000000a0: 7d2a 4c3f bf2d 383f ce51 813f 3462 8f3f
000000b0: edd8 443f c2e0 fd3e 14e8 613f a261 433f
000000c0: 56b7 213f 9fd4 af3e b832 e03e 6864 623f
000000d0: b10c ba3e 6c40 873f a184 9e3e 4152 f23e
000000e0: 3d54 273f 5eeb 8e3f 1254 423f 3e2b b83e
000000f0: 630b 793f 09c2 253f f101 d33e 4bfb 8d3f
00000100: 0b51 833f 1369 213f 1c3f 133f 9c45 573f
00000110: 8bb7 483f 6743 163f ef1b 3f3f 74bf 883f
00000120: e20d 0f3f cd18 803f 183c eb3e 1bde 8d3e
00000130: 836c 343f 9aba 1f3f d07b 4a3f cf87 953e
00000140: 1b10 c23e e06a 463f 92ee 653f 8aef 603e
00000150: 2ff5 b53e 8aec de3e 20bf e13e 7549 783f
00000160: 1531 673f a808 843f 7afc 863f 2eec 643f
00000170: 71b6 c63e 509e ce3e de20 a93e c37d 883e
00000180: d477 793f c609 c53e 748c 763f 198a 053f
00000190: dc25 d83e 9975 573f 9092 f43e 54ac 343f
000001a0: e23b 3a3f a504 cd3e 3098 783e f8e0 903f
000001b0: 5d47 433f 7e24 1d3f 243c 5f3f 8443 133f
000001c0: 6dea 3d3f 5a1b ca3e 0269 ab3e 4730 773f
000001d0: c040 2c3f bdc7 193f bcdb 143f 2ba5 4b3f
000001e0: f6d7 863f e8aa 753f 2731 a83e c4be d13e
000001f0: d924 183f 881c d53e 808a 0c3f e1cb 103f
00000200: 3fe3 7e3f d188 923e 1700 8a3f fc90 813f
00000210: 3399 8b3f b91e 7c3f 280d 663f 83e8 a33e
00000220: 3c99 8a3f 62a9 913e 0cd2 543f f670 863f
00000230: 553c 363f eee6 1a3f f0a9 d33e e0ad b03e
00000240: f27c 313f 42f0 593f 2b3c d23e c9db 183f
00000250: aba3 303f 15c5 b13e f12d 353f c612 8c3e
00000260: e2ed 7f3f 7acc e83e 42f7 773f 7f9a 793f
00000270: 80be 5e3f 7c81 a13e 2dee 833f b89b 253f
00000280: 889f 8b3e e30e 823f 6d84 873f aa42 523f
00000290: dcee af3e c84b fd3e 3318 113f d871 803f
000002a0: 6f41 7e3e 2ada b43e 7730 533f 102c 5e3f
000002b0: 43b7 e73e c090 b53e 6984 183f e489 683f
000002c0: a42e 873f 01c7 1e3f 71c9 ca3e 88ea 3e3f
000002d0: d92e 733f 1a03 bc3e e4d5 353f c8a5 6d3f
000002e0: 5944 103f 8e5b 863e 6ce5 033f ece4 be3e
000002f0: 0319 2c3f 3607 843f 1632 1a3f 7fdf 753f
00000300: 4674 d93e 7a46 883f 77eb e03e d24c de3e
00000310: 3507 803f 95a4 fb3e c02f 0d3f 9f3f 5b3f
00000320: c182 103f 237a 2a3f 4851 663f a22f 7b3f
00000330: 087e 003f 12a6 193f c799 003f 9f13 223f
00000340: 4e6e 6d3f 1076 6e3f 136b 093f 660d d23e
00000350: c296 7a3f 8547 9e3e 0019 ac3e 5b87 cd3e
00000360: 98f0 cf3e 2949 943e 0f82 4e3f ac63 3b3f
00000370: 3706 5a3f da70 4e3f 6b39 343f 2521 793f
00000380: 8a0f 6b3f b500 d33e 8502 8d3f 6ba6 463f
00000390: 5e17 8e3f bde6 883f b0ff 1c3f 8cfa 1c3f
000003a0: 52f9 523f 8f56 8b3e 2e69 d73e b4ed 903e
000003b0: af89 753f 2e7b 433f 651b 883f 536a f63e
000003c0: b2a2 833f 07d7 653f 756b 183f 29f9 953e
000003d0: beaa 283f f6c8 fd3e 0dfa d73e 0f80 063f
000003e0: d35a 173f 602d 093f 2342 273f 18bf b83e
000003f0: 30c6 4d3f 1384 c63e 4e2f b13e 989b 233f
1.1783123 0.3493358 0.45159316 0.32095262 0.32432956 0.96130097 0.59928507 0.88911086
0.41851947 0.6556319 0.5079537 1.1162798 -0.38052347 0.6199732 1.0264281 0.3308152
0.6334067 0.83058995 1.1090672 0.6639083 0.36213923 0.369407 0.8182232 0.9538636
0.23801632 0.35376096 0.35180232 0.33987603 0.69327956 0.85122406 0.29968393 0.62107825
0.7343097 0.7347491 0.845043 0.4759457 0.50347155 0.42644626 0.38256305 0.6762207
0.7975233 0.71944803 1.010309 1.1201844 0.768935 0.4958554 0.8824475 0.7632085
0.63170373 0.34341905 0.43788695 0.8843446 0.36337808 1.0566535 0.30960563 0.4732838
0.6536291 1.1165578 0.7590953 0.3597049 0.97283 0.647492 0.4121242 1.1092314
1.0259107 0.63050956 0.5751817 0.8409059 0.78405064 0.586966 0.74652 1.0683427
0.5588056 1.0007569 0.45944285 0.27708516 0.70478076 0.62394106 0.7909517 0.29205176
0.37902912 0.7750683 0.89817154 0.21966377 0.35538623 0.4353984 0.4409113 0.96987087
0.9030927 1.0315142 1.05458 0.8942288 0.38811067 0.40355158 0.33032888 0.2665845
0.9744847 0.3848402 0.96308064 0.52163845 0.42216384 0.84163815 0.47768068 0.7057545
0.72747624 0.40042606 0.24276805 1.1318655 0.76280767 0.6138381 0.8720114 0.57524896
0.7418583 0.39473993 0.33478552 0.9655804 0.672863 0.600704 0.5814779 0.795489
1.0534656 0.9596391 0.3285 0.40965855 0.59431225 0.4162333 0.54898834 0.56561095
0.995655 0.28620008 1.0781277 1.0122371 1.0906128 0.9848438 0.89863825 0.3201333
1.0828013 0.2844954 0.83133006 1.0503223 0.7118581 0.6050862 0.4134059 0.34507656
0.69331276 0.8513223 0.4106153 0.59710366 0.6899974 0.34720674 0.70773226 0.27358073
0.99972355 0.45468503 0.9686166 0.9750137 0.8700943 0.315441 1.030706 0.6469073
0.2727015 1.0160793 1.0587288 0.8213297 0.34361923 0.4947188 0.5667755 1.0034742
0.24829648 0.35322696 0.82495826 0.86785984 0.45257005 0.35461998 0.5957704 0.90835404
1.0561109 0.62022406 0.39606813 0.74576616 0.9499336 0.36721116 0.71029496 0.9283109
0.5635429 0.26241726 0.51521945 0.3728403 0.67225665 1.0314701 0.60232675 0.9604415
0.42471522 1.0646508 0.43929645 0.43417984 1.00022 0.49149004 0.55150986 0.85643953
0.56449515 0.66592616 0.89967775 0.98119557 0.5019231 0.6001903 0.50234646 0.6331119
0.92746437 0.931489 0.5367901 0.41025847 0.9788629 0.3091394 0.33612823 0.4014233
0.40613246 0.28962067 0.80667204 0.7319896 0.85165733 0.8064095 0.7040011 0.973162
0.91820586 0.41211477 1.1016394 0.77597684 1.1100881 1.0695416 0.6132765 0.61319804
0.8241168 0.27214476 0.42072433 0.28306353 0.95913213 0.7635983 1.063336 0.48127994
1.0284026 0.8978123 0.59538966 0.29291657 0.6588553 0.49567384 0.4218296 0.5253915
0.5912296 0.5358486 0.6533529 0.36083293 0.80380535 0.3877264 0.34606403 0.6390929

bn1.bias f4 [256]
00000000: f3c1 aebc 074a 493d c525 ec3c 25d9 21bc
00000010: 5fcb 15bc 242c 983d 5e16 8f3d 68aa 4bbd
00000020: 1960 563d bfa8 453c 96ff 62bd 9fa4 0b3d
00000030: a48b c6be 4799 b63d 5afd 4f3d 6c61 0b3b
00000040: 280e a03a ccc8 ae3d c718 a0bd 8519 1dbd
00000050: ce0c ebbc 04b9 c73d 3936 ce3c 4f9c 3fbb
00000060: 66c3 8e3d b89f 893d 3b52 b13c 7da7 6fbd
00000070: 0ac0 86bd 6a45 f53c 0f5c d0bc d967 65bc
00000080: 9b3e ab3d d1a4 273d da2e a73d ce7f c6bc
00000090: 03fe 9f3d c3ec 923e 03da 2f3e a24b 10bd
000000a0: 5983 cc3d fda0 1d3c d5b0 c0bc 780f 503c
000000b0: 333c e2bb b1a6 5cbd 7a75 5cbc ea8f 543d
000000c0: b273 013e ddfe 013e 57de f63b 73bb 593c
000000d0: f5a4 81bd 0257 fa3d dd4c 833d 954c a4bd
000000e0: 1fde f23c 711e 8fbc 7550 55bd 498f 683e
000000f0: 9f85 2fbd 8af9 083e c96d 653d a47d 91bc
00000100: 7223 b93d 2571 d13d 3767 823d c4ad 4bbd
00000110: e653 d43c e495 a43c a321 ccbc 6c11 12bc
00000120: acc2 613b 72b6 88bc 5540 b73c 8b85 30bd
00000130: 2c5e 50bd f49c dd3c be5b b33d f3cc 683d
00000140: 9c3f 8fbd a601 b63d ca65 823d 28e3 a8bd
00000150: 727b e13d b129 5dbd 2383 9f3d 5ac5 8dbc
00000160: 4b23 a7bc add0 d13d 4928 193d 279e 0a3c
00000170: 976c 0c3e 6197 ad3d aecc c63c a367 d9bd
00000180: 26a5 de3b dac5 7d3e bf8e 5ebd 5031 d23d
00000190: 5160 373c d374 8b3c 113f 83bc 5c4a f9bc
000001a0: 1da6 293b de17 d53e 6bc7 8f3d f077 663c
000001b0: e882 c0bd c982 893d 7615 a7bd 22b3 db3c
000001c0: 70bf ccbd e267 71bd 7e34 2aba c01c 443d
000001d0: c450 7d3d d761 e03b 5abb 39bd 8464 523d
000001e0: a40e 87bc 4427 0f3e fe04 833d 6d24 4e3e
000001f0: 6555 383d 2326 ae3c a292 9c3d 0efc 1bbd
00000200: faf1 a43c a1ae 48bc 058e d1bb 70c3 c43d
00000210: 215e 42bd fbf4 a93d 737e eabd fba5 8aba
00000220: ae93 253d 76c9 7ebb c5de c33d 58ed b3bd
00000230: 9039 833d 3c3d 0cbd ed8c 803d f9ce 8d3d
00000240: de0e b6bc 2e6a ea3c f253 52bd 13b7 0b3a
00000250: b805 d8bb d15c 30bd 22f5 633d c673 113e
00000260: 54fa 203c 02e8 9e3d 6ee9 193d a248 09bd
00000270: 95db e63d 31c6 103e 78eb 473d bc9d 13bd
00000280: 79a4 873d cafd e53d 129e 4d3d 1be3 9fbc
00000290: b28d aa3d 90e5 c73d 7a24 7dbb 2241 373c
000002a0: 81f3 3bbb 5ae1 82bd f256 6abd eee2 da3c
000002b0: a7cc d6bd db9e ecbc c162 ddbc 4166 91bc
000002c0: 1e83 40bd e576 b33d e2f4 693d 5d55 e53d
000002d0: 6630 9bbc 900f f63d 066d 3abd 13af 24bc
000002e0: 782c d93c f2c0 95bd b591 d13a 6ca8 af3c
000002f0: e5ed 123d 207e d63d 2352 973d 8b06 923d
00000300: afbb 9d3d d0ca b03d a3c2 073d eb81 5a3e
00000310: 1d30 bfbc 1804 dbbd 58e0 c3bd 9229 453d
00000320: b82c 19bd 01e4 3abb 556c b93d c3f0 dc3c
00000330: 699e 68bc 824a 15bd fd83 4d3d ac03 a03c
00000340: 8070 d63d 87a0 81bd 0605 63bd 912d d6bd
00000350: 9627 80bc ed90 893d 8bb0 ae3d 48f7 ed3d
00000360: e3a3 c43d dc54 05be 3e8a 3a3d 4290 bfbd
00000370: 87fd 7339 c0e5 4ebd 2a95 893d f3d6 383d
00000380: a91c 8a3c f6fb f6bd 0fad 0e3e f8df 883d
00000390: db12 1c3e ff66 393d 08b9 143e d7bb f7bd
000003a0: add1 013d f4d6 3c3d 55fc 623d 54cb 3d3d
000003b0: c6fb 4e3c 77e2 043e f2c6 2f3d 7415 153e
000003c0: 1912 413d 6a84 1c3e d48e 9dbd fb10 5fbc
000003d0: 851d a1bd 95f6 353e e052 f43d 298e 0cbd
000003e0: 7237 773b 82eb 713d 1bf4 39bd 13d7 61bc
000003f0: 27cf 33bd 2123 023c 27cc edbc 4ea8 fa3d
-0.021332717 0.049142864 0.028826604 -0.009878431 -0.009142726 0.07430294 0.06986688 -0.04972306
0.05233774 0.012064158 -0.055419527 0.03409254 -0.38778412 0.08915954 0.050778724 0.0021267785
0.001221125 0.08534393 -0.07817226 -0.038354415 -0.02869263 0.09752086 0.02517234 -0.0029237454
0.06970863 0.06719917 0.021645656 -0.05850934 -0.06579597 0.029940326 -0.025434522 -0.01400181
0.083615504 0.040928666 0.08163233 -0.024230864 0.07812121 0.2869626 0.17173009 -0.03522838
0.0998599 0.009620902 -0.02352182 0.012699001 -0.006904149 -0.053869907 -0.013455743 0.05189506
0.1264179 0.12694879 0.007533829 0.01328932 -0.06330291 0.12223627 0.06411145 -0.08022419
0.029646931 -0.01747057 -0.052078683 0.22710909 -0.04285204 0.13376442 0.056012902 -0.017760105
0.09039964 0.10226659 0.06367343 -0.049726263 0.025918912 0.020091005 -0.024918383 -0.0089152865
0.003444831 -0.01668856 0.022369543 -0.043096106 -0.05087106 0.02705238 0.08757733 0.05683608
-0.069945544 0.08887033 0.06367071 -0.082464516 0.110098734 -0.05399484 0.07788684 -0.017306019
-0.020402571 0.1024488 0.037391935 0.008460558 0.13713299 0.08476139 0.02426752 -0.1061547
0.0067945896 0.24782506 -0.054335352 0.10263312 0.011192397 0.01702348 -0.016021283 -0.030430965
0.0025886365 0.41619772 0.07020458 0.014066681 -0.093999684 0.067143984 -0.0815839 0.026818816
-0.09997451 -0.05893696 -0.00064928073 0.04787898 0.061844602 0.006847601 -0.045344688 0.05136539
-0.016486473 0.13979822 0.063974366 0.20131083 0.045003314 0.02125842 0.076451555 -0.038082175
0.020134915 -0.012248666 -0.006395104 0.09607589 -0.04745305 0.082986794 -0.114498995 -0.001057803
0.04042404 -0.0038877404 0.09563974 -0.08785504 0.064074636 -0.034238085 0.062768795 0.069242425
-0.022223886 0.028615084 -0.051349588 0.00053297094 -0.0065924786 -0.043057267 0.0556537 0.1420432
0.009825308 0.07759096 0.03757613 -0.033516534 0.11272351 0.14138104 0.048808545 -0.0360391
0.066231675 0.11230047 0.050199576 -0.019517472 0.083278075 0.097605824 -0.0038626478 0.0111849625
-0.0028679075 -0.06390639 -0.057211824 0.026719537 -0.10488253 -0.028884342 -0.027024629 -0.017748954
-0.047000043 0.08762912 0.057118304 0.111979224 -0.018943977 0.12014687 -0.04551413 -0.010051507
0.026510462 -0.07312192 0.0015988859 0.021442614 0.035871405 0.10473275 0.07388713 0.07130154
0.077018134 0.086324334 0.033144604 0.21338622 -0.023338372 -0.1069414 -0.095642745 0.048135348
-0.037396163 -0.0028517249 0.09053866 0.026970273 -0.014197924 -0.03644801 0.050174702 0.019533
0.104706764 -0.06329446 -0.055424713 -0.1045791 -0.015643876 0.067170955 0.08529767 0.11619431
0.096015714 -0.13020653 0.045541994 -0.09353687 0.00023268732 -0.050512075 0.06717904 0.045126867
0.01685937 -0.120597765 0.13933204 0.06683344 0.15241568 0.04526424 0.14523709 -0.120963745
0.031694103 0.046103433 0.055416424 0.046336487 0.01263327 0.12977014 0.04291434 0.14558965
0.0471364 0.15284887 -0.07693258 -0.013614888 -0.078669585 0.17769845 0.1192987 -0.034315262
0.0037722257 0.05906249 -0.045398813 -0.013784188 -0.043898728 0.007942946 -0.029028011 0.12239133

bn1.running_mean f4 [256]
00000000: 5850 0f40 938e d83f 0400 0000 775d c93e
00000010: d368 4c3f d53e 5340 28f8 2c3f c758 203f
00000020: 69ee 4340 17ce 9640 564b 2240 e8c8 5540
00000030: 9b4d a740 4276 0040 9fa9 e23f e55d f03e
00000040: d9a1 1940 c10c ba3f efb5 3340 f383 0c40
00000050: 04ec 573f d221 c93f 3746 0040 c49a 3f40
00000060: cea2 953e 360a 933f 69f5 133f 3653 e13e
00000070: 9d08 e53f 1f91 bb3f c292 4c40 4ff2 f53e
00000080: 0b1b b840 a6f8 933f fa38 0340 23ff 953f
00000090: 7985 9240 d4d0 4040 42f2 d03f f0d5 043f
000000a0: 5d2b c240 0f42 043f 229b 9b3f ec2d cc3f
000000b0: 283e e33f 701f 083f 2da6 113f 0142 5240
000000c0: e554 ee3f ca7d 0140 f4a0 863f 905f 8f40
000000d0: 1254 9d3e f06e cc3f 3e06 003f 7107 ca3f
000000e0: 701a 933e 1a26 543f 47d4 d83f 82d8 8740
000000f0: dfd0 5640 069d c240 e3b6 a63e 8b95 c13f
00000100: ef34 833e 431e b83f f50f 3040 e26d ba3e
00000110: 33c6 223f b8dd 0a3f 01a2 d63f c5cc ea3f
00000120: 610e bc3f 0a8f 423f 2556 6c3f 4a70 033f
00000130: 2046 923f bb72 e83f 8554 1e40 7a1d 903f
00000140: ce05 513f 9653 f33e 8f9d 0440 76b2 883e
00000150: 7955 7640 c0f9 8b3f 52a0 b23f 9631 1940
00000160: 3c5b e43f c6dc 5540 30e5 f53f cb3b ae40
00000170: 8e55 6940 61aa f33e 5fcc 033f 15f2 df3f
00000180: 608d 923f 1ce6 f640 972b eb3e 783f 0a40
00000190: 969a 0d3f 0bb7 fb3e 96fe 8e3f d795 913d
000001a0: fe0e 693f fa1e bd3e 0400 0000 9707 8740
000001b0: 0e05 3c3e 3d56 e43e 7ccb 733f 2aaf 1e3f
000001c0: ffe5 413f 6013 363e fc1b 3540 d154 cb3e
000001d0: d533 8f3e 5090 e43f 39bb 903e 4865 0d40
000001e0: 8bdd 1d40 c465 2141 6de7 533e cfad 3c3f
000001f0: 3341 773f f36f f640 6a2e 173f d44d 383f
00000200: 16a1 763f d98e 8c3e 5cd4 343f ac74 853e
00000210: e122 3d40 a3e0 1b3f d354 e13f 2f51 b43d
00000220: f592 053f 60bd ae40 c069 123f 24a5 4d3f
00000230: e5ee dd3e ec2a b23f 2c73 3a3f 2462 9d3e
00000240: eb04 3c3f 7767 df3f a95f e63e 9f98 d53c
00000250: c8bc 1b3f 3574 5940 2055 fb3f 4e44 653f
00000260: 83e4 3d40 2b22 583f c662 f43f 3ff3 6040
00000270: 67fc a33f d19c 8340 0b37 2740 26c8 453f
00000280: 0400 0000 658a 8e40 d53a e43f c204 503f
00000290: 8ada d23f d7ab c040 903b 613f 768a 523e
000002a0: 4c78 0b3f 2e61 713c 944a a43f b775 5940
000002b0: 9fdf 563f ba10 3b40 8aaa 7340 b62a 6840
000002c0: f665 1340 8ae7 bd40 65a1 fc3f e21f db3e
000002d0: f2e8 873e 3bb9 873f ac4e e83e f5e5 1740
000002e0: fff2 9440 a623 433f d195 bf3e e52e a63e
000002f0: 3197 443f c7ad dc3e 2729 843f e467 273f
00000300: 6914 0b3f d898 b040 0408 9340 e4f6 bb40
00000310: a907 443f 3d97 873f 688c dd3d a9d7 d03e
00000320: e98a 153e 8884 5c40 8b31 993e b9ab 8a3e
00000330: abca ad3e 2859 9140 fcb6 0c40 fb92 ef3f
00000340: 6e17 e83e 3fb7 0140 f928 2f24 1ab6 1340
00000350: 4b0c fc3f 8c8f ee3e 9e81 883e 772e c340
00000360: d090 cc3f 7965 7c3f d283 b13f ab8a 543e
00000370: 7091 393f f753 843f 8c36 fc3f 131b 613e
00000380: 9efd c640 553f 1240 2a7e cf3f 78ce 2240
00000390: 765e de40 5c05 7d3f 552f 563f dfa8 1f40
000003a0: ab4d 3540 628e b540 b4ec 0c2f 227e 693f
000003b0: a10d ae3f a2f2 6b3f 8766 0d40 f370 7240
000003c0: 101e 0a3f 98cf c03f 6429 a03f e05a 253f
000003d0: d0b0 653f 2837 fd3f 09da 343f fb51 733e
000003e0: 51a1 d73e ce1b 303f 9c2f 3d40 5c73 f83f
000003f0: 2d05 3b3f db01 5c40 2744 9e3f c6d1 763f
2.2392788 1.691851 6e-45 0.3932912 0.7984745 3.30071 0.67566156 0.62635463
3.0614264 4.7126575 2.5358481 3.3403873 5.2282233 2.007218 1.7708014 0.46946636
2.4005034 1.4535142 2.8079793 2.1955535 0.84344506 1.5713446 2.0042856 2.9938211
0.29225773 1.1487491 0.5779634 0.44008797 1.7893254 1.4653662 3.1964574 0.4803643
5.753301 1.1560256 2.0503526 1.1718487 4.578793 3.0127459 1.6323931 0.5188894
6.0677934 0.516633 1.2156718 1.5951514 1.7753344 0.5317297 0.5689419 3.2852786
1.8619658 2.0233026 1.0517869 4.4804153 0.30728203 1.5971355 0.50009525 1.5783521
0.28731108 0.8287064 1.6939782 4.245179 3.3564985 6.081668 0.32561406 1.5123762
0.25626323 1.4384235 2.750974 0.3641196 0.6358368 0.54244566 1.676819 1.8343741
1.4691888 0.7599951 0.92318946 0.51343215 1.142765 1.8160013 2.4739087 1.1258996
0.8164948 0.47524709 2.0721166 0.26698655 3.8489668 1.0935593 1.3955176 2.3936515
1.7840343 3.3416 1.9210567 5.444799 3.6458468 0.47590926 0.5148372 1.7495753
1.1449394 7.7155895 0.45931694 2.1601238 0.55314004 0.49163088 1.1171443 0.07108658
0.910385 0.36937696 6e-45 4.2196765 0.18361303 0.44597045 0.9523237 0.6198603
0.7574157 0.17780828 2.829833 0.39713147 0.27969232 1.7856541 0.2826784 2.2093067
2.466647 10.087345 0.2069375 0.7370271 0.9658386 7.7011657 0.590552 0.71993756
0.9633955 0.27452734 0.70636535 0.26065576 2.9552538 0.60889643 1.7604011 0.08804547
0.52177364 5.460617 0.5719261 0.8033011 0.43346325 1.3919349 0.7283199 0.30738938
0.73445004 1.745345 0.44994858 0.026073752 0.6083493 3.3977177 1.9635353 0.8955735
2.9670722 0.84427136 1.9092643 3.5148466 1.2811402 4.1128926 2.6127346 0.7725853
6e-45 4.454394 1.7830454 0.8125726 1.6472943 6.0209765 0.8798151 0.20560631
0.54480433 0.014732642 1.283526 3.3978097 0.8393497 2.922896 3.8072839 3.6276069
2.3030982 5.934514 1.9736754 0.42797762 0.2654491 1.0603403 0.45372522 2.3734105
4.6546626 0.7622627 0.37418988 0.32457653 0.767932 0.43101332 1.0325059 0.653929
0.5432802 5.5186577 4.5947285 5.873888 0.7657419 1.0593029 0.10817796 0.40789536
0.14603771 3.445589 0.2992061 0.2708414 0.33943686 4.5421333 2.1986685 1.871673
0.45330375 2.0268095 3.798178e-17 2.3079896 1.9691252 0.46593893 0.2666139 6.099422
1.5981693 0.98592335 1.3868353 0.20756023 0.72487545 1.0338124 1.9704146 0.21982984
6.218459 2.2851155 1.6210377 2.5438519 6.949031 0.988363 0.8366597 2.494682
2.8328655 5.6736307 1.281702e-10 0.9120809 1.3597909 0.92167103 2.2093828 3.7881439
0.5395212 1.5063353 1.2512631 0.6459179 0.8972292 1.9782457 0.70645195 0.23761742
0.42115262 0.68792427 2.9560308 1.9410205 0.7305477 3.4376132 1.2364548 0.9641384

bn1.running_var f4 [256]
00000000: 45dc 3f41 7c43 b840 0400 0000 9bc8 b23f
00000010: 8c62 5f40 d908 2741 036e 2340 ce48 db3f
00000020: 43bd 8c41 46a6 5d41 3995 0a41 e46c 6b41
00000030: e27d 5241 cc7e 6141 823e 0a41 3afb e83f
00000040: 5e29 5541 dec1 9f40 b772 3841 dfef 4941
00000050: dddc 5340 9933 0841 eea7 1741 ca34 4d41
00000060: ff8c 8a3f 8a71 c240 2fee f33f 7983 e43f
00000070: 0f41 2141 8fe8 ab40 8d31 7b41 bbfa 0640
00000080: 8864 9641 4ea1 c840 d7db ff40 f26a dd40
00000090: 2ede 1841 d789 4041 f60b 0c41 b2b1 1840
000000a0: ddba 8841 6706 d63f 7f50 f740 4ddf b940
000000b0: d2b5 e440 0277 e13f b16d f43f d572 8b41
000000c0: 553f f640 08a6 0341 a7e4 a840 1b52 ad41
000000d0: 3f48 923f 04ba fb40 910b 3840 ed00 f040
000000e0: adb3 833f 96be 3e40 3293 2b41 69db 6041
000000f0: e606 6641 63a9 c441 5239 8b3f 4c17 5440
00000100: c998 603f e133 0241 567f 8241 b46b ff3f
00000110: 2ad5 1040 05f8 f73f 521f 0141 fb88 0241
00000120: 229d eb40 51f3 8440 8366 8540 9487 4740
00000130: 1dd0 b540 8ad3 0741 191e 6341 5f7a d940
00000140: d135 7440 d79a e43f d0bf 8b40 96f4 743f
00000150: 513b fc40 172a 8a40 dff9 e940 d592 1141
00000160: 2992 d340 0863 1441 2536 5241 b59e 4a41
00000170: 8356 3641 488e cf3f 3161 2140 f357 2441
00000180: 1025 b540 8db8 fa40 fe7e d53f 0eda 4041
00000190: 16b0 1240 4047 e23f 9933 8940 f5ad 5a3e
000001a0: 501b 8240 ded6 0d3f 0400 0000 b0c3 1641
000001b0: 9f44 f73e fa81 be3f 5926 8540 b768 fd3f
000001c0: e3ee 3a40 3353 413f 9e6e 2a41 429b db3f
000001d0: 35f7 aa3f 79d1 ea40 b224 573f 8285 4c41
000001e0: 61f2 1c41 bd66 3841 487b 2d3f ac70 6940
000001f0: 37a4 2240 df5d 6141 47a3 0b40 b946 1e40
00000200: 580c 8b40 595e 6d3f fcf7 2140 9f5f 5c3f
00000210: e28c 0541 27dc 0040 647f 2041 86d9 c03e
00000220: 76c8 0e40 ec79 4b41 abd2 fc3f 8039 4140
00000230: 4c59 ce3f 72ef 9e40 1550 5e40 8646 673f
00000240: d8a0 0f40 1972 bc40 553a d53f 52bc 8a3d
00000250: d007 0640 a3de 3141 c22a c540 92da 4140
00000260: 7430 4f41 488d 5a40 65e7 2b41 34b4 6141
00000270: 7eb0 b140 be9f 9641 0de0 4b41 6c21 5d40
00000280: 0400 0000 09b7 3141 27fa 2241 f585 a640
00000290: 0322 c040 20a2 9d41 59f7 9940 4204 1b3f
000002a0: 9c82 1740 9a00 083d df04 d340 e9a8 8f41
000002b0: c6b3 7a40 d862 4141 c214 4d41 992f 5241
000002c0: 12b6 3941 f683 9441 f103 d740 9749 df3f
000002d0: fc0a 553f f491 a640 2f5d d93f f58e 6741
000002e0: 63d6 b141 6618 2540 673e da3f 0b47 ab3f
000002f0: 059b 3740 5181 be3f 0360 8440 1291 4b40
00000300: 3422 f43f b2ba 8541 75ca 9241 29c1 d040
00000310: 7182 8240 a0aa 8a40 1dae e13e 8dae c33f
00000320: 2feb c53e cf0a 0f41 f83d 903f 7d96 923f
00000330: 421d 643f 7bb8 2c41 2bd8 2541 1c3b 4641
00000340: 79ae e93f 94b5 3b41 d492 1723 681a 3241
00000350: 5ba7 c440 6914 ce3f a82c 833f 8435 4641
00000360: fbd0 c540 4378 9d40 1df9 c540 921f 3b3f
00000370: bb22 3540 1d44 ad40 3374 df40 567a 343f
00000380: d1ce a941 d766 2241 8083 0241 ff33 2b41
00000390: 718a 0041 b6bd 6240 19a4 f73f 35cb 3c41
000003a0: 5e09 8241 9e7f a241 72b8 ab2d 0649 8940
000003b0: d7ae 4140 ee05 1740 0630 f740 602e aa41
000003c0: dd56 1440 c2e4 2941 2aa3 9d40 4315 3b40
000003d0: a0da 8240 bcad 9b40 3cbc 2b40 a3c1 1a3f
000003e0: 8504 cb3f 67c6 2440 867b 8f41 3636 b340
000003f0: 2e73 3a40 c6e8 5341 eb4e a340 8e78 8a40
11.991277 5.758238 6e-45 1.396747 3.4903898 10.43966 2.5535896 1.7131593
17.592413 13.853094 8.661431 14.714085 13.155733 14.093456 8.640261 1.8201668
13.322599 4.9924154 11.528007 12.621062 3.3103554 8.512597 9.478498 12.825388
1.0824279 6.0763597 1.9057063 1.7852622 10.078383 5.3721385 15.699597 2.1090534
18.799088 6.2696905 7.995586 6.919305 9.554243 12.033652 8.75292 2.3858457
17.091242 1.6720704 7.728576 5.8085084 7.147195 1.7614443 1.9095975 17.43107
7.695231 8.228035 5.2779117 21.66509 1.1428298 7.866457 2.875706 7.500113
1.0289208 2.9803824 10.723436 14.053567 14.376684 24.582708 1.0876868 3.313922
0.8773313 8.137666 16.312176 1.9954743 2.2630105 1.9372565 8.070147 8.1584425
7.3629313 4.1547017 4.1687636 3.11765 5.6816545 8.489145 14.194848 6.796188
3.8157847 1.7859753 4.3671646 0.9568571 7.882241 4.317638 7.311752 9.098348
6.611592 9.274178 13.138219 12.663747 11.396121 1.6215296 2.521557 10.271472
5.660774 7.835028 1.667938 12.053236 2.2919974 1.7677994 4.2875485 0.21355422
4.065834 0.55405986 6e-45 9.422775 0.4829454 1.4883416 4.160931 1.9797581
2.9208305 0.75517577 10.652006 1.7156756 1.3356692 7.3380704 0.8404037 12.782595
9.809175 11.525083 0.6776624 3.647502 2.5412729 14.085418 2.1818407 2.4730666
4.345257 0.9272209 2.5307608 0.86083406 8.346895 2.013437 10.031101 0.37665957
2.2309852 12.717266 1.9751791 3.0191345 1.6121001 4.966729 3.4736378 0.90341985
2.2441921 5.888928 1.6658427 0.067742005 2.0942268 11.116855 6.1614695 3.0289655
12.949329 3.4148731 10.743993 14.106495 5.5527945 18.828 12.7422 3.455165
6e-45 11.107186 10.186072 5.203852 6.004152 19.704163 4.811444 0.6055337
2.3673468 0.0332037 6.5943446 17.957476 3.9172225 12.086632 12.817568 13.1366205
11.606951 18.564434 6.719231 1.7444333 0.83219886 5.2053165 1.6981562 14.472402
22.229681 2.5796142 1.7050294 1.3381056 2.8688366 1.4883214 4.13672 3.1807294
1.9072938 16.71616 18.348856 6.523579 4.078423 4.3333282 0.4407815 1.5287644
0.38655993 8.940139 1.1268911 1.1452175 0.89107144 10.795039 10.365275 12.389431
1.825637 11.731831 8.2168185e-18 11.131447 6.145429 1.6099979 1.0248003 12.388065
6.1817603 4.9209304 6.1866593 0.7309505 2.8302448 5.4145646 6.9829345 0.7049917
21.225985 10.150107 8.1571045 10.700194 8.033799 3.542829 1.9346954 11.799611
16.254574 20.312313 1.952236e-11 4.290164 3.0262964 2.359737 7.724612 21.272644
2.3178017 10.618349 4.9261675 2.9231727 4.0891876 4.864958 2.683364 0.60451716
1.5860754 2.5746095 17.935314 5.6003675 2.91328 13.244329 5.1033835 4.327216

fc2.weight f4 [256, 256]
00000000: 363d 4a3e 5df0 49bd 6873 123d b1a7 123d
00000010: 6d0e 043e 585f d13c 5f35 1bbe a31c 483c
00000020: 4ac3 1e3d acd2 ac3d 1e71 1ebe 0bd6 eebd
00000030: 223e 273e a3ae 303d b595 43bd 23cb 0b3d
00000040: 57a0 53be 1729 e6bd 9c28 593d a5f6 ae3d
00000050: 86d7 3a3c f041 1ebb b4c0 1b3e c709 1d3d
00000060: a31b 573d 61fb a4bd b2ce 04bd eca2 d1bb
00000070: b7dc c13c c9d5 2abd 43bf eebc 8f0d 5c3d
00000080: 0eb3 c5bd a5c8 6abd 4ef3 a7bc b861 14bd
00000090: e7a8 01bd cd6f d8bd 107c 93bd 455e 13be
000000a0: e2f2 8fbc 4aa7 1c3d eed3 e4bd b436 813d
000000b0: 4759 5e3b d7a9 553e 197d 013e 71f4 613c
000000c0: 12b4 0a3d d5dd 34bc edaa 09be fe27 b63d
000000d0: 0b97 60bd 8d40 1dbe b6f6 2d3d 1936 853d
000000e0: b1b5 d43d 77db 57bd b168 823d 8fc7 b6bd
000000f0: 53eb 473d 2e14 2ebd 1d56 e63c 42a1 85bd
00000100: 2aed 95bc 8e51 51bd b6b2 a2bd ae76 aabc
00000110: 6516 933c 2422 f1bd 1d86 323e 498a b7bc
00000120: 0732 3d3d 98fb 4e3a 353a f5bd f026 083e
00000130: 9346 a93b 0243 21bc a692 3abd f6fe e43d
00000140: eeaa 293e d131 57be c9d3 b53d 2a37 d13d
00000150: 1501 08bc 7413 4a3e 34d5 84bd 3809 32bd
00000160: e2f3 e43c 62b0 483c baea a43d 3b26 02bd
00000170: d515 a2bd c223 51be da24 883c 60e3 54bd
00000180: 09de 503d 0688 33b9 8377 443d c452 2abd
00000190: 3bdd 013e bc31 503b 903a f0bd 8260 023c
000001a0: 1ed5 493d 8450 0ebe f7f8 9ebd a0f5 373e
000001b0: c119 573e f4ab fbbd 1fa4 fd3c 9e9b 613b
000001c0: e9d5 103d 0614 283c d43a 8fbd a8d4 d1bc
000001d0: 9fef 7abd 478a 02be 9a43 513e 7a7f 783c
000001e0: 4ca6 033d 29cf 7f3d 7221 ffbd 1324 31be
000001f0: bd5e 0bbd 5f09 a2bc 2530 3bbe 423b 873d
00000200: de96 b83d 010a 723d 4b66 32be f09d d6bd
00000210: 4780 28bb fe45 993b 37ea 5dbd a6db 0c3e
00000220: 8ad8 94bd f7d0 45be 180b 7bbd 8a5a 403c
00000230: 2069 35bd 34e6 453d 6d11 25bd 05c6 0fbe
00000240: 63bb 7abd 7db3 9d3b 63c7 7cbd 589d ba3d
00000250: c9b6 5e3e b09d 613c 38af 7fbd ccd0 afbd
00000260: 24fc efbd 0d38 07be 78c7 5a3d 40a1 633d
00000270: 54e6 10bd 3ab4 0c3d 740a 1dbd 22e6 8c3c
00000280: 5633 d8bd 15bf ddbc 0eff 6b3d 042c fc3d
00000290: 3f64 2ebe 10d0 fdbd efb5 74bd fed0 c0bb
000002a0: 6f90 f23d 414d 693d 2c30 8c3d 6f51 d7bd
000002b0: 8196 aabd 8662 fc3d 4c29 833c 3763 b0bd
000002c0: ab32 663d 0886 723d c559 21bd c6c3 433d
000002d0: 9caa 193b 7829 71be 9238 683d 821c cdbc
000002e0: ddc6 29bd af0e 75bc 8907 19bd 7522 72be
000002f0: 705d 5f3d fad1 8fbd a4ff 9abd 8c7f bd3d
00000300: 3704 27bc 20fb 493d 354c 7abd 8769 f9bc
00000310: 70b6 8a3d 782e f03c d60c 103e dac8 663b
00000320: b1e0 cfbd dbe4 cb3c 807b b1bd 5aa0 2dbe
00000330: 2c8c 853d c0d3 593e 740e bc3d b531 a6bd
00000340: 4820 dcbd 6768 20bd 6be2 083c af47 7f3d
00000350: 64d8 533e 27e8 02be 4d26 8c3d 65d9 b53c
00000360: e5da c63d 4e9d e63b 31c3 86bd 26f6 c8bc
00000370: de78 95bd 46b2 783e ba25 6fbd a44c c3bd
00000380: b872 393c 3466 e93d 9ec2 acbb 1e30 bebc
00000390: 5e8a 903d 64ae 8bbd 3e62 1e3c 768e f0bb
000003a0: 51f6 f83d ee89 f5bc 6d7f a8bd c94e 103e
000003b0: 2f91 0ebe 1b80 0cbd 830a 60bd 30fb 83be
000003c0: 0149 493d 681c 77be e9a7 c3bc 286a 863d
000003d0: 2d58 a23d bb19 01be 2349 40be dc11 3fbd
000003e0: 7d53 9e3b 91c0 ad3d c1d5 253e d26b 3cbd
000003f0: 3592 933d ae4f 72be 19ea 223e 451d 0a3e
0.19749913 -0.049301494 0.03575459 0.035804454 0.12896128 0.025558159 -0.15157078 0.012213859
0.03876046 0.0843862 -0.15472838 -0.11661919 0.16332296 0.043135297 -0.047750194 0.034129273
-0.20666634 -0.11238306 0.053017244 0.085431375 0.011403924 -0.0024148189 0.15210229 0.038339403
0.05251659 -0.08055759 -0.032423683 -0.0063975956 0.023664815 -0.041707788 -0.029143935 0.053723868
-0.096532926 -0.057320256 -0.020501759 -0.036226004 -0.03165522 -0.10568199 -0.072013974 -0.1439143
-0.01757187 0.038245477 -0.11173235 0.06309262 0.0033927725 0.2086557 0.12645377 0.0137911895
0.033863135 -0.011039217 -0.1344411 0.08894347 -0.054831546 -0.15356655 0.04247161 0.06504459
0.103862174 -0.052699532 0.063676246 -0.089247815 0.048808407 -0.042499714 0.028117234 -0.06524898
-0.018301565 -0.051103167 -0.07944243 -0.020808544 0.017955014 -0.1177409 0.17433973 -0.022404807
0.046190288 0.0007895767 -0.11973993 0.13296103 0.005165884 -0.009842636 -0.04555001 0.111814424
0.16569111 -0.21015097 0.088782854 0.102156 -0.008301039 0.19733983 -0.06485978 -0.043465823
0.027948324 0.012249084 0.08052583 -0.03177474 -0.079143204 -0.20423797 0.016619135 -0.051974654
0.050993 -0.00017121443 0.047965538 -0.041582838 0.12682049 0.0031767925 -0.1172992 0.00795758
0.04927551 -0.13897902 -0.0776233 0.17964792 0.21005918 -0.12288657 0.030962048 0.003442503
0.03536025 0.01025868 -0.069936424 -0.025614098 -0.061263677 -0.12748061 0.20435944 0.0151671115
0.032141015 0.062453423 -0.12457551 -0.17298917 -0.034025896 -0.01977986 -0.18280084 0.066030994
0.09013151 0.05909157 -0.17421834 -0.10479343 -0.0025711225 0.004677533 -0.054178443 0.13755664
-0.07267864 -0.19317995 -0.061289877 0.011740336 -0.04428971 0.048315242 -0.04029982 -0.14040382
-0.061213862 0.0048126564 -0.061713587 0.09112042 0.21749415 0.013770506 -0.06242296 -0.08584747
-0.11718014 -0.13204975 0.053412884 0.0555737 -0.035375908 0.034351565 -0.038340047 0.01719958
-0.105566666 -0.027068654 0.057616286 0.12313083 -0.17030428 -0.123932004 -0.059743818 -0.005884289
0.11843955 0.05695844 0.068451256 -0.10513579 -0.083294876 0.12323479 0.016010903 -0.08612674
0.056200664 0.059209853 -0.03939225 0.047794126 0.0023447638 -0.23550975 0.056694575 -0.025038008
-0.041449416 -0.014957114 -0.0373607 -0.23645957 0.05453247 -0.07022472 -0.07568291 0.09252843
-0.010193876 0.049311757 -0.061107833 -0.030445827 0.067730784 0.029319033 0.14067397 0.0035214932
-0.10150278 0.0248894 -0.08666134 -0.169557 0.06520876 0.21272182 0.09182444 -0.081149496
-0.10748345 -0.039162066 0.0083547635 0.062324222 0.20688015 -0.12783872 0.06843243 0.022198388
0.097097196 0.007037795 -0.065801986 -0.024531435 -0.07298444 0.24286756 -0.05838559 -0.095361024
0.011318855 0.11396447 -0.0052722236 -0.023216303 0.070576414 -0.06820372 0.009666977 -0.0073412014
0.12156356 -0.029972997 -0.082274295 0.14092554 -0.1392257 -0.03430186 -0.054697525 -0.25777578
0.049141888 -0.2413193 -0.023883777 0.065632164 0.079269744 -0.12607472 -0.187779 -0.04664789
0.00483173 0.08483995 0.16194822 -0.046001263 0.07205621 -0.23663208 0.15909614 0.13487728

fc2.bias f4 [256]
00000000: 1e05 9bbd c0df cb3d 0c47 a4bd 71b6 6fbd
00000010: f62b 6e3c 7fc7 a73c c781 9fbd a1c1 bb3b
00000020: db56 87bd 9bd1 0b3d fec9 973d 2637 8ebd
00000030: 61f4 a2bc cc8d 51bb 6ede 46bd 6001 a7bc
00000040: 927e d1bb 4e25 05bd 51f5 bcbc debe 5fbd
00000050: 4e77 a3bd 70e6 78bd 47f4 0abd ad5c ad3d
00000060: 542d fabd 88d3 663d 7dfe 66bd 558a e2bd
00000070: c73b 243d 87e0 16be 927d b9bd 5130 5cbd
00000080: 9468 a8bd 40fc 053d 61ea adbb e1b6 b2bd
00000090: 6e52 3c3d e7a3 9b3d e87e bc3b 6139 59bd
000000a0: e26b e5bd 1516 85bd 8e29 383d 14e0 f6bd
000000b0: 273f 03bc 4b73 4c3d 77f7 a1bd 482b 07be
000000c0: ddaf 31bc 0ec7 243a 7b04 01bd a183 cdbd
000000d0: b547 c3bd 44e1 64bb 6a8e 15bd c9b7 57bc
000000e0: 2d72 563e 799d d1bd 7ab4 a0bd 7855 0abd
000000f0: e1ff 9a3d 2773 80bc 981c 70bd de58 96bc
00000100: fa38 3bbd 60c7 a13b 5c17 f5bd 234d 13be
00000110: c82e 803d 59a4 133c 073c abbc da50 cb3d
00000120: 2106 c33d 79d3 93bd 6b3f 8fbd a709 fbbc
00000130: 71cb c7bd 2434 88bd 0178 0bbd 34f3 f63c
00000140: 1d83 353b 8987 7abc e97c 0dbe 272a ac3d
00000150: 9259 0b3e 0bba 0abe ae6e 103d 60f4 31bd
00000160: 7d5d b3bc 2bd9 c63d c8d6 abbd 1edc 7cbd
00000170: b3cd 553b 1487 f8bc e29c 683d c352 3abd
00000180: 86ce 00be 8165 bdbd 1670 99bd bcfe 553d
00000190: a01e 8cbc 723a 99bd 9a87 cfbc 6d1f 27bd
000001a0: 7497 b1bd c692 af3d 6680 9e3c cbc8 043c
000001b0: bc64 0abe 9a27 4fbd ac8c 903d 62c2 013d
000001c0: 3940 cebd 2be6 003e 0c9b 57bd 5e66 93bd
000001d0: fdcc 953d 5f7a cb3c c793 b2bc 42da d0bd
000001e0: ba53 f3bc 8160 8a3d 94e9 fabd 96a6 7dbd
000001f0: f26e 513d b675 62bd 82d9 05be 8ede 4f3d
00000200: f0c3 84bd 463f 4dbd b22f b03d bfe3 0abe
00000210: ede7 04bc f08f 90bc c8d5 52be b9dd 19be
00000220: 59f2 ccbc 80ba a2bd 15cb 85bd ba26 9f3b
00000230: 162a a9bc 5b68 ccbb e65d 5fbc d199 6ebd
00000240: eeaf 08bd 0eb8 77bd c6ba 783d 2b24 d6bd
00000250: fb91 adbd c23d e2bd b801 06bd 5244 b2bd
00000260: 43f7 823d 20ad 28be 2264 18be 9eee 53bd
00000270: 3a15 9dbd fbb5 88bd e1aa f8bd 1452 0d3d
00000280: 32d7 48bd d088 3bbd 4cd1 433d 1e09 903d
00000290: 0906 b4bd 612a 5fbd 6676 8fbd bda4 663b
000002a0: e567 993b 991f 45bd 0f61 d8bc aa37 35bd
000002b0: 4d4f ca3b 36b6 013c 8978 78bd a6c7 b3bd
000002c0: dbcb 71bd a0eb c0bd e030 34bc e214 87bd
000002d0: 9632 2cbd 0b55 d1bd cbcf 4cbd ab03 39bd
000002e0: 7607 d13c d7bc 9abd a960 84bc 405f 3fbe
000002f0: 2da9 a2bd 30a3 c2bb 3872 f03d 0c6f 98bc
00000300: 7c48 94bd ce96 eebd 7bda 623d b059 d53d
00000310: a9c8 a0bd 3a5b 98bd 2227 ef3d 7026 94bd
00000320: 40b5 b7bd 4bb5 f23c f4c1 8e3d 7576 d3bc
00000330: 782e 9ebb 39a9 8ebd a014 1bbe c57e acbd
00000340: bc82 9dbd 1f1a 90bd ceee 6bbd fa2f 95bd
00000350: 5c54 a63b 64ee f4bd 51ba debd b91a cfbd
00000360: a1d0 34be 3391 303e ebee b53b db6b 7dbd
00000370: f649 24bd f731 cdbd 1c5f 1dbd ad0e cdbd
00000380: d470 c6bd ad8d 39bd 25dc 10bd 5526 a33d
00000390: 2aea b2bd 01cb 37bd 2daf 4e3d efc3 97bd
000003a0: c197 59bd 4490 643c 7ee1 863d b29f 053e
000003b0: f9e8 b83d afe6 71bd f4d1 333d 3627 49bc
000003c0: c77f 87bd eac8 33bd c34c ddbd d42d 10be
000003d0: 0ca9 b23d 8307 79bd b1d9 5abc b9c7 e7bd
000003e0: 7c7b 2dbe c455 2c3e 6bbf 2abd 1aa8 1739
000003f0: 2f26 5dbd be70 b03d fd33 9a3d 09b3 cfbc
-0.075693354 0.09954786 -0.080213636 -0.0585236 0.014536848 0.02048087 -0.07788425 0.0057298695
-0.06608363 0.034135442 0.07411574 -0.069441125 -0.01989192 -0.0031975387 -0.04855197 -0.020386398
-0.006393262 -0.03250628 -0.023066195 -0.054625385 -0.0798174 -0.060766637 -0.033924367 0.08464942
-0.12215677 0.056354076 -0.056395043 -0.11061541 0.04009607 -0.14734088 -0.09057154 -0.053757016
-0.08223072 0.032711267 -0.005307481 -0.08726288 0.04597705 0.07599621 0.005752433 -0.053033236
-0.11202218 -0.064983524 0.044961505 -0.12054458 -0.008010662 0.04991464 -0.07908528 -0.13200104
-0.010845152 0.0006285765 -0.031498414 -0.10034872 -0.095351614 -0.0034924308 -0.03651277 -0.013166376
0.20941992 -0.10235114 -0.07846923 -0.033772916 0.07568336 -0.015679909 -0.05862102 -0.018352922
-0.045708634 0.0049370974 -0.11967346 -0.14384894 0.06258923 0.0090113515 -0.020902647 0.099275306
0.09522653 -0.072180696 -0.06994518 -0.030644251 -0.097556 -0.0665057 -0.03404999 0.030145265
0.0027696558 -0.015291103 -0.1381718 0.084064774 0.13608387 -0.13547532 0.035261802 -0.043445945
-0.021895165 0.0970939 -0.08390576 -0.061733358 0.0032623827 -0.030337848 0.05679024 -0.045489084
-0.12578782 -0.09247876 -0.07492082 0.052244887 -0.017104447 -0.07481851 -0.025333215 -0.040801454
-0.086714655 0.08572917 0.019348335 0.008104513 -0.1351499 -0.050574876 0.07058081 0.03167952
-0.10070843 0.12587802 -0.0526381 -0.07197259 0.07314489 0.024838625 -0.021798981 -0.101978794
-0.02970301 0.06756688 -0.12251583 -0.061926447 0.051131196 -0.05528804 -0.13071254 0.050749354
-0.064826846 -0.05010917 0.08602847 -0.1356344 -0.008111936 -0.01764676 -0.20589364 -0.15025987
-0.025017904 -0.07945728 -0.065328754 0.0048569115 -0.020649951 -0.006238026 -0.013633227 -0.05825216
-0.033370905 -0.060478263 0.060724996 -0.10456117 -0.08475109 -0.110469356 -0.032716483 -0.08704437
0.06394818 -0.16472292 -0.14881948 -0.051741235 -0.07670064 -0.06675335 -0.121419676 0.034502104
-0.04903335 -0.04578477 0.047807023 0.07032989 -0.087902136 -0.054483775 -0.070050046 0.0035193407
0.0046815746 -0.048125837 -0.026413469 -0.04424254 0.006174004 0.007916978 -0.060661826 -0.08778314
-0.059032302 -0.09419942 -0.010997981 -0.0659578 -0.04204043 -0.10221299 -0.050002854 -0.045169514
0.025516253 -0.075555496 -0.016159372 -0.18688679 -0.07942424 -0.0059398636 0.117405355 -0.018607639
-0.07240388 -0.116498575 0.05538414 0.10417497 -0.07850773 -0.07439275 0.11677386 -0.07233894
-0.089701176 0.029627463 0.069705874 -0.02581332 -0.004827317 -0.069658704 -0.15144587 -0.08422617
-0.07690951 -0.07036232 -0.05760079 -0.072845414 0.0050759744 -0.11959532 -0.10875381 -0.10112519
-0.1765771 0.17242889 0.005552163 -0.061870437 -0.040109597 -0.10019296 -0.03842078 -0.10012565
-0.09689489 -0.04530113 -0.035366196 0.07966296 -0.087360695 -0.044871334 0.05046003 -0.07410418
-0.05312324 0.013950411 0.06585978 0.130492 0.09028811 -0.059057888 0.0439014 -0.012277415
-0.066161685 -0.04389278 -0.10805657 -0.14079982 0.087236494 -0.06079818 -0.013357566 -0.11317391
-0.16941637 0.16829592 -0.041686457 0.00014463105 -0.053991493 0.08615254 0.07529447 -0.025353925
