Project3_collaboration_and_competition/ddpgCritic2_Model.pth (torch_old, 321965 bytes, 9 tensors)

fcs1.weight f4 [256, 48]
000000 c7 5b cd 3c fd 2a e3 3a 88 de 14 3d e6 0e 13 bd
       0.025068177 0.0017331537 0.036345035 -0.03590288
000010 44 ae 0c bc ba 80 4f bd 9a b9 19 3d 24 c6 40 bd
       -0.00858647 -0.050659873 0.03753052 -0.04706396
000020 4b 5e bb 3c d5 36 1c bd cd fc 64 3d 88 1f a8 bd
       0.02287211 -0.03813823 0.055905152 -0.08209139
000030 35 9c 62 bd fb 70 f5 3b 93 5b fe 3c 2c 25 67 bd
       -0.055324752 0.007490275 0.031049525 -0.056431934
000040 75 9d 88 bd 9c 8f 3b bd e3 79 b8 bc 25 ce c1 3c
       -0.066706575 -0.045791253 -0.022519058 0.023657868
000050 ae 8a 90 bc c1 a5 11 3d 6d 92 38 3d b0 91 c0 3c
       -0.017644253 0.035558466 0.045061518 0.02350697
000060 27 d3 17 3d 30 97 6a 3c 71 a1 3a bd f7 73 9a bd
       0.037066605 0.0143182725 -0.04556412 -0.0754165
000070 ba 54 a7 3d 2d ca 02 bd 27 23 13 3d c7 f0 4f bd
       0.08170457 -0.03193109 0.035922196 -0.050766733
000080 cb b1 95 3c e7 f8 79 bc be 19 41 3d 1c b3 78 bd
       0.018273255 -0.015257097 0.04714369 -0.060717687
000090 00 b2 75 bc b8 e5 a1 3d 2b ec 59 3d f9 9b da bd
       -0.014996052 0.079051435 0.053203743 -0.10674281
0000a0 be 87 34 3c c6 94 cd bd c4 58 4f bd 0d 26 b0 3a
       0.011018692 -0.10038142 -0.050621763 0.0013439074
0000b0 10 c9 97 3d cf f8 75 bb c2 8e 0c bc 10 13 fc 3c
       0.074113965 -0.0037532335 -0.008578958 0.030770808
0000c0 ff 3d 56 bc 00 3c 7e bd 08 f0 2e 3d b1 ee 88 3d
       -0.013076304 -0.06206894 0.04270938 0.06686152
0000d0 9a 69 7b 3d 26 56 ce bd 26 97 33 bc 9c 88 fc bc
       0.061380006 -0.10075025 -0.01096133 -0.03082686
0000e0 44 8c 6c 3d ee ea bc bd 2a 4a 9e 3b 50 80 99 bd
       0.057750955 -0.09224497 0.0048306184 -0.07495177
0000f0 00 db 5c 3c e9 c5 96 bd 51 33 a6 bc ae 0a a7 bd
       0.013479948 -0.07361967 -0.020288141 -0.08156334
000100 56 2f 6a bd a5 33 7a bd e2 da 8e 3c 14 85 09 3d
       -0.05717405 -0.06108441 0.017438356 0.03357418
000110 c3 96 72 bc 5b 5f 0f 3d f0 50 b9 bc d5 9d ff bc
       -0.014806452 0.035003047 -0.022621602 -0.03120319
000120 ba bb 41 3c 18 c6 28 bc 18 70 95 3c 8c ea c0 3c
       0.011824543 -0.0103011355 0.018241927 0.02354934
000130 c0 df bf 3c 7d a6 2e be 83 e2 8a bb f2 d2 92 3d
       0.023422122 -0.17055698 -0.004238428 0.07169141
000140 b0 d8 44 bd 58 66 ce bc ae fa f0 bc 40 16 6c bd
       -0.04805821 -0.025195286 -0.029416408 -0.057638407
000150 b0 90 96 bd e5 7a 17 be 3e 68 ef 3c bf 00 19 bd
       -0.07351816 -0.14792974 0.029224511 -0.037354227
000160 99 9c c8 bd 01 ba c8 3d 93 f4 ac 3a 8b 90 57 3d
       -0.09795494 0.098011024 0.0013195447 0.05262808
000170 1f a5 e2 bb 7a bb 2b 3d 76 d2 ae 3b d6 63 15 3c
       -0.0069166566 0.04192684 0.0053351475 0.009118041
000180 77 c2 c7 3c c5 ec 17 bd a5 61 b5 3c a3 31 98 3d
       0.02438472 -0.037091035 0.022141287 0.074313425
000190 21 23 95 bd 27 ee 89 3d ab 90 75 bd 1b 2f 3c 3c
       -0.07282091 0.06734877 -0.05995242 0.01148584
0001a0 7f 22 12 3d ff f6 ad bb 10 5b 6e 3d f3 3c dd 3c
       0.03567743 -0.0053089852 0.058192313 0.027006602
0001b0 46 63 22 3c 52 29 0d 3d 70 f2 5c 3a 0e 41 b0 ba
       0.009911364 0.034463234 0.000842846 -0.0013447122
0001c0 72 1f 0d 3d 7c a3 64 3d be 99 3b 3d ac 55 ab 3d
       0.034453817 0.055819973 0.045800917 0.0836595
0001d0 cc 34 70 3d ab be 76 bd cf a9 cb 3c 60 a3 bb 3c
       0.0586441 -0.06024043 0.024861244 0.022905052
0001e0 2e e8 ba 3b ee 80 17 bc 9d 4b 3e 3b d6 61 11 3d
       0.0057039475 -0.009247048 0.0029036768 0.035493694
0001f0 5a ed b7 3d ef 85 f6 bc 79 0c e1 bc bf 9e 34 bd
       0.08980818 -0.030093161 -0.027471768 -0.044096705
000200 69 e0 96 3d 6b c0 92 bc f5 f0 27 bd ef c4 94 3c
       0.073670216 -0.017914018 -0.04100128 0.018160312
000210 89 89 0b 3b d5 76 e7 bc bd bd 10 bd 58 0b b5 bc
       0.0021291694 -0.028254906 -0.0353372 -0.022100136
000220 b4 1d ad 3d 5e 22 0a be 69 bc b4 bb 37 b3 de 3d
       0.08452931 -0.13489673 -0.0055156243 0.10874026
000230 32 c4 3f bd 7a 3f b3 bd fc b9 ab 3d 37 4d ad 3d
       -0.046817966 -0.087523416 0.08385083 0.08461993
000240 6c 57 2b 3d 85 8a fc bd 1a 2c 1a bd 55 70 5f bc
       0.04183142 -0.12331108 -0.037639715 -0.013637622
000250 8f e9 2d bb 86 9a 06 3d 26 1a 4d bd 18 89 c4 bc
       -0.0026536917 0.03286221 -0.050073765 -0.023991153
000260 9b d3 18 bb b2 67 ab bd b9 7a f7 3c 57 7b 9d bd
       -0.0023319486 -0.08369388 0.030209886 -0.07689541
000270 2c ea 83 3d 62 a4 13 3b 44 2d ff bb 07 d1 b2 bd
       0.06441149 0.00225284 -0.0077873785 -0.08731275
000280 4f 98 31 3d df 77 29 bd d7 80 62 3d d4 eb 35 bd
       0.043358143 -0.041374084 0.055298652 -0.044414356
000290 79 d0 8c 3d 4e 89 6f 3d 45 2c 42 bb fe 05 a1 bd
       0.068757005 0.058480553 -0.0029628437 -0.07862471
0002a0 8c 57 a1 3d e7 e9 a0 3c a2 91 5f bc 36 dc 55 bd
       0.07878026 0.019642783 -0.013645561 -0.052211963
0002b0 44 c2 ff 3c 97 48 76 bd e8 bb b9 3c 21 3f a3 bd
       0.031220563 -0.06012782 0.022672608 -0.07971025
0002c0 19 e0 6a 3b f9 46 29 bd 89 09 15 bb 53 fc 94 bd
       0.003583914 -0.04132745 -0.002274128 -0.072746895
0002d0 79 03 5e bd d8 73 51 bc 1f 11 c2 bc 03 b2 48 bd
       -0.05420253 -0.012783967 -0.023689805 -0.04899789
0002e0 84 93 c7 bc 24 be 52 bd db 3b 24 3c ed f6 31 bd
       -0.024362333 -0.051450863 0.010024036 -0.043448377
0002f0 3d 78 7e ba bd f5 51 bd 2c d3 18 3d 49 fc 1a 3d
       -0.0009707248 -0.051259745 0.037310764 0.037838254
000300 6b 4b e8 3c 6b 6f a1 bd ed f2 da bb 2b 51 bd bc
       0.028356275 -0.078825794 -0.006681791 -0.023109993
000310 fa d4 7f bc 1b 98 95 3d d7 72 a4 3c 83 f9 82 3c
       -0.015614742 0.073044024 0.020074291 0.015988117
000320 d2 07 49 3d 31 ca be bc 2a 37 33 3c cf 4a e5 3c
       0.049079724 -0.023289772 0.010938445 0.027989773
000330 62 b2 59 bc aa d1 1f 3d 26 8a 2c 3b 4b d6 ba 3c
       -0.013287159 0.03901831 0.002632746 0.022807261
000340 fc d1 f0 3c a3 e9 e6 3c 53 5f 33 bd cc cf ac 3c
       0.029397003 0.028187579 -0.04379208 0.021095179
000350 b8 4e fe 3d 62 8a 58 3d 4b 8c 5d 3d b9 dd fb 3c
       0.12417358 0.052866347 0.054088872 0.030745374
000360 41 76 3e 3d d5 86 b1 3b e4 e4 38 bd 42 fd a2 bd
       0.046499494 0.0054176846 -0.045140162 -0.07958461
000370 75 5c 72 bc a2 c2 41 bc 02 2c 15 3d d9 56 95 bb
       -0.014792551 -0.011826189 0.036418922 -0.004557472
000380 65 47 ea 3d 56 65 84 3d 50 77 5f 3c bf 57 3a bd
       0.11439399 0.06464641 0.013639286 -0.045493837
000390 4e 9d 3d bc bc 15 0f 3d 99 04 03 bd 9f a9 7e bd
       -0.011573149 0.034932837 -0.031986807 -0.062173482
0003a0 50 a8 aa 3d 2e 81 a8 3c b1 77 9e bc 3d 43 41 bd
       0.08332884 0.02056941 -0.019344183 -0.047183264
0003b0 4f d4 0f be 90 5d b2 3b 67 fa ce 3c 47 ff 69 bd
       -0.14045833 0.0054432824 0.025265886 -0.057128217
0003c0 26 51 00 3b e8 b4 2c bd 1d 43 9b 3c 60 9a 9c bd
       0.0019579618 -0.042164713 0.0189529 -0.07646632
0003d0 95 5a 80 3d 95 30 8a bd 18 48 ac bc 26 1b 29 ba
       0.06267277 -0.067475475 -0.02103047 -0.0006450884
0003e0 73 a7 97 bc ef 9c 0f 3c ef 77 51 bd 1c 5b 16 bc
       -0.018512463 0.008765443 -0.05113977 -0.009176996
0003f0 1e a2 1e bc aa d7 93 bd 37 20 1a 3d fe ff c7 3c
       -0.009682206 -0.07218869 0.03762838 0.024414059

fcs1.bias f4 [256]
000000 fe 3a 1c 3d dc fe b1 bb f6 4f bd bc 97 35 07 be
       0.038142197 -0.005431993 -0.023109417 -0.13204037
000010 85 03 70 bd 9b dc 38 3b e5 1d 81 bd f5 b0 b8 3d
       -0.058597106 0.0028207663 -0.0630453 0.09018127
000020 17 11 63 bd dc ea 46 bd bc e8 fe bd a6 af ac 3d
       -0.05543622 -0.048563823 -0.12446734 0.0843194
000030 26 0a 23 3e 0c 0f 07 3e 52 9c 09 be b7 52 c0 bc
       0.1592184 0.13189334 -0.13438538 -0.023476942
000040 19 a8 56 bd 1d 2d 67 bd 87 c7 fa bd b7 9b c3 3d
       -0.052406404 -0.056439508 -0.12245088 0.095511846
000050 2c bd d6 3d 0b 24 c5 bd 37 ad 96 3d 2e d3 b7 bc
       0.104853004 -0.09626015 0.07357257 -0.022439566
000060 fb 0a b1 3d 53 f1 20 3b 7b 55 bd 3c df 12 c5 bd
       0.086446725 0.0024557903 0.02311205 -0.0962274
000070 0d 5c a8 bd 69 9c 37 be 2d a3 1c be 8f aa cb 3d
       -0.08220682 -0.1793076 -0.15296622 0.09944641
000080 2d f4 1a 3e 4e 2f 1c 3e 95 fa d9 3d 29 19 b4 bd
       0.15132208 0.1525242 0.10643498 -0.087938614
000090 0a 94 bf bd 91 cb 0d 39 12 b8 43 be f6 b7 84 bd
       -0.09354408 0.00013522642 -0.19113186 -0.064804
0000a0 cf f3 87 3d 79 0b c5 bc 1b f6 39 3d f1 9c 38 3d
       0.066383 -0.024053322 0.04540072 0.045071546
0000b0 c5 54 78 bd 87 73 44 bc 75 31 86 3c 7f 45 a9 bd
       -0.060627718 -0.0119904345 0.016381005 -0.082652085
0000c0 84 f5 c6 3d 73 63 00 3e af d6 e7 bd 1c 37 7a bd
       0.09714797 0.12537937 -0.113202445 -0.061087713
0000d0 80 a6 18 bd 25 18 11 3c 54 40 87 bd a2 4c 07 bb
       -0.03726816 0.008855854 -0.066040665 -0.0020645042
0000e0 7b 6c 3b 3d d4 a3 48 3d c9 2a 8a b9 38 1d 8b 3d
       0.045757752 0.048984364 -0.0002635329 0.067926824
0000f0 35 ba a7 3d 37 e8 ad bd 0d d1 d6 bd 9c e2 58 3d
       0.08189813 -0.08491557 -0.10489092 0.052950487
000100 9b 4e d5 3d b6 b0 39 bd 65 13 1c be 03 85 c0 bd
       0.104153834 -0.04533454 -0.15241773 -0.0940037
000110 e7 df fe bd 28 79 6a 3d 16 4b f5 3d 12 41 de bd
       -0.1244505 0.05724445 0.11977212 -0.10852255
000120 da d1 fc bc 24 63 cd 3d fd b8 b7 bc 0c 8f e5 3d
       -0.030861784 0.10028675 -0.022427076 0.11208925
000130 fa 06 19 bd 73 d4 82 bc 9f dc f8 bd 09 9d 17 be
       -0.03736017 -0.015970444 -0.12151455 -0.14805998
000140 06 1f e4 3c 1a 0b 15 3e 90 8e 4e 3d 8e 59 93 bd
       0.027846824 0.14555016 0.050428927 -0.071948156
000150 84 f7 c7 3d b2 74 0b be 45 83 43 be b7 4e b6 bc
       0.09764007 -0.13618734 -0.19093044 -0.022254331
000160 bc fb 57 3d c7 64 f2 3d 93 f2 2f be 50 03 20 bd
       0.052730307 0.11835628 -0.17182378 -0.03906566
000170 7e 92 f3 3d 6a 92 a0 3c d3 e2 e3 bc ef a5 e7 bd
       0.118931755 0.019601066 -0.02781812 -0.11310946
000180 cd ea f5 3d 1f 66 5c 3d bd 2f 38 3d 56 fe 56 3c
       0.12007675 0.053808328 0.0449674 0.013122162
000190 17 00 f4 bd de f9 5c be 49 09 cb 3d 66 22 ee 3c
       -0.1191408 -0.21579692 0.099138804 0.029069137
0001a0 45 df c7 bc ed da 62 3c b4 2e 4e bd 0e 14 0b be
       -0.024398455 0.013846141 -0.05033751 -0.13581869
0001b0 68 aa 64 3d e4 28 40 bc 89 16 4c be bb d3 15 bd
       0.055826575 -0.011728499 -0.19930471 -0.036578875
0001c0 fe 48 4d 3d ac a0 d3 bd 4f a3 c1 bd 33 20 14 bd
       0.05011844 -0.1033338 -0.09454977 -0.03616352
0001d0 48 70 22 be 57 36 32 3d c9 3c 18 be 38 a5 b3 bd
       -0.15863144 0.043508854 -0.14866938 -0.08771747
0001e0 bf 7b 26 bd 83 50 98 bd 74 ea 0b be e3 06 98 bd
       -0.040645357 -0.074372314 -0.13663656 -0.074231885
0001f0 8a 9f df bd b7 2a 80 3d 65 d9 2a be 97 30 d0 3d
       -0.109191015 0.06258147 -0.16684492 0.10165518
000200 dd fe 22 3e 9f 86 2d bc 47 4f ea 3c 44 5c ad bd
       0.15917535 -0.010591178 0.028602256 -0.08464864
000210 8b 96 d5 bd 36 ef 92 bd a6 29 18 3d ed ef b2 3d
       -0.104291044 -0.07174532 0.037149094 0.087371685
000220 ec 24 5e bd 89 75 91 bd 40 f5 42 3d 56 82 ba bd
       -0.05423443 -0.07102496 0.04759717 -0.09106891
000230 f6 16 95 bd df 1c 1a be ac 4b f3 bd ac 30 aa bd
       -0.0727977 -0.15050076 -0.11879668 -0.08310065
000240 1e c5 10 3e da 2d 1c 3d 63 be 62 3d 04 f3 f3 3d
       0.14137694 0.038129665 0.05535735 0.11911586
000250 54 97 4a 3d 24 24 86 bc 55 d8 21 3c bc 2a bf bd
       0.049460724 -0.016374655 0.009878238 -0.09334323
000260 f0 4d 92 3d 2a 85 d4 3c e5 b8 63 3d 64 ee d3 bd
       0.07143772 0.025942404 0.05559625 -0.10348204
000270 1a 2b 36 bd e9 53 0c 3d 0c 6b 8a 3d ac c3 3b 3d
       -0.0444747 0.03425971 0.06758699 0.045840904
000280 e8 c2 b9 bd 38 68 89 3d 40 00 af bd eb 5e f0 bd
       -0.090703785 0.06709331 -0.085449696 -0.11736854
000290 c0 24 07 be 9b 8c 52 bd 88 1c c4 bd a5 dd 38 3d
       -0.13197613 -0.051403623 -0.095757544 0.04513325
0002a0 cb dd 09 bd c9 e4 a0 bd 8b 39 ad 3d 19 a6 44 3c
       -0.033658784 -0.07856137 0.08458241 0.012002491
0002b0 31 67 fb bc 47 04 c8 3d ff cf 83 3c 10 ae 83 3b
       -0.030688854 0.09766441 0.016090391 0.0040185526
0002c0 9b c3 e0 3d ce d5 bc bd d2 1d 10 3d 02 84 2e 3b
       0.10974809 -0.092204675 0.03518469 0.0026628976
0002d0 a1 59 08 bd 96 bd 7f 3d 95 a8 07 3b db 96 0d be
       -0.0332886 0.062436663 0.0020699848 -0.13827078
0002e0 28 83 1b be ab 87 f4 bd c2 43 21 3e b6 a2 d4 3d
       -0.15186751 -0.11939939 0.15748504 0.10382597
0002f0 7a f1 94 bc 8d b4 6c 3d db c8 57 bc c5 a1 0a 3e
       -0.018181551 0.057789374 -0.013170446 0.13538273
000300 8c e4 06 3a 47 a2 c6 3d 10 5d 60 bd 7d b8 22 3d
       0.00051457505 0.09698921 -0.05477625 0.039726723
000310 ee 29 f7 bd 33 f1 04 be c2 98 51 bd 98 0b d9 bd
       -0.12068544 -0.12982635 -0.05117107 -0.105979145
000320 ef d7 5a 3d ef e8 9b 3d 68 11 f7 3b 3c cb 2a be
       0.053428587 0.07612788 0.007539917 -0.1667909
000330 0e c4 5c 3d d1 2a e2 3d ed 45 5c bd b0 fc 7e be
       0.05389791 0.11043323 -0.053777624 -0.2490108
000340 3e 0f 1b bd 6e 23 59 3e bd de 12 be 98 1b 1d be
       -0.037856333 0.21204922 -0.1434278 -0.15342557
000350 0c 2f fd 3d ec 1a b9 3d 5b c9 c7 bc 7d d1 25 3e
       0.12362489 0.09038338 -0.024388006 0.16193195
000360 fd f0 fe bd f3 97 af 3d 81 00 26 be 20 a5 eb bd
       -0.124483086 0.08573904 -0.1621113 -0.115061045
000370 af 0d cf 3d 34 36 14 be 53 60 13 be 4d a3 28 bd
       0.10110032 -0.14473802 -0.14392214 -0.04117136
000380 4f d7 0d 3e 08 b0 43 bd 76 ba 17 be a8 2f 6f 3d
       0.13851665 -0.0477753 -0.14817223 0.058395058
000390 1e 45 af 3d dd 23 dd bd 1f 5e 9c bd 00 fe d9 3c
       0.08558105 -0.10797856 -0.0763514 0.026610374
0003a0 2e 41 f1 bc 97 cb e9 bd 56 79 43 bd f6 04 3e bc
       -0.029450025 -0.11415785 -0.047723137 -0.0115978625
0003b0 67 1a d7 bb 52 f7 a7 3d 4b 6e e1 3d 47 63 4d bb
       -0.0065644267 0.082014695 0.11007365 -0.0031339691
0003c0 d7 cf 9a 3d a2 be 1f be 6d 36 73 3c b1 d6 8e bb
       0.075591736 -0.15600064 0.014844519 -0.0043590893
0003d0 64 18 f2 bd 9a e8 3e bd 5e 05 92 bd 81 01 41 be
       -0.118210584 -0.046608545 -0.0712993 -0.1884823
0003e0 21 f0 0d bc 75 b5 04 3e 30 f9 46 be 7a 82 78 bd
       -0.008663208 0.12959845 -0.19430995 -0.060671307
0003f0 2a 04 79 bd 33 97 7d bd c8 37 3f 3d 08 7e f1 bd
       -0.060794987 -0.061911773 0.046684057 -0.11791617

bn1.weight f4 [256]
000000 8d a8 52 3f 75 17 af 3d 6d 9a c4 3e 94 2c 24 3e
       0.8228844 0.08549396 0.38399068 0.1603263
000010 59 cd 6e 3e 37 94 4c 3f 67 1b ad 3e f4 b4 2e 3f
       0.23320521 0.7991366 0.3380997 0.6824486
000020 8a 2e a7 3e 3c 8c 0b 3f d3 5a 90 3e 33 92 40 3f
       0.32652694 0.54510856 0.28194293 0.7522308
000030 35 f5 a0 3c 0b 2c e8 3e d3 89 56 3f cb 70 02 3e
       0.019648174 0.45346102 0.83804053 0.1273834
000040 60 2e ba 3e 8d cc e5 3e ec 46 57 3f 80 80 ec 3e
       0.36363506 0.44882622 0.84092593 0.46191788
000050 24 37 c0 3d 9e ef fb 3d 2d f1 fb 3e e7 ba 4f 3f
       0.09385517 0.12301563 0.4920744 0.81144565
000060 35 88 bf 3c 3b 68 fe 3d 9c f1 0f 3e 68 43 a6 3e
       0.023380378 0.12422224 0.1405701 0.32473302
000070 89 79 f8 3e 1b 27 24 3f b1 b3 d0 3d fc 25 c9 3e
       0.48530224 0.6412217 0.101905234 0.39286792
000080 a7 fb f6 3e 7e ab 04 3f 13 65 30 3f c6 87 e3 3e
       0.4823887 0.51824176 0.68904227 0.44439524
000090 20 9a 85 3e 64 43 3a 3e ef 80 e2 3d 27 ef ee 3e
       0.2609415 0.1818977 0.110597484 0.46666834
0000a0 fc 2e 60 3f 68 80 ee 3e 8d 96 43 3f 86 37 5b 3f
       0.8757169 0.4658234 0.764016 0.856316
0000b0 0d 6d 0a 3f 31 59 87 3e c5 1f 23 3f 17 b0 12 3f
       0.5407265 0.26435235 0.6372035 0.5729994
0000c0 d6 38 c3 3e 90 aa a0 3d 68 69 ef 3d a6 c8 4a 3f
       0.381293 0.07845032 0.116900265 0.79212415
0000d0 49 92 d4 3e 9d 48 5f 3f ac 42 d7 3d 92 a2 69 3e
       0.41517857 0.87220174 0.105107635 0.22815922
0000e0 e2 54 bf 3e 66 2a 5b 3f 29 10 00 3f 95 a6 99 3e
       0.37369448 0.8561157 0.5002466 0.30009905
0000f0 78 a6 33 3f 2a 1f 24 3f 3a 21 41 3e 12 af 80 3f
       0.70175886 0.6411005 0.18860331 1.0053427
000100 b3 bb 46 3f d3 f7 08 3f b9 b2 c4 3e a3 8d 62 3f
       0.77630156 0.5350315 0.38417605 0.8849737
000110 62 21 e7 3e 68 d0 c9 3e 40 49 18 3f 22 68 51 3f
       0.45142657 0.39416814 0.5948677 0.8179952
000120 6a 3e bc 3e 7d de 27 3f ed c9 85 3e 72 fa 86 3e
       0.36766368 0.65573865 0.2613062 0.2636295
000130 6b 0e ed 3e 64 4e e6 3e e7 b7 ff 3e ec 2f 6a 3d
       0.46300063 0.44981682 0.49944994 0.057174608
000140 b5 26 00 3e aa 2b e7 3e 70 b9 0f 3f d9 26 a5 3d
       0.12514766 0.451505 0.5614233 0.0806405
000150 7f ee f2 3d 93 a4 fc 3d 55 5e 74 3e 47 96 58 3f
       0.11861896 0.123360775 0.2386411 0.84604305
000160 bc ae 45 3f d4 85 50 3f 4f 69 64 3f 6c 7b 1c 3f
       0.7721975 0.81454206 0.8922319 0.61125827
000170 6f 09 69 3e 36 10 5b 3d 97 85 7d 3e 5b 5d 9a 3d
       0.22757505 0.053482257 0.24757992 0.075373374
000180 02 8a 4b 3f 2f e4 7e 3e 9e 92 2e 3f 7c e4 b9 3e
       0.7950746 0.24891733 0.6819247 0.36307132
000190 53 6c 6e 3e ca a9 18 3f d5 42 9b 3e b0 b4 e2 3e
       0.2328351 0.5963408 0.30324426 0.4427848
0001a0 b6 67 0e 3f 41 6e b2 3d b2 27 28 3d 81 7e 52 3f
       0.55627 0.087124355 0.04105348 0.8222428
0001b0 78 1d 04 3f e4 06 c7 3e 71 e8 35 3f 59 b9 cc 3e
       0.51607466 0.38872445 0.710578 0.3998516
0001c0 94 44 0d 3f 5b 1b 56 3e 41 2b 18 3e a3 83 18 3f
       0.55182767 0.20908873 0.1486025 0.5957586
0001d0 4b de 08 3f ce 5a ad 3e ac ab de 3e 6c d0 17 3f
       0.5346419 0.3385834 0.4349035 0.593024
0001e0 25 ad 46 3f e0 84 31 3f 5f 0b 4d 3e 40 e7 79 3e
       0.7760795 0.69343376 0.20023869 0.24404621
0001f0 96 cc aa 3e 39 c6 aa 3e 6b 97 bb 3e 5d e8 e3 3e
       0.33359212 0.33354357 0.3663896 0.44513217
000200 24 4f 36 3f c7 de 1f 3e 84 fd 4b 3f e4 a8 40 3f
       0.7121451 0.15612327 0.7968371 0.75257707
000210 04 dc 53 3f 5a b8 4a 3f e6 58 1c 3f 98 c6 be 3d
       0.8275759 0.7918755 0.6107315 0.093152225
000220 22 03 42 3f ed 60 4f bd 69 67 e8 3e 5f 95 6a 3f
       0.7578603 -0.050629545 0.45391396 0.9163417
000230 40 8e f8 3e a9 e8 f1 3e 06 b0 3e 3e b1 e9 01 3e
       0.48546028 0.47247818 0.18621835 0.12686802
000240 ff 20 f9 3e e7 e8 1c 3f ad f2 a8 3e e9 b9 09 3f
       0.48657987 0.6129288 0.32997647 0.537993
000250 c1 60 e5 3e 79 8b 29 3e e6 86 14 3f 40 02 1d 3e
       0.4480038 0.16557111 0.5801834 0.1533289
000260 94 1e 2c 3f 01 f4 59 3e 63 e1 3e 3f 7a a9 3e 3f
       0.6723416 0.21284486 0.7456266 0.7447735
000270 f8 68 65 3f 1d b3 2d 3e a3 e3 32 3f b4 7f 18 3f
       0.89613295 0.16962858 0.69878596 0.5956986
000280 c8 1c 10 3d a2 9a 3f 3f 63 2a 63 3f d3 65 2f 3f
       0.035183698 0.74845326 0.8873655 0.68514746
000290 64 37 c0 3d a7 1a c7 3e 55 f7 ff 3e 46 98 5f 3f
       0.09385565 0.38887522 0.49993387 0.87341726
0002a0 6b 70 86 3d f2 90 1a 3e 90 31 47 3f e3 6a 13 3f
       0.06564411 0.15094355 0.7781 0.5758497
0002b0 68 1d 93 3e e8 97 f0 3d 29 64 ca 3e 91 c8 2f 3f
       0.28733373 0.11747724 0.3952954 0.68665415
0002c0 2b 39 4a 3f 7d 1f db 3e b5 0c 39 3e 16 d6 0f 3f
       0.7899348 0.4279746 0.18071254 0.56186044
0002d0 74 45 3e 3f 8b 7d 17 3e a8 ed 02 3f f5 e9 21 3f
       0.7432473 0.14793985 0.51143885 0.63247615
0002e0 62 e7 f8 3e 7f b9 08 3e 13 b3 32 3e 5c eb a9 3c
       0.4861403 0.13352011 0.17451124 0.02074211
0002f0 50 5f c3 3e 0b e8 31 3f 47 27 db 3e e7 74 3c 3f
       0.38158655 0.69494694 0.42803404 0.7361588
000300 28 dd 03 3e 6c f9 63 3f c3 74 99 3e 70 db 30 3e
       0.12877333 0.8905246 0.29971895 0.17271209
000310 55 bb 4d 3f 79 51 9d 3e 33 1c c3 3e d3 ea 19 3f
       0.8036397 0.3072622 0.38107452 0.6012394
000320 1d 49 cf 3e 2c 61 bd 3e 66 9e 27 3f 60 87 66 3f
       0.40485469 0.369882 0.6547607 0.90050316
000330 0c bf 3e 3e d7 14 fb 3e 53 f2 f0 3e f6 e0 2f 3f
       0.18627566 0.49039337 0.4705988 0.6870264
000340 05 f3 26 3f b5 c4 75 3f 27 15 db 3e 1e 72 4a 3e
       0.6521457 0.96003276 0.42789575 0.19770095
000350 36 5b 1b 3f 5d 6c 20 3e b7 ac a9 3c 77 12 9d 3e
       0.6068605 0.15666337 0.02071224 0.3067815
000360 85 1a 78 3e 80 5f 2f 3e 1c d7 31 3f e0 34 10 3f
       0.24228866 0.17126274 0.69468856 0.5633068
000370 4a 8d 37 3f 5d f2 05 3f cc 7c 18 3f c2 b6 55 3f
       0.71699965 0.5232294 0.59565425 0.8348199
000380 e8 9b 31 3f 9d 54 f9 3d 89 b7 62 3f eb a0 23 3f
       0.6937852 0.12174342 0.885613 0.63917416
000390 be 0e 88 3f c3 eb 45 3f aa c3 c5 3e da ea ee 3e
       1.0629499 0.7731287 0.38625842 0.46663553
0003a0 6b d1 15 3f ab cf c5 3d 50 80 85 3e a5 11 c8 3d
       0.5852267 0.0965875 0.26074457 0.097689904
0003b0 35 b1 03 3f 03 7d 18 3f 09 2e 37 3f 89 7d 3b 3d
       0.5144227 0.5956575 0.7155462 0.045774017
0003c0 a5 3a 49 3f 36 0f 2b 3f 32 9a ad 3e f7 66 11 bd
       0.7860511 0.66820085 0.33906704 -0.035498586
0003d0 9f ab cf 3e c7 a0 87 3e b7 11 7d 3e 53 af 90 3e
       0.40560624 0.2648985 0.24713789 0.28258762
0003e0 23 5d cd 3e 2a 15 a3 3e bf 8a fb 3e c2 25 30 3e
       0.4011012 0.31852084 0.49129292 0.17201903
0003f0 cb b8 19 3f b0 e1 6e 3e d5 d3 59 3e b7 c3 c9 3e
       0.60047597 0.2332828 0.21272214 0.3940713

bn1.bias f4 [256]
000000 7d 68 82 3e 74 0f 0c be f6 7f a8 3d 5e 60 9d 3d
       0.25470343 -0.1367777 0.082275316 0.07684396
000010 51 32 8e 3d 2f 87 a5 bd 09 3a 02 be 91 ce 78 bd
       0.06943191 -0.08082425 -0.12717451 -0.060743872
000020 85 06 63 3d e0 03 df 3d 55 13 54 3e 9f 4e ce bd
       0.05542614 0.10889411 0.207105 -0.100735895
000030 61 2e 25 be 77 6e 24 3e 57 29 a3 3d 7d 3a b9 bd
       -0.16130973 0.16057764 0.07966869 -0.09044359
000040 79 13 a1 3d c9 7e 3b 3e 16 ba e2 bd 7f b7 2f 3d
       0.07865042 0.18310083 -0.11070649 0.042899605
000050 cb a2 26 3e 1d 53 ca 3d 45 42 8e 3d 6a 86 75 3d
       0.16273038 0.09879134 0.06946234 0.05994264
000060 6d d1 26 be c9 2e 19 3d b0 64 a4 bd e6 d3 a5 3d
       -0.16290827 0.037398133 -0.08027017 0.08097057
000070 10 b0 cf bc 9f cb 23 3d b3 d3 60 3c ac d0 f2 3c
       -0.025352508 0.03998911 0.013722348 0.029640518
000080 9c a9 c0 3d 72 07 c6 bc d7 35 e3 3d 93 b7 f1 3c
       0.094073504 -0.024173472 0.110942535 0.02950648
000090 9f 93 80 bd 57 c9 cc bc 81 cd 67 ba 3c 78 71 3d
       -0.062781565 -0.02499835 -0.0008842573 0.058952555
0000a0 59 0f 90 3d 50 f5 75 bc a3 b9 af 3d 03 5a 0a be
       0.07034177 -0.0150121 0.08580329 -0.13510899
0000b0 80 85 2b 3d 20 43 8d 3d 11 85 f7 3c 65 72 7f bd
       0.041875362 0.06897569 0.030214818 -0.062364955
0000c0 30 b7 ef bd e3 8a 76 bd 35 07 cc 3d e7 ab a1 bd
       -0.11704862 -0.060191046 0.09962312 -0.07894116
0000d0 d7 bc 9c 3d 5b 45 2a 3d f8 2f ea 3d 12 03 20 be
       0.07653206 0.04157005 0.114349306 -0.15626171
0000e0 e3 b6 13 3d 32 46 01 3d d6 84 ca bd ee 44 63 3d
       0.036063086 0.031561084 -0.09888618 0.05548566
0000f0 f1 39 6f bd 33 d7 88 bd b2 36 17 bd 12 6e e4 3d
       -0.058404867 -0.06681671 -0.036917396 0.11153807
000100 a2 ba 42 3d fe 7d 71 3d d7 51 94 3d 3e e9 0e 3e
       0.04754127 0.058958046 0.07242172 0.13956162
000110 06 0e f8 bd 6a 69 c6 3d 6e 6c 0a be 3d 77 9a 3d
       -0.1211205 0.09688075 -0.13517925 0.07542274
000120 af 9d 1d bd 10 ad bc bd 04 6a 19 3d 79 05 11 3e
       -0.038480457 -0.092126966 0.03745462 0.14162244
000130 a3 ee e3 3c 72 61 85 bd 27 a8 c9 3d c0 1b 12 3e
       0.027823752 -0.06512727 0.09846526 0.14268398
000140 37 f1 17 be 23 fd b9 3d 4c 13 f8 bd 57 04 11 3e
       -0.1483811 0.09081485 -0.121130556 0.14161812
000150 90 2e fb 3d 95 d8 e4 bd 94 44 71 bd ac df 42 3d
       0.122647405 -0.11174122 -0.05890329 0.04757659
000160 dc 6a a8 3c ba ac 07 3e c1 58 f8 3d eb ea 9d 3d
       0.020558767 0.13249484 0.121263035 0.07710823
000170 f5 22 8f 3d 24 8b d5 3d a1 32 af 3d 76 b9 29 be
       0.069890894 0.104269296 0.085545786 -0.16574654
000180 7c 4f f7 3d 4e a3 e3 bc 24 2d 15 bd 38 75 a1 bd
       0.12075707 -0.02778783 -0.036420003 -0.07883686
000190 08 3b 39 bd d5 bc c4 3d 21 57 6e 3d 2f 51 4f 3d
       -0.045222312 0.09606329 0.05818856 0.050614532
0001a0 a5 25 9e bd 98 37 bf 3d 17 e9 d1 3d 2b 50 4b 3c
       -0.07722024 0.093367755 0.102495365 0.01240925
0001b0 bf 4c f9 3b a3 3e 72 3d a8 ea f7 bc 94 e9 83 3d
       0.007608026 0.059141766 -0.03026326 0.06441036
0001c0 46 cd 24 be 15 dc d8 3d bb 86 dd bd ff cf ec bd
       -0.1609393 0.10588852 -0.108167134 -0.115631096
0001d0 3f fa e6 3d 1a 9f 53 3d f9 1b 53 bb 71 94 f8 bd
       0.112781994 0.051665403 -0.0032212718 -0.12137688
0001e0 da 04 a3 bb ed 17 e7 bc e3 db 00 3e aa 81 ba bd
       -0.0049749436 -0.02820965 0.1258388 -0.09106763
0001f0 d6 25 c8 bd c2 fc 90 3c 1c ee 8c 3d 04 4f 9b 3d
       -0.09772842 0.01769865 0.06881353 0.075834304
000200 bf b2 85 3d 5b 97 ea 3c 78 87 f0 bd 2a 37 9c bc
       0.06528234 0.028636625 -0.117445886 -0.019069273
000210 fc 83 2e 3d 62 fd 1f 3d 60 b3 b0 3d 1d 5e 22 3e
       0.04260634 0.039060004 0.08627963 0.15856214
000220 11 6c 2b 3d 50 2c 26 3e b0 3a bd 3d ff 7c c4 3d
       0.041851107 0.16227841 0.092397094 0.095941536
000230 2b 96 ce 3d d8 dc 9e 3c 61 d9 dc bd 33 31 bb 3d
       0.10087236 0.019392416 -0.10783649 0.091402434
000240 8c 03 cf bd e2 fd db bc 51 40 b1 bd cf c6 ec 3d
       -0.101080984 -0.02685446 -0.086548455 0.11561357
000250 9b c7 9c bd 26 8d 5f bd f4 94 9c 3b 10 1a 85 3d
       -0.07655259 -0.05457797 0.004778499 0.06499112
000260 3c 1a 62 bc e9 47 91 bb 62 38 10 3e e7 68 01 3e
       -0.0138002 -0.004433621 0.14084008 0.12637673
000270 7e 6b 92 3c b8 91 ed 3c 79 47 94 bd 32 80 38 3c
       0.017873522 0.029000148 -0.07240195 0.011261033
000280 19 0c 0d 3e 92 32 61 3c f7 f3 a1 bc 2f 5a df 3d
       0.13774146 0.013744967 -0.019769652 0.10905873
000290 21 7f d2 bd d8 80 3b 3e be d2 d0 bc b9 4f 3f 3c
       -0.10278154 0.18310869 -0.025491115 0.011676722
0002a0 1c 09 87 3d 0d 4b 18 3e 32 1e 6f 3d 4f ea 92 3d
       0.06593534 0.1487238 0.058378406 0.07173597
0002b0 d5 57 c7 bd 56 df b8 3d ee 37 24 3e 71 2f bc bd
       -0.097335495 0.09026973 0.1603696 -0.09188736
0002c0 da 8b 9e bd f4 40 e4 3d 83 d5 4a 3e 3e be 67 3b
       -0.07741518 0.11145201 0.19808011 0.0035361196
0002d0 49 75 ed bd 4e a1 c0 bd a0 c6 01 be 1e b1 a0 3d
       -0.11594636 -0.094057664 -0.12673426 0.078462824
0002e0 7f bf 00 bd 92 9f 5c 3c 3f e1 28 be e2 47 e7 bd
       -0.031432625 0.013465779 -0.16492175 -0.112930074
0002f0 08 b5 f3 bd d1 4f a1 3d fc 63 14 3e 23 28 07 3e
       -0.11899763 0.07876552 0.14491266 0.13198905
000300 88 3e b7 3c 93 83 8e 3d 83 f1 92 3d 43 a2 b5 3d
       0.022368684 0.069586895 0.07174971 0.088688396
000310 66 40 a9 bd 44 e1 ec bd 0b 7a 3f bd be 2d d0 3d
       -0.08264236 -0.115664035 -0.04674725 0.10164975
000320 c6 e8 10 bd 6b 67 66 3d 18 46 04 3e b8 71 6d 3e
       -0.03537824 0.05625097 0.12917364 0.23187912
000330 bc 41 1f 3d a9 22 51 3d 0e 99 8a 3d 50 7c d6 3d
       0.03888105 0.051058445 0.06767474 0.104729295
000340 78 e1 fd bb 70 63 4e bd e9 d2 b8 bd 85 41 09 3d
       -0.0077478252 -0.0503878 -0.09024603 0.03350975
000350 ac ab 56 3d 15 6b cb 3d 03 c4 1e be 9b 89 ef 3d
       0.052409813 0.09932534 -0.1550446 0.11696168
000360 7e cd fc bd cf 65 30 3e ea 05 c8 3d 5d a0 de 3d
       -0.12343882 0.17226337 0.09766753 0.108704306
000370 90 18 bf 3d 81 a6 a9 bd d8 09 95 3d 5d c4 b8 bd
       0.09330857 -0.08283711 0.07277268 -0.09021828
000380 cb 50 bd 3d 32 77 bb bd 5e a2 8a 3c f4 74 1c bc
       0.09243926 -0.09153594 0.016923126 -0.009549368
000390 5f dd d1 3d 1d 9f 1a 3e f8 ac 94 3d f7 2b c1 3d
       0.10247301 0.1509976 0.07259554 0.09432214
0003a0 19 cc f9 bd bd 4e d6 3d f2 86 4c 3e 41 f4 84 3d
       -0.12197132 0.10464237 0.19973353 0.064919
0003b0 08 19 45 3d 4a ee ed 3d ee a5 7a bd 7a 59 05 3e
       0.048119575 0.11617716 -0.0611934 0.13022414
0003c0 2e df 19 bd a2 dc b3 bd 91 54 c0 3d 26 c7 16 3e
       -0.037566356 -0.08782317 0.0939113 0.14724407
0003d0 a2 5d 55 3d 76 d6 db 3d 5d b8 a9 3d d7 2a a7 bc
       0.05209125 0.107342646 0.08287118 -0.02040617
0003e0 c4 7c 2d 3d 0b 11 17 3e 7c 2d d3 bd 92 d2 47 3d
       0.042355314 0.14752595 -0.1031141 0.0487848
0003f0 0a 15 1e bc 38 0f 6d bd 24 06 fa 3d 32 3b 39 3c
       -0.009648571 -0.05787584 0.122082025 0.011305617

bn1.running_mean f4 [256]
000000 bb 15 c4 3f 36 78 03 3f 2a 8e b4 3e f6 61 00 3f
       1.5319132 0.513553 0.35264713 0.50149477
000010 79 c1 09 3e be 7f b9 3f 34 07 0f 40 a1 59 1b 3f
       0.1345271 1.4492109 2.2348146 0.6068364
000020 63 a3 26 3f 6c 06 32 3f 13 3e 19 40 b6 72 3b 40
       0.6509306 0.6954105 2.3944137 2.9288764
000030 35 0b 0c 40 89 4d 5e 3f a9 4a d6 3e 9a 6f 2c 3f
       2.188184 0.8683706 0.41853836 0.6735779
000040 79 ad ae 3f 4e 0a 46 40 89 af 28 3f ba 7f 14 3f
       1.364669 3.094379 0.65892845 0.58007395
000050 b5 83 db 3f 6b 79 31 3d 1f dd 9b 3f a1 c0 25 3f
       1.7149569 0.043328684 1.2176856 0.64747053
000060 b1 ac 38 3f eb cb a0 3f f3 aa 3f 3e 14 19 66 3e
       0.72138506 1.2562231 0.18717556 0.22470504
000070 3d 57 d3 3f 68 0e c0 3f 76 26 c9 3d e4 0d 48 40
       1.6510998 1.5004396 0.09821789 3.1258478
000080 f9 a2 c8 3e 16 0e aa 3f 01 1e 04 40 17 44 ae 3e
       0.39186838 1.3285549 2.0643313 0.34036323
000090 66 92 2c 3f 17 34 68 3f 74 15 e2 3d 83 dd 79 3f
       0.67410886 0.9070448 0.11039248 0.97603625
0000a0 91 37 31 3e cb d5 c2 3f f5 ee 89 3f 35 d7 1c 40
       0.17306353 1.5221494 1.0776049 2.4506352
0000b0 47 dd 70 3f ef c5 1b 3f ca 13 25 3f 69 f7 c5 3f
       0.9408764 0.608489 0.6448332 1.5466129
0000c0 28 ea fb 3e f7 9e 49 40 36 35 72 3f 68 fd a1 3f
       0.49202085 3.1503274 0.94612443 1.2655458
0000d0 e5 e8 86 3d 7f 60 17 3f 29 f2 6d 3e 57 38 af 3f
       0.0658739 0.59131616 0.23236908 1.3689069
0000e0 0e f7 12 40 2b c7 0f 3f d2 f7 4a 40 17 8a bf 3e
       2.296329 0.5616328 3.1713758 0.37410042
0000f0 db a6 22 40 15 9d 02 40 fd de 29 37 f9 e8 55 40
       2.541434 2.0408375 1.01251035e-05 3.3423445
000100 db 93 a8 3f 1d c0 34 3f aa e6 1f 3f 88 d1 44 3f
       1.3170122 0.7060564 0.6246134 0.7688222
000110 7e 85 57 3f 83 18 7f 3f 3f b6 2d 40 a6 6c c7 3f
       0.8418807 0.99646777 2.7142484 1.5580032
000120 e7 44 31 3e 39 59 bd 3f 90 43 af 3f 7b 82 a3 3d
       0.1731144 1.4792854 1.3692493 0.079838715
000130 19 b4 38 3f aa af 25 3f 4a 4e 35 3f 87 4a ae 3f
       0.7214981 0.6472117 0.70822585 1.3616494
000140 8d 81 fa 3f 6e ad 90 3f 63 9e b0 40 81 39 98 3f
       1.9570786 1.1302927 5.5193343 1.1892549
000150 02 45 f5 3f b2 cf a1 3f 87 bf 96 3f d9 1c b8 3e
       1.9161685 1.2641509 1.17772 0.3595951
000160 53 ef 92 3e 94 ed 0b 40 cc 59 95 3f 76 49 1b 40
       0.28698215 2.1863756 1.1668029 2.4263587
000170 93 1b 88 3f cf e8 80 3c 4e 53 28 40 d9 85 fd 3e
       1.0633415 0.015736012 2.6300845 0.4951618
000180 1e 9c c5 3f e5 42 cf 3e 2a a3 15 40 a9 7d 57 3f
       1.5438268 0.40480724 2.3380837 0.8417612
000190 e8 70 e1 3e 0b 31 94 3f cd 14 0a 40 e8 54 fc 3e
       0.44031453 1.1577467 2.1575196 0.49283528
0001a0 1c 19 c5 3f 68 07 1a 3f f1 77 17 40 81 94 23 3f
       1.5398288 0.6016755 2.3666956 0.63898474
0001b0 2b 41 6f 3f d7 15 a5 3f 79 d8 d0 3f 9d 6d d1 3f
       0.93458813 1.289729 1.6316062 1.6361576
0001c0 2e da ee 3f a0 6c 65 3d 13 f0 09 40 b4 67 c6 3f
       1.8660333 0.056011796 2.155278 1.5500398
0001d0 87 e8 29 3f 32 2c 07 40 cc 38 2d 3f 7b a6 72 3f
       0.66370434 2.1120725 0.6766479 0.9478528
0001e0 86 77 43 3f 47 6e 05 40 32 33 00 3e 95 bd ce 3f
       0.76354253 2.0848558 0.1251953 1.6151606
0001f0 ee 7e 8f 3f 7c 3b 52 3f bf fc a8 3f ba 97 91 3f
       1.1210611 0.82122016 1.3202132 1.1374428
000200 a5 50 82 3f 6f 6d f9 3f 4d 95 1d 40 7e f8 95 3f
       1.0180861 1.9486521 2.4622376 1.1716459
000210 61 ca 46 40 51 61 1f 3e d9 23 66 3f 40 25 42 40
       3.1061022 0.15564467 0.8989845 3.0335236
000220 e2 97 ae 3f ce 5a 1b 3f 8d 03 1b 3f ad 73 e7 3e
       1.3640101 0.6068543 0.60552293 0.4520544
000230 f3 b4 5e 3f 91 bb 4f 3f ba 82 42 3e 2f c2 c9 3e
       0.86994857 0.8114558 0.1899518 0.39405963
000240 f1 f0 0c 3f d5 83 10 3f e8 89 29 3e d0 38 0b 3f
       0.5505515 0.5645116 0.16556513 0.54383564
000250 59 dc 6b 40 cf 52 76 3e e3 8d be 3f 80 cf 10 3e
       3.685324 0.24055026 1.488705 0.14141655
000260 db 91 65 3e e1 de 01 3f d6 23 4f 40 71 37 6f 3f
       0.2241892 0.5073071 3.2365623 0.9344397
000270 ea 85 49 3f 48 f0 5a 3f ce 4e 20 40 f6 5d d5 3f
       0.7871996 0.8552289 2.5048099 1.66693
000280 32 55 5f 3f c0 36 3b 3f 15 ed 50 3e cc 87 07 3f
       0.8723937 0.73130417 0.2040294 0.52941585
000290 66 29 04 3f 4c e0 1c 3f 5f 38 e5 3f 41 45 63 3f
       0.5162567 0.6127975 1.7907828 0.8877755
0002a0 57 5f dd 3f 92 8b 09 3e cd 8b 23 40 06 a0 b8 3e
       1.729472 0.13432148 2.5554078 0.36059588
0002b0 9d 2c de 3e 02 76 31 3f fa 9a 39 3e 5e 8f d6 3f
       0.43393412 0.6932069 0.18125525 1.6762502
0002c0 e5 b2 47 40 e2 fd 82 3f 4d 31 b2 3e 17 43 9d 3f
       3.1202939 1.0233729 0.3480324 1.2286099
0002d0 af 5b cf 3f 00 a7 5b 3f 23 e1 8b 3f a6 ae 84 40
       1.6199855 0.85801697 1.0928081 4.1463194
0002e0 b5 45 94 3f fd 17 12 3e f9 f3 f1 3f 2a a3 a0 3f
       1.1583773 0.14266963 1.890258 1.2549794
0002f0 50 ac f6 3f 75 3e 57 3f bc 4a af 3f 6e 9f b3 3f
       1.9271336 0.84079677 1.3694682 1.4033029
000300 bf 55 7a 3f 81 8a 8f 3f 58 88 84 3f 13 e6 8d 3f
       0.9778709 1.1214143 1.0354109 1.1085838
000310 6e 27 10 3f dd 22 b3 3f 84 e0 aa 3d 10 6d 54 3f
       0.56310165 1.3995014 0.08343604 0.82978916
000320 bb d1 17 3f 64 65 43 3f c6 06 05 40 84 1e 12 3f
       0.593044 0.76326585 2.0785384 0.57077813
000330 18 86 a6 3f 4a d6 a7 3f 8e 80 c4 3f 8f 00 16 3f
       1.3009672 1.3112271 1.5351732 0.585946
000340 ab 3f cc 3f 8a a5 20 3f c2 d3 7c 3e ae 02 21 3e
       1.595693 0.6275259 0.24690154 0.15723678
000350 8b a1 2d 3f 4e bc 53 3f 91 42 5b 3f 18 29 c1 3e
       0.6782462 0.82709205 0.8564845 0.37726665
000360 06 05 6b 3e 1f c3 d9 3f 26 4a ef 3e 67 6d 98 3f
       0.22951135 1.7012671 0.46736258 1.1908387
000370 3b b5 ea 3f 81 66 88 3f ec 8e 3f 3f aa 88 8e 40
       1.8336557 1.0656282 0.74827456 4.4541826
000380 9e 7d 34 3f f7 50 d6 3e 97 b1 b0 3f b0 75 aa 3f
       0.70504177 0.41858646 1.3804196 1.3317165
000390 c5 87 98 40 73 fc 44 3e 6f f5 57 40 89 49 0e 3f
       4.7665734 0.19236927 3.374355 0.55580956
0003a0 60 d2 73 3e 20 f3 cf 3f 06 57 d6 3e 4a bf 21 3e
       0.2381072 1.6246071 0.4186327 0.15795627
0003b0 5c c9 70 3f 3a ec 80 40 fc 6d 4a 3f 90 b1 97 3f
       0.9405725 4.0288363 0.7907407 1.1851063
0003c0 64 6f 4b 3f e7 1c af 3e a1 77 fc 3e 65 90 96 3f
       0.79466844 0.34201738 0.4931002 1.1762816
0003d0 16 e4 fc 3f 03 ad 6d 3f c2 32 aa 3e 0b 13 69 3f
       1.9757106 0.9284212 0.3324185 0.9104468
0003e0 e0 e3 94 3e 7e 06 1b 40 c4 87 2e 40 fc 8b 03 3f
       0.29080105 2.4222713 2.7270365 0.51385474
0003f0 ea 4d 52 40 58 f9 87 40 60 9b 57 3d 28 53 53 3f
       3.2860055 4.2491875 0.05263841 0.8254876

bn1.running_var f4 [256]
000000 b7 07 b2 40 6c 59 28 3f aa 85 4a 3f 7c d5 94 3f
       5.5634418 0.65761447 0.79110205 1.162765
000010 2b e6 67 3e 7b 33 8d 3f 49 1b f6 40 49 8c 5f 3f
       0.22646396 1.1031336 7.6908307 0.87323433
000020 0a 70 b3 3f a7 85 e7 3f b2 ba 4c 40 f5 17 be 40
       1.4018567 1.8087662 3.198895 5.9404244
000030 65 ee dc 40 94 d9 62 40 4a cf 90 3f bd 7a e4 3f
       6.904101 3.54453 1.131326 1.7849957
000040 13 5a 78 40 79 58 c7 40 9c 22 01 40 64 cb ad 3f
       3.8804977 6.22955 2.0177374 1.3577695
000050 7d 47 cc 40 9e 17 b6 3d 74 c9 58 40 dc fa dc 3f
       6.3837266 0.08891223 3.3872957 1.7264056
000060 e0 6a 2a 40 44 d8 69 40 1a 1a 77 3e 0b f0 53 3e
       2.6627731 3.6538248 0.2413105 0.20697038
000070 e8 d2 a4 40 ca 2e 11 40 51 d8 54 3e 2b 1a cd 40
       5.1507454 2.2684808 0.20785643 6.4094443
000080 7b 3c aa 3f e9 c2 93 40 2c fd 6b 40 88 0f 49 3f
       1.3299707 4.6175427 3.6873274 0.78539324
000090 14 80 f2 3f 09 b9 f8 3f e4 6c 26 3e c7 a4 26 40
       1.8945336 1.9431468 0.16252476 2.6038072
0000a0 36 44 a6 3e de d2 de 3f ec c0 38 40 96 2b f7 40
       0.32473916 1.7408102 2.886775 7.7240705
0000b0 9b 35 06 40 d1 97 b3 3f 12 69 0e 40 9a b4 c3 40
       2.0970218 1.4030706 2.225163 6.115796
0000c0 7c 67 80 3f ec ab 9c 40 23 bf 32 40 79 ad 86 40
       1.0031581 4.8959866 2.792916 4.208676
0000d0 b2 31 ef 3d 1b 50 4b 3f 67 b8 13 3f 4b c2 66 40
       0.116794005 0.79419106 0.5770325 3.6056087
0000e0 f9 d8 52 40 32 d8 03 40 58 c9 b0 40 66 cd 3e 3f
       3.294493 2.0600705 5.524578 0.74532163
0000f0 de 9f e0 40 97 61 cf 40 79 a8 0a 37 35 fd 69 41
       7.019515 6.480663 8.264667e-06 14.624318
000100 e6 5b 11 40 31 50 a0 3f 55 5a ee 3f 60 a1 80 3f
       2.271234 1.2524472 1.8621317 1.0049248
000110 14 32 e2 3f 3d ce 09 40 22 df 81 40 41 29 a2 40
       1.7671533 2.1532128 4.058488 5.067536
000120 30 86 65 3e 15 11 97 40 69 ed 66 40 b2 b7 06 3e
       0.2241447 4.720835 3.6082404 0.13156012
000130 75 b0 b6 3f 52 4e 9f 3f 9f 7d 2a 40 af 13 44 40
       1.42726 1.2445776 2.6639173 3.0637014
000140 15 8a 8d 40 63 a2 82 40 4d e9 9d 40 cb be 92 40
       4.4231057 4.0823226 4.934729 4.58579
000150 97 09 8e 40 7f 80 7a 40 e2 4c 81 40 bc 2d 2d 3f
       4.4386706 3.9140928 4.040635 0.6764791
000160 e3 d1 43 3e 2b 67 ce 40 fb 8a 6e 3f 09 b7 c0 40
       0.19123034 6.4500937 0.9318082 6.022343
000170 de 4c 51 40 e2 d0 af 3c 80 46 29 41 04 24 bd 3f
       3.2703166 0.021461908 10.579712 1.4776616
000180 ad d4 b7 40 4d 4c 4f 3f 14 ad f2 40 bf 40 09 40
       5.7447114 0.809758 7.5836277 2.1445768
000190 46 9a a0 3f 8c 6a 0f 40 56 a6 91 40 e6 eb 82 3f
       1.254708 2.240878 4.5515547 1.022824
0001a0 0e 47 c0 40 95 e2 c5 3f 69 db ca 40 72 9f 27 40
       6.0086737 1.5459772 6.3392835 2.6191068
0001b0 8c 8c 20 40 7a 3b 39 40 b6 58 7d 40 69 e0 78 40
       2.5085783 2.8942552 3.9585395 3.888697
0001c0 1f 8f 00 40 63 8f 75 3d a1 a8 9e 40 71 50 37 40
       2.0087354 0.059951197 4.9580846 2.8642848
0001d0 3c 57 0f 40 80 ca 8b 40 e8 fa ed 3f f7 2d 3c 40
       2.2396994 4.368469 1.8592196 2.9403055
0001e0 3e 24 bc 3f 36 e6 9a 40 c9 b7 6a 3e 4c 1c 8c 40
       1.469856 4.840602 0.22921671 4.378454
0001f0 d4 59 2d 40 cc b6 08 40 11 33 31 40 bd 6d e2 3f
       2.7086077 2.136157 2.7687418 1.768974
000200 64 6c 20 40 34 db 1d 40 81 0f 3e 41 ef 3b f5 3f
       2.5066156 2.466504 11.878785 1.9158915
000210 b0 b5 c6 40 b4 b6 98 3e 61 58 29 40 de 75 93 40
       6.2096786 0.2982689 2.6460192 4.608138
000220 16 11 a9 40 b7 a3 a0 3f 12 c5 d4 3f 0d 88 2d 3f
       5.2833357 1.2549962 1.6622641 0.6778572
000230 dc 79 11 40 4b 53 fd 3f a4 95 c4 3e be 93 4d 3f
       2.2730627 1.9791044 0.38395417 0.8030356
000240 40 ec 73 3f d6 af 1f 3f 23 e2 80 3e 37 4a d5 3f
       0.95282364 0.6237768 0.2517253 1.6663274
000250 9f 73 e9 40 27 c6 bf 3e d2 4b 2e 40 44 1c 48 3e
       7.295364 0.37455866 2.7233777 0.19542032
000260 11 d0 e8 3e ac 4f a1 3f d8 ed df 40 f1 6a 24 40
       0.45471242 1.2602439 6.9977837 2.5690272
000270 d3 86 55 3f a3 c3 18 40 25 1b c7 40 cf ae 9e 40
       0.8340885 2.3869407 6.2220635 4.958839
000280 ba fa 27 40 24 5e 12 40 90 0c c1 3e e4 95 f4 3e
       2.6246781 2.286996 0.37704897 0.47770607
000290 c4 40 04 40 2c a9 96 3f 80 74 9d 40 b9 a0 70 3f
       2.066453 1.1770377 4.920471 0.93995243
0002a0 9a 75 4c 40 36 0c 9a 3e 01 67 1f 41 1a d8 5c 3f
       3.1946778 0.3008744 9.962647 0.86267245
0002b0 22 5d 8a 3f f4 29 0e 40 9b 2c c1 3e 07 10 aa 40
       1.0809672 2.2213106 0.37729344 5.3144565
0002c0 f3 93 aa 40 a6 40 12 40 d4 e8 a0 3f 4b 07 1c 40
       5.33056 2.2851958 1.2571054 2.4379451
0002d0 b8 2e 9c 40 ba f6 39 40 ce 93 42 40 88 7b 0b 41
       4.880703 2.905684 3.0402713 8.717659
0002e0 44 a9 1b 40 30 17 be 3e 3b ad c2 40 46 dc 35 40
       2.4322062 0.37127066 6.0836463 2.8415694
0002f0 aa 0c d7 40 c3 11 37 40 e5 5c fc 3f 7b f6 60 40
       6.720296 2.860459 1.9715849 3.515044
000300 4c e1 25 40 96 09 15 40 60 16 5d 40 b3 82 33 40
       2.591876 2.32871 3.4544907 2.8048522
000310 37 b1 80 3f b2 36 9d 40 d5 76 d0 3d a9 67 26 40
       1.0054082 4.9129267 0.101789154 2.600077
000320 de 00 8d 3f 44 bd 2d 40 78 5c 2f 40 a4 b5 a6 3f
       1.101589 2.7146769 2.7400188 1.3024182
000330 c0 a6 90 40 55 00 2a 40 67 19 7b 40 13 a7 8b 3e
       4.520355 2.6562703 3.9234254 0.27275905
000340 e6 e0 d2 40 ea 28 03 3e ff 2b 88 3e fe 5d dc 3e
       6.5899534 0.12808576 0.26596066 0.4304046
000350 b4 7e 99 3f 05 86 2e 40 f7 ed 03 40 6c da 18 3f
       1.1991792 2.72693 2.0613992 0.59708285
000360 91 04 a7 3e 3e 7a 98 40 99 99 21 3f a4 42 0d 40
       0.3262067 4.764922 0.63124996 2.2071924
000370 5a 06 96 40 9d bc 40 40 c7 0a d5 3f 56 22 00 40
       4.6882753 3.011512 1.6643914 2.0020957
000380 e1 b1 a8 3f 0c 41 c7 3f 6c 77 38 3f d6 c6 45 40
       1.3179284 1.5566726 0.72057223 3.090261
000390 92 9e 04 42 a7 b5 c3 3e 82 b5 87 41 c0 16 6e 3f
       33.154854 0.38224527 16.963627 0.93003464
0003a0 b4 b4 b2 3e 3e f3 aa 40 7f 33 90 3f 81 fc 96 3e
       0.3490349 5.3421926 1.1265715 0.2948952
0003b0 f5 c0 f1 3f dc 0e b4 41 60 6f 1a 40 27 13 84 40
       1.8887011 22.507256 2.4130478 4.127338
0003c0 df 34 98 3f f4 79 48 3f 58 0d db 3f 39 64 6e 40
       1.1891135 0.78311086 1.7113447 3.724867
0003d0 cc a1 ca 40 57 d8 9d 40 ad b9 73 3f 78 4b 2b 40
       6.3322506 4.9326587 0.95205194 2.6764812
0003e0 4b 50 d0 3e dc ef d5 40 ca 14 88 40 73 fc c0 3f
       0.4068626 6.6855297 4.2525377 1.5077041
0003f0 6e 8e a7 40 d1 45 bc 40 ee eb 90 3d c5 0d 1a 40
       5.2361364 5.8835225 0.0707625 2.4070904

fc2.weight f4 [256, 258]
000000 db c1 eb bb b3 89 d4 bb e4 76 85 bc 4f e5 f5 bd
       -0.00719474 -0.0064861416 -0.016292043 -0.12006628
000010 26 0a f3 bd 16 1b 0f bd 3c 3c a7 3b cb a3 1b bd
       -0.1186717 -0.03493794 0.005103616 -0.037998002
000020 1d 20 86 3b a3 e6 07 3d 87 5e bf bc 55 f4 8c bd
       0.0040931837 0.033178937 -0.023360504 -0.0688254
000030 5e 5b ad 3d 6b a4 89 3c db 23 17 3d 75 ce 35 bd
       0.084646925 0.016802033 0.03689943 -0.044386346
000040 d2 f1 79 bd ce 8e 29 3c a9 a3 3c 3c 9c 85 99 bd
       -0.061021633 0.010348989 0.011513629 -0.07496187
000050 73 d6 81 ba 62 1a 31 3d f7 8e 8b 3b 45 46 74 3c
       -0.000990583 0.04323805 0.004258986 0.014909332
000060 64 35 d2 3d 39 85 82 3c 88 ec bc bc 59 74 ee bd
       0.1026409 0.015932666 -0.023062006 -0.11643285
000070 3e 13 7e bc 15 fb e4 bc af 51 57 3d ab 07 19 3c
       -0.015507517 -0.027951756 0.052568134 0.009340207
000080 cb 9b 0c bd 7b cd 77 bc 81 7d 92 3b 15 55 a9 ba
       -0.034328263 -0.015124674 0.0044705276 -0.0012919033
000090 ac f3 1e bd fd ad 6c bd 08 fa 82 3c 76 45 64 bd
       -0.038806602 -0.057783116 0.015988365 -0.055730306
0000a0 a9 75 ea bd 9e 0a 0a 3d a7 bd 2a 3d 4b eb 88 bc
       -0.11448223 0.03370153 0.041684773 -0.016713759
0000b0 a6 5a d9 3c b2 4a 0c 3c 6b 64 21 3c 3d d2 79 bd
       0.026532482 0.008562731 0.009850602 -0.060991514
0000c0 63 03 32 3d 05 ed 3e bd 92 0e 88 3d 22 bc 84 bd
       0.04346026 -0.04661276 0.06643404 -0.06481196
0000d0 db e5 8c be ff 58 48 bd 40 e2 f9 3c 44 0f 62 3d
       -0.27519116 -0.048913 0.030503392 0.05519034
0000e0 28 81 e0 bc 59 45 21 3d 4f 68 4b bd fc 8e bf bd
       -0.027405336 0.039372776 -0.049660023 -0.09353444
0000f0 5a 20 ef bc bc 21 f4 3b b1 87 12 bc fa 4a 25 3c
       -0.029190231 0.0074503105 -0.008943484 0.010088677
000100 e5 c5 6f bd 59 83 97 bc d0 0e 6f bb 77 fb 80 bd
       -0.058538336 -0.018495249 -0.0036477335 -0.06297963
000110 26 6a bd 3b 54 ab 1e bc c1 2c 61 bc 45 ed 1b 3d
       0.005780476 -0.0096844025 -0.01374358 0.038068075
000120 03 eb 9e 3c d9 f6 34 3d ef fb 16 bd 5e 6b 80 bd
       0.019399172 0.044180725 -0.036861356 -0.06270479
000130 5c 96 00 bd 94 a6 9a ba ce 50 a9 bc 37 f1 45 bd
       -0.031393394 -0.0011798912 -0.020668413 -0.048325744
000140 99 fd 42 b9 84 dc 2d bd 37 8b 00 bd c0 4f 4b bc
       -0.00018595754 -0.04244663 -0.031382766 -0.012409151
000150 dd 3b 89 bc 56 bb fd bb b4 b8 41 3d 9a 6b 7a bd
       -0.016752178 -0.0077432794 0.047295287 -0.061137773
000160 f4 c5 a0 bd 8b e3 b4 bc 73 d7 11 3d 4b 5c 17 bd
       -0.078502566 -0.022081157 0.03560586 -0.03695325
000170 fd 63 32 3c cc 96 13 bd 56 99 21 3d 38 34 82 3c
       0.010888097 -0.036032483 0.039452873 0.01589404
000180 96 68 18 bd 3d 0e bf bd ff 6a de 3c 5a ab 27 bd
       -0.037209116 -0.093288876 0.02715063 -0.040934898
000190 69 1c 01 bd f0 04 27 3d db 99 2f 3c b8 f7 6e bc
       -0.031521235 0.040776193 0.010717834 -0.014585428
0001a0 84 e1 8b bd ba 3f 91 bd 46 1c 4e bc 38 eb 07 bc
       -0.06830123 -0.07092233 -0.012579983 -0.008295827
0001b0 c5 f9 d8 3b 19 a3 c8 bb c3 5f 56 3d 8c de 00 3d
       0.0066215717 -0.0061229584 0.05233742 0.031462237
0001c0 14 10 5d 3d f4 05 4f bd e2 47 62 bc 37 0c 6d bc
       0.05397041 -0.050542787 -0.0138110835 -0.014468244
0001d0 fb 1f 80 bd f6 1a f2 bc e4 32 7f bd 03 5a 50 3c
       -0.062561 -0.029553872 -0.062304392 0.012716773
0001e0 71 39 1b 3d 61 93 e7 bb 24 69 b8 bd 0f 99 3e bc
       0.037896577 -0.0070671295 -0.09004429 -0.011633172
0001f0 a5 39 88 3d 25 df 9a 3a b5 4d 06 3c 96 72 8d bc
       0.0665162 0.001181577 0.008197238 -0.017266553
000200 c6 b3 b3 3b 0e 4d 57 3b da 2e e3 3c 74 13 b6 3c
       0.005484077 0.0032852325 0.027732302 0.022226073
000210 49 9e 19 bc 27 3b 22 3d a7 c0 69 bc 2b 4a ae 3c
       -0.009376117 0.039607193 -0.014267123 0.0212756
000220 18 a0 83 bd 4a f4 4c bd 80 f6 cd 3c 5b 6d f9 3c
       -0.0642702 -0.05003766 0.025141954 0.030447653
000230 ca 51 7d bd d6 c3 4e bd 44 90 a2 3b 10 2c b1 bd
       -0.06184558 -0.050479732 0.0049610455 -0.086509824
000240 ae 67 3c bd 25 b2 90 3c 9c a7 3e bc 28 f9 90 bc
       -0.045997314 0.017663071 -0.011636641 -0.017696932
000250 16 0c bf 3b b4 0b 12 bc fa 86 04 3d f7 39 c0 bb
       0.005830298 -0.008913923 0.032355286 -0.005866285
000260 99 d8 5f bd e7 67 87 bd ad c3 1b bd ca 2e 84 bb
       -0.054649923 -0.06611615 -0.038028408 -0.004033898
000270 1d c8 98 3d ea 61 00 bd 80 42 94 3c 98 6b 5e 3d
       0.074600436 -0.031343378 0.018098116 0.05430183
000280 6d e6 48 bd cf e6 81 bd 8f b4 d7 bb 9d 2e cd bb
       -0.049047876 -0.06342851 -0.0065828036 -0.0062616603
000290 30 15 2f 3d 8a 1b 11 3d c4 ab b8 3c 35 85 3c bd
       0.042744815 0.035426654 0.022542842 -0.046025474
0002a0 f3 25 58 bd 95 32 02 3a a9 b4 e1 3b 2a 10 27 3d
       -0.052770566 0.0004966644 0.0068879914 0.0407869
0002b0 c4 4a bd b9 bd 71 00 3b 67 6f 4a bd a8 0a e9 3c
       -0.00036104594 0.0019599043 -0.049422648 0.028447464
0002c0 19 b5 2c bd 28 07 04 bc 12 26 24 bd f9 c0 9e 3d
       -0.042164896 -0.008058347 -0.04007537 0.0775165
0002d0 1c 11 ef bc 04 5d e1 bb f4 c9 09 bd 80 f0 24 bd
       -0.029182963 -0.0068775434 -0.033639863 -0.04026842
0002e0 52 a5 8a bd 08 42 56 3c f5 a9 01 bd 72 fd 8c 3d
       -0.067698136 0.0130772665 -0.031656224 0.06884278
0002f0 cc fe 4a 3d 5c c5 7a 3c b4 90 0d 3c 6f fc 6f bd
       0.0495594 0.015305843 0.008640457 -0.05859035
000300 af 38 c1 3d f5 91 13 3d 46 36 17 3d e0 e2 5f 3d
       0.0943464 0.036027867 0.036916994 0.054659724
000310 b6 b1 60 bb 0b 6f e4 bc 80 29 4c bc 27 f6 92 3c
       -0.0034285611 -0.02788498 -0.012461066 0.01793964
000320 ec da 83 bb c8 eb 69 3a 2c 70 c2 3c 4b 59 96 bd
       -0.0040239003 0.0008923379 0.023735128 -0.0734125
000330 12 42 64 b9 f6 98 54 bd 0c 56 e5 3c 92 90 a5 bc
       -0.00021768388 -0.051903687 0.027995132 -0.020210538
000340 61 ea 23 3d 8b ef 55 3d 20 cc ad 3b db 18 84 bb
       0.040018443 0.0522304 0.0053038746 -0.0040312833
000350 cf b0 3a bd ca c3 ef bc 54 0c e6 3d 93 6c 51 3d
       -0.045578774 -0.029268164 0.1123282 0.051128935
000360 17 7a 82 3d 0d a8 a6 bc 07 bf b8 3b e8 00 e1 3c
       0.06370943 -0.020343805 0.0056380066 0.027466252
000370 8a d5 b5 bc 65 e8 07 3d e7 25 aa bc 34 bf e0 bc
       -0.02219655 0.033180613 -0.020770026 -0.027434923
000380 da 1e bf 3b f9 54 e8 3c a3 51 02 bd 9e fb 60 3d
       0.005832535 0.02836083 -0.031816136 0.05492746
000390 6b 27 f7 bb 1f 0e b3 bc 6b 15 47 bd b8 21 c9 bc
       -0.007542541 -0.02185732 -0.04860441 -0.024552211
0003a0 7c 7b 71 3d 04 e6 45 3d 1f e1 db 3c f3 0a c8 bd
       0.058955655 0.048315063 0.026840745 -0.097677134
0003b0 fb e8 98 bd 10 c0 59 3d 04 00 c8 3c ae 44 6f 3c
       -0.074663125 0.05316168 0.02441407 0.014603777
0003c0 12 48 41 3c 2c b9 22 3d 22 68 fa 3c 04 a7 2b bd
       0.011796968 0.039727375 0.030567233 -0.041907325
0003d0 19 5c 62 bc a8 a3 3b bc de 06 08 3d 85 10 35 bc
       -0.013815903 -0.011452593 0.033209674 -0.011051302
0003e0 98 98 68 3c d0 d8 59 3c 46 53 52 bd db d5 89 bc
       0.014196537 0.013296321 -0.051348947 -0.016825607
0003f0 13 d8 dc bc e1 92 27 bd 81 79 bb ba 52 66 23 3d
       -0.026958501 -0.04091156 -0.0014303179 0.039892502
