Project1_navigation/model_checkpoint.pth (torch_old, 62457 bytes, 8 tensors)

fc1.weight f4 [128, 37]
0	0xbda5fc54	-0.081047684
1	0x3d2b9cc5	0.041897554
2	0x3e10f3df	0.1415553
3	0xbe43e3c3	-0.19129853
4	0xbe1d9364	-0.15388256
5	0x3e08c8a9	0.13357796
6	0xbee01201	-0.43763736
7	0x3df0b0d2	0.11752476
8	0xbf11478e	-0.5674981
9	0xbfd4bdd9	-1.6620437
10	0xbdc4b992	-0.09605707
11	0xbc9bda95	-0.019025126
12	0xbe210587	-0.15724765
13	0xbe00c7f2	-0.12576273
14	0xbe1cbb1a	-0.15305749
15	0xbe03c1a2	-0.12866834
16	0xbe4ebf4f	-0.20190166
17	0xbd0a0856	-0.033699356
18	0xbcbf3827	-0.023342205
19	0xbdd4bf01	-0.103879936
20	0xbdfbfc5c	-0.12303993
21	0xbe22ade0	-0.1588664
22	0x3c8874d5	0.016657272
23	0xbe81c427	-0.25344965
24	0xbe70e925	-0.23526438
25	0x3d7c5d71	0.06161255
26	0x3b212eb8	0.0024594497
27	0x3c194210	0.009354129
28	0xbe13a73c	-0.14419264
29	0xbe2294c1	-0.15877058
30	0xbe275228	-0.16339934
31	0x3dcde69e	0.10053752
32	0xbb4d0eb4	-0.0031289281
33	0xbdee126a	-0.11624606
34	0x3dfff9c6	0.124988124
35	0x3d11e482	0.035618313
36	0x3d5287a7	0.0513989
37	0x3e275665	0.1634155
38	0x3c35d1e0	0.011097401
39	0xbde5b3ba	-0.11215921
40	0xbda1790b	-0.07884415
41	0xbd65c40e	-0.056095175
42	0x3d406846	0.046974443
43	0x3da83b83	0.08214476
44	0xbe2c5dc1	-0.1683264
45	0x3e909819	0.2824104
46	0x3edcbdab	0.43113455
47	0xbd795aa7	-0.06087747
48	0xbe01f4ec	-0.12691087
49	0xbcbfd1f0	-0.023415536
50	0x3e857b06	0.26070422
51	0x3e8841a5	0.26612583
52	0x3ced533a	0.02897035
53	0xbbc972ab	-0.0061477027
54	0xbd9dc959	-0.0770442
55	0xbda1da3b	-0.07902952
56	0x3dcd918c	0.100375265
57	0xbe339137	-0.17535864
58	0x3deefcf1	0.116693385
59	0xbd114ea1	-0.035475377
60	0x3e76546f	0.24055646
61	0xbd4f80b7	-0.05065986
62	0x3e5d3af0	0.21604514
63	0xbe3eeb47	-0.18644439
64	0xbe227ca0	-0.15867853
65	0xbe5ca4ad	-0.21547194
66	0xbf7b561c	-0.9817827
67	0xbdf098b4	-0.11747876
68	0x3d489ff2	0.04898066
69	0xbe56a02a	-0.20959535
70	0x3e9ab74c	0.3021797
71	0xbdc9606a	-0.09832843
72	0xbe44314f	-0.19159435
73	0xbcae6995	-0.02129058
74	0x3d6f13ea	0.0583686
75	0xbdcb2f6e	-0.09921156
76	0x3da4b42c	0.080421776
77	0x3e06572a	0.13119188
78	0xbd64db98	-0.055873483
79	0xbdb4fd02	-0.0883732
80	0xbe52ebc9	-0.20597757
81	0x3df548d7	0.11976784
82	0x3d9c938e	0.07645331
83	0xbc5c9402	-0.013463022
84	0x3eaed065	0.34143367
85	0xbe0144ba	-0.12623873
86	0x3e186fc2	0.14886382
87	0x3c9addc3	0.018904572
88	0xbeabc5ee	-0.33549446
89	0x3e36c81b	0.17849772
90	0xbce1d822	-0.02756888
91	0x3d8e18cb	0.06938323
92	0xbe72edbe	-0.23723504
93	0xbe1f911f	-0.15582703
94	0xbd9d4762	-0.07679631
95	0x3d677614	0.056509092
96	0x3e24d63b	0.16097347
97	0xbd870f4c	-0.065947145
98	0x3cc7e21f	0.024399815
99	0x3e7e2272	0.24817827
100	0xbde9be87	-0.11413293
101	0xbe86bdfb	-0.2631682
102	0xbd3d463a	-0.04620955
103	0xbf3480a9	-0.7050882
104	0x3e4693ad	0.19392271
105	0x3d941c6f	0.07231986
106	0x3e48c04d	0.19604607
107	0x3e5133de	0.20429942
108	0xbe3921b1	-0.18079259
109	0x3d7c6d67	0.06162777
110	0xbdcba1c2	-0.09942962
111	0xbe819418	-0.253083
112	0x3d99c914	0.07509056
113	0x3c9dc1c4	0.019257434
114	0xbe5e638e	-0.21717665
115	0x3e3b2939	0.18277444
116	0x3e43ce21	0.191216
117	0xbd861b6d	-0.065482
118	0xbe0873ab	-0.13325374
119	0xbdf36ba4	-0.11885765
120	0x3d81d76f	0.06339919
121	0x3d520ec8	0.051283628
122	0xbcfe782e	-0.031063166
123	0xbdb3fc44	-0.0878835
124	0x3db4026c	0.087895244
125	0x3e21e320	0.15809298
126	0xbdd61b5f	-0.10454439
127	0x3ca9a711	0.020709546
128	0xbdec7107	-0.11544996
129	0xbd14e76f	-0.036353525
130	0xbe935897	-0.28778526
131	0xbe5c071d	-0.21487089
132	0x3d465f39	0.048430655
133	0xbd618fd7	-0.055068817
134	0x3e4803bf	0.19532679
135	0x3d89cd64	0.06728628
136	0x3dba8299	0.09106941
137	0xbcae25e6	-0.021258306
138	0xbe235feb	-0.15954559
139	0xbd8589c1	-0.06520415
140	0xbf87933e	-1.059181
141	0xbda69ea8	-0.0813573
142	0x3dce4f72	0.10073747
143	0x3be417fc	0.006960867
144	0x3d934068	0.07190019
145	0x3e92d5fb	0.2867888
146	0xbe3a3f4c	-0.18188208
147	0x3c553d98	0.013015173
148	0xbe186a3f	-0.1488428
149	0xbc7e0379	-0.015503758
150	0x3db11004	0.08645633
151	0x3cb10064	0.021606632
152	0x3e0b0bb4	0.13578683
153	0xbe8089cf	-0.2510514
154	0xbd976349	-0.07391984
155	0xbc0378b4	-0.008024383
156	0x3bcc4c18	0.006234657
157	0x3e1b0acb	0.15140836
158	0xbe53b6b6	-0.20675167
159	0xbd5aa7ae	-0.053382568
160	0x3d97e47b	0.07416626
161	0xbe01f6ce	-0.12691805
162	0x3db55390	0.08853829
163	0xbd74a757	-0.0597299
164	0xbd2f643c	-0.0428202
165	0x3e1a430e	0.15064642
166	0xbdbd142f	-0.09232365
167	0x3cab1ff2	0.020889256
168	0xbe3ae2a9	-0.18250526
169	0xbe0a3ffb	-0.13500969
170	0x3e23267c	0.1593265
171	0xbe43409f	-0.1906762
172	0xbea6de15	-0.3259131
173	0xbd2a6905	-0.04160406
174	0x3cabe535	0.020983318
175	0xbee17673	-0.44035682
176	0xbdd716ce	-0.105023965
177	0xbf3209ca	-0.69546187
178	0x3e24f674	0.1610964
179	0xbe2e0042	-0.16992286
180	0xbe5aefd1	-0.21380545
181	0xbed4c4dd	-0.41556445
182	0xbf1204fb	-0.5703885
183	0x3dbb59ea	0.09148009
184	0x3dca63cb	0.09882315
185	0x3c7ba759	0.015359723
186	0xbe1de7ac	-0.15420407
187	0xbe1176ee	-0.14205524
188	0xbd0223e0	-0.031772494
189	0x3c997bca	0.018735785
190	0xbe637540	-0.22212696
191	0x3e5cc329	0.21558823
192	0x3ed40682	0.41411215
193	0x3e9c8d42	0.3057652
194	0x3f301a05	0.687897
195	0x3d15db22	0.036585934
196	0xbcc4ff3b	-0.024047485
197	0x3d6279f1	0.055292074
198	0x3dba5402	0.090980545
199	0x3cddecff	0.027090548
200	0x3cc25c68	0.023725703
201	0xbe35f76e	-0.17770168
202	0x3d32d6bb	0.043661814
203	0x3e1c7ae6	0.15281257
204	0x3dfe36d6	0.12412803
205	0x3c8a6494	0.016893663
206	0x3dadf9a1	0.084948786
207	0x3d6da350	0.058017075
208	0x3d4c7131	0.049912635
209	0x3c9afcc5	0.018919358
210	0x3d091b28	0.033473164
211	0xbd8ea609	-0.069652624
212	0xbd9eb695	-0.077496685
213	0x3bea1b2c	0.0071443524
214	0xbe8843ca	-0.2661422
215	0x3ccb3393	0.024804866
216	0x3e1a4971	0.15067078
217	0x3dddadbf	0.10824155
218	0x3e071097	0.13189922
219	0xbdbc95bd	-0.09208248
220	0xbd593d48	-0.053036958
221	0xbc73e74b	-0.0148866875
222	0xbeabfd43	-0.3359166
223	0x3dadc5fc	0.08485028
224	0x3df6cde0	0.12050986
225	0xbd25080e	-0.040290885
226	0x3e3f9a34	0.18711168
227	0xbe399c57	-0.18126045
228	0x3dc93ed3	0.09826436
229	0xbd33ace6	-0.04386606
230	0xbe4ee114	-0.20203048
231	0xbeb4b278	-0.3529241
232	0xbe420b21	-0.18949558
233	0xbdf1270f	-0.11775028
234	0x3e40b843	0.1882029
235	0xbdd9af75	-0.10629169
236	0xbe264c9b	-0.1624016
237	0x3df46ebc	0.119351834
238	0xbe0def40	-0.13860798
239	0xbc1b5bdd	-0.009482351
240	0x3e6bbb91	0.2302077
241	0x3d1d01a6	0.03833165
242	0xbdbe7985	-0.09300522
243	0xbe1695f6	-0.14705643
244	0xbd8ea617	-0.06965273
245	0x39ca9166	0.00038636773
246	0x3e4bea32	0.19913557
247	0x3eb0c30f	0.34523818
248	0xbdebeb09	-0.11519439
249	0xbef9e5c8	-0.48808122
250	0x3d0c66a0	0.03427756
251	0xbf203cb1	-0.6259261
252	0xbe0e5b73	-0.13902073
253	0xbdbdd069	-0.09268267
254	0xbd18ab44	-0.037272707
255	0x3e12a447	0.1432048

fc1.bias f4 [128]
0	0x3e220bb6	0.1582478
1	0xbddb699d	-0.107135035
2	0xbdb0299f	-0.086016886
3	0x3d995859	0.07487554
4	0xbda64af0	-0.08119762
5	0xbd630221	-0.055421952
6	0xbc59d111	-0.013294474
7	0xbc172064	-0.009224031
8	0xbd7a3010	-0.061080992
9	0x3b111ae1	0.0022141265
10	0x3de7d69d	0.11320231
11	0xbe16137d	-0.14655872
12	0x3e0328bd	0.12808509
13	0x3e627a91	0.22117068
14	0xbe2197b9	-0.15780534
15	0xbe2a1790	-0.16610551
16	0xbdc245ba	-0.094859555
17	0xbde451b7	-0.11148398
18	0xbd85c225	-0.06531171
19	0xbd0cef34	-0.03440781
20	0xbe2db3d7	-0.16963135
21	0xbde1b330	-0.110205054
22	0x3ce9dd16	0.028547805
23	0x3d088709	0.033331905
24	0x3d010a73	0.031504106
25	0xbdba3046	-0.09091239
26	0xbdf0bd89	-0.11754901
27	0x3d5fdce3	0.054654013
28	0xbe351e78	-0.17687404
29	0x3dfced5e	0.12349962
30	0xbd569aa4	-0.05239357
31	0x3dba9e75	0.091122545
32	0xbc87d327	-0.016580177
33	0xbcf8272f	-0.030292122
34	0xbbfbc599	-0.0076834676
35	0x3e0a711e	0.13519713
36	0xbd9ed614	-0.07755676
37	0x3e161f3a	0.1466035
38	0x3d22a823	0.03971113
39	0x3e2a7eba	0.16649905
40	0x3dd7d670	0.105389476
41	0x3d62a801	0.055336002
42	0xbd66280e	-0.056190543
43	0xba77e46e	-0.0009456341
44	0xbda48080	-0.08032322
45	0x3de7edb5	0.11324636
46	0xbdddf2cb	-0.10837325
47	0xbdb7dcaf	-0.08977639
48	0xbdbd64ea	-0.092477635
49	0x3d1b46f1	0.037909452
50	0x3d5b0409	0.053470645
51	0x3c3df237	0.011593393
52	0xbd4486b3	-0.04798002
53	0xbda83b85	-0.082144774
54	0x3e05eeaa	0.13079324
55	0x3e272c64	0.16325527
56	0xbc620348	-0.013794728
57	0xbcc27aff	-0.02374029
58	0x3d17c231	0.03705043
59	0xbb0bc19b	-0.0021325115
60	0x3c6c62b7	0.014427832
61	0xbdf6162c	-0.12015948
62	0x3dcb3fe7	0.09924298
63	0xbe284a98	-0.16434705
64	0xbda990ba	-0.082795575
65	0xbd959302	-0.0730343
66	0xbdfc9b3c	-0.12334296
67	0xbe2709d7	-0.16312347
68	0xbe051b3c	-0.1299867
69	0xbe0f6696	-0.14003977
70	0xbdf2f84c	-0.11863765
71	0xbdb85e46	-0.09002356
72	0xbe06f27e	-0.13178441
73	0xbd2113b2	-0.039325424
74	0x3bd903d6	0.0066227717
75	0xbe088d7f	-0.13335226
76	0xbe1a1daf	-0.15050386
77	0x3df8b5a8	0.12144023
78	0xbd8bf18f	-0.06833183
79	0x3d1c7e97	0.038206663
80	0xbe0c6854	-0.13711673
81	0x3db7c64b	0.08973368
82	0x3cdaad9f	0.026694117
83	0xbdd4c605	-0.10389332
84	0xbde3f0d2	-0.11129917
85	0xbdc3653d	-0.09540794
86	0xbd732d30	-0.059369266
87	0x3de8f0b7	0.11374038
88	0xbd34b904	-0.044121757
89	0x3d772d29	0.060345802
90	0xbcdc86ec	-0.026919805
91	0x3da87783	0.0822592
92	0x3d7ef8d1	0.06224901
93	0x3e023d4e	0.12718698
94	0xbd82ca57	-0.063862495
95	0xbcdeb0ea	-0.027183969
96	0x39c719a7	0.0003797535
97	0x3e139709	0.14413084
98	0xbd96fd64	-0.07372549
99	0xbc2336bd	-0.009961781
100	0x3dac81dc	0.08423206
101	0x3d3045b6	0.04303523
102	0x3db01cd1	0.08599246
103	0xbe28e5d1	-0.16493918
104	0x3da8f34e	0.08249532
105	0x3d1c7cbf	0.038204905
106	0xbd3886c2	-0.04505039
107	0x3e40e102	0.18835834
108	0x3e4fae1c	0.20281261
109	0xbd935a7c	-0.07194993
110	0xbdd8ae33	-0.10580101
111	0xbe3c72a0	-0.18403101
112	0x3ddadfc5	0.10687212
113	0xbd7d5596	-0.0618492
114	0xbdb724e5	-0.08942584
115	0x3c4e2f2a	0.012584487
116	0xbde085fd	-0.10963056
117	0x3d7513b6	0.05983325
118	0x3d19ddad	0.037564922
119	0xbd58ba61	-0.05291212
120	0x3c426add	0.0118662985
121	0x3e018fb6	0.12652478
122	0x3d47cba1	0.04877818
123	0x3dd6cd79	0.104884095
124	0xbe019ecd	-0.12658234
125	0xbe203849	-0.15646471
126	0xbdb0e2bc	-0.08636996
127	0x3b09271c	0.0020927852

fc2.weight f4 [64, 128]
0	0xbe1118e6	-0.14169654
1	0xbdde8eab	-0.108670555
2	0xbd324004	-0.04351808
3	0x3dca4696	0.098767444
4	0x3d0dcdbb	0.034620028
5	0xbbce5316	-0.0062965257
6	0xbd97615a	-0.07391615
7	0xbd3043ca	-0.0430334
8	0xbcd153d4	-0.025552668
9	0xbe42ea95	-0.19034798
10	0xbe0aa185	-0.13538177
11	0x3bbadc20	0.0057025105
12	0xbc49b572	-0.012311326
13	0x3e2a880f	0.16653465
14	0xbdbd33ad	-0.09238372
15	0xbe6943f3	-0.22779827
16	0xbdb8c3cb	-0.090217195
17	0x3e1e5e4b	0.15465657
18	0x3de5e92b	0.11226114
19	0x3d0a03a6	0.033694886
20	0x3ce865a7	0.028368784
21	0x3d05da98	0.03267917
22	0xbe0124ca	-0.1261169
23	0x3d9f7bce	0.07787286
24	0xbea74f67	-0.32677767
25	0x3d74bfa1	0.059753064
26	0x3ebeb4ea	0.372474
27	0x3d183a83	0.037165176
28	0xbea6227f	-0.32448193
29	0x3d284908	0.041085273
30	0xbd4fcc8f	-0.05073219
31	0x3d6997a6	0.05702939
32	0xbc0c727e	-0.008572219
33	0xbe2c02a9	-0.1679789
34	0x3e8e3da8	0.27781415
35	0xbd145c36	-0.03622075
36	0x3d884f2e	0.06655727
37	0x3d0660cf	0.032807168
38	0x3d52df53	0.05148251
39	0x3da67fcb	0.08129843
40	0x3e4b44d8	0.1985048
41	0xbbe6516b	-0.0070287487
42	0x3e968dc4	0.29405034
43	0x3ca70ef5	0.020392874
44	0x3e01cae0	0.12675047
45	0xbca0fefe	-0.01965284
46	0x3d261b71	0.040553514
47	0x3e2170ad	0.15765639
48	0x3c7fd2c6	0.015614217
49	0x3c74f681	0.014951349
50	0x3d9a458e	0.07532798
51	0x3e13cce7	0.14433633
52	0xbd796b91	-0.0608936
53	0x3c7b79db	0.015348877
54	0xbc4c6d3b	-0.012477214
55	0xbd1dcd4f	-0.038525876
56	0xbe0eb91b	-0.139378
57	0xbe982782	-0.29717642
58	0x3be78903	0.0070658936
59	0x3d3ae284	0.04562618
60	0xbbacb3a2	-0.0052704373
61	0xbd5a8af6	-0.05335518
62	0x3e070c98	0.13188398
63	0xbd972208	-0.07379538
64	0xbc8a990b	-0.01691868
65	0xbcda1030	-0.026619047
66	0xbcf72dc9	-0.0301732
67	0xbe0b874f	-0.13625835
68	0xbdddc38e	-0.10828315
69	0xbd4e6964	-0.050393477
70	0x3c8be60e	0.017077472
71	0xbd0e8a3e	-0.034799807
72	0xbd2e96ce	-0.042624287
73	0x3e06fa9d	0.13181539
74	0xbe10cb78	-0.14140117
75	0xbb8755fa	-0.0041301223
76	0xbe1130b4	-0.14178735
77	0xbdd19954	-0.10234323
78	0x3e363cf8	0.17796695
79	0x3e24a83f	0.16079806
80	0xbe1615b5	-0.14656718
81	0xbe03d42d	-0.12873907
82	0xbd2c463b	-0.042059164
83	0x3d5cb23e	0.053880922
84	0x3d6f61f2	0.058443017
85	0xbc4b7533	-0.012418079
86	0x3d2f2110	0.04275614
87	0xbe77ec92	-0.24211338
88	0xbe858cd4	-0.26084006
89	0xbdee8e4a	-0.11648233
90	0x3d4be79c	0.049781427
91	0x3da34515	0.07972161
92	0xbd5fe0ab	-0.05465762
93	0x3ce2b9a1	0.027676405
94	0xbe4bad5f	-0.19890355
95	0xbcd13dd4	-0.025542177
96	0xbdbd7fa6	-0.09252863
97	0xbe24d528	-0.16096938
98	0x3c7e2ac7	0.015513129
99	0xbe18fd86	-0.14940462
100	0x3d472eb6	0.04862853
101	0x3b1a7a68	0.0023571495
102	0xbe5f9617	-0.21834598
103	0x3d353236	0.044237338
104	0xbbebb714	-0.0071934555
105	0x3d989097	0.07449453
106	0xbc020589	-0.00793589
107	0x3dd8b3ba	0.10581155
108	0xbe25beb1	-0.16186024
109	0xbcd5d52e	-0.026102629
110	0x3d8d3ee3	0.0689676
111	0xbdf36acb	-0.118856035
112	0xbd28557c	-0.04109715
113	0xbd8740c9	-0.06604154
114	0x3c5f03e2	0.013611766
115	0xbda13d97	-0.078730755
116	0x3b577c36	0.0032880432
117	0x3d76bac5	0.06023671
118	0x3d8af6fe	0.06785391
119	0xbdc67030	-0.09689367
120	0x3e24fd5c	0.16112274
121	0x3e2577f8	0.16159046
122	0x3db5b180	0.08871746
123	0xbdef8a94	-0.116963536
124	0x3e2eff75	0.17089637
125	0xbd2d9a30	-0.042383373
126	0xbdb8e120	-0.09027314
127	0xbcb8f6c8	-0.022578612
128	0xbe04fa45	-0.12986095
129	0xbe0c922d	-0.13727637
130	0x3cc86398	0.024461553
131	0xbdb48c67	-0.08815842
132	0xbe0007c6	-0.12502965
133	0x3d48206d	0.04885905
134	0x3d14274b	0.036170285
135	0x3d97366d	0.07383428
136	0x3e147b4d	0.1450016
137	0xbd9539dd	-0.07286427
138	0xbdef2ee1	-0.11678863
139	0x3d9e86e5	0.07740573
140	0xbd638d3b	-0.05555461
141	0x3d8ccfde	0.06875585
142	0x3cc0d32e	0.023538198
143	0xbdd704e0	-0.10498977
144	0x3b14a708	0.0022682566
145	0xbc3cd091	-0.0115243355
146	0x3dd478fc	0.103746384
147	0xbd15981f	-0.036522027
148	0x3d5bb76d	0.053641725
149	0xbd94b5af	-0.07261216
150	0xbd3848be	-0.044991247
151	0x3da82f95	0.082122006
152	0xbcf565e5	-0.029955814
153	0x3d3ece4b	0.046583455
154	0x3e2e9d8b	0.17052285
155	0x3e3ba11c	0.18323177
156	0x3c247916	0.010038635
157	0x3c855c70	0.01627943
158	0xbd61cd9f	-0.055127736
159	0x3cb1a1cc	0.021683596
160	0xbd5a9448	-0.05336407
161	0xbda09506	-0.07840924
162	0x3c84335b	0.01613777
163	0xbd8f6120	-0.07000947
164	0x3cd52fe6	0.026023816
165	0x3c5e5a40	0.013571322
166	0x37d520e8	2.5406902e-05
167	0x3ce2cb7e	0.027684923
168	0x3d97bbc5	0.07408861
169	0x3cb6cce2	0.022314493
170	0x3d1f3fe9	0.03887931
171	0x3e1569d6	0.14591154
172	0x3dd17171	0.10226715
173	0xbd09e8ee	-0.033669405
174	0x3d588c63	0.05286826
175	0x3dc05d5f	0.09392809
176	0xbd17b172	-0.03703446
177	0xbd66e61a	-0.056371786
178	0x3d0bda9d	0.034144033
179	0xbdbdd5b5	-0.09269277
180	0xbb480975	-0.0030523215
181	0xbe76b64e	-0.24092981
182	0xbd3e8f1f	-0.04652321
183	0xbd0a72b5	-0.0338008
184	0x3e305a40	0.17221928
185	0xbdb4a22b	-0.088199936
186	0x3e01981c	0.12655681
187	0x3cb522ab	0.022111258
188	0xbdee7481	-0.11643315
189	0xbcb27d7c	-0.021788351
190	0x3d82fa99	0.06395454
191	0x3c3f154f	0.011662795
192	0xbd8742ae	-0.06604515
193	0xbc591a7d	-0.013250944
194	0xbbb382c2	-0.005478234
195	0x3d5b97e1	0.05361164
196	0x3db5b87f	0.088730805
197	0xbdb675c0	-0.08909178
198	0x3dd5a4bb	0.104318105
199	0xbce984de	-0.028505739
200	0xbdd37d3b	-0.1032662
201	0x3daabf8b	0.08337315
202	0xbc92fcae	-0.017942753
203	0x3de8502e	0.11343418
204	0x3d775210	0.060380995
205	0xbc49ddf5	-0.012320985
206	0xbbbd599c	-0.0057785045
207	0x3e405fe4	0.1878658
208	0x3dcd2ce1	0.100183256
209	0xbe2ca9b4	-0.16861612
210	0x3dee4794	0.11634746
211	0xbda2a316	-0.079412624
212	0xbd65cd43	-0.056103956
213	0xbbf99ade	-0.0076173386
214	0xbc905203	-0.017617231
215	0xbc9ed921	-0.019390645
216	0xbe27e60e	-0.16396353
217	0xbe6a14b2	-0.22859457
218	0x3d012a14	0.03153427
219	0x3d25015f	0.04028451
220	0xbd43a40a	-0.04776386
221	0x3d1f1535	0.038838584
222	0xbe22661e	-0.15859267
223	0xbde4db84	-0.11174682
224	0xbd291a51	-0.041284863
225	0x3d728c16	0.059215628
226	0x3dc4608a	0.09588726
227	0x3e10a0d1	0.14123847
228	0x3d214efe	0.039381973
229	0xbd072542	-0.032994516
230	0xbd11885b	-0.03553043
231	0xbd8c0740	-0.0683732
232	0x3dc88928	0.097917855
233	0xbde684a0	-0.11255765
234	0x3bc38fb2	0.0059680576
235	0xbd9ac537	-0.07557147
236	0xbc9216c9	-0.01783313
237	0xbc958885	-0.018253574
238	0x3d936d7e	0.07198618
239	0x3e0a1121	0.13483097
240	0x3d6de92d	0.058083702
241	0xbc05454f	-0.0081342
242	0x3b3769dd	0.0027986683
243	0xbc1c59e9	-0.009542921
244	0xbd2fee28	-0.042951733
245	0x3d14dbfc	0.036342606
246	0x3c557ba8	0.01302997
247	0x3daa7619	0.083233066
248	0x3e125fd5	0.1429437
249	0xbc84356f	-0.01613876
250	0x3d5b186e	0.053490095
251	0xbe25ccd8	-0.16191423
252	0xbd2da8c3	-0.04239727
253	0xbdcdb230	-0.10043752
254	0x3db2b06b	0.08725055
255	0x3e448d16	0.19194445

fc2.bias f4 [64]
0	0x3df1a3d6	0.11798827
1	0x3db699d2	0.08916058
2	0x3d1d578d	0.038413573
3	0xbe4b8e9e	-0.19878623
4	0x3e167da3	0.14696364
5	0x3d8998a7	0.06718569
6	0xbd65be2b	-0.05608956
7	0xbd0961ac	-0.033540413
8	0xbd55397a	-0.052056767
9	0xbd978658	-0.07398671
10	0xbe42dacd	-0.19028778
11	0xbddca254	-0.10773149
12	0x3c3d3393	0.011547941
13	0x3e40b060	0.18817282
14	0xbe3278ed	-0.17428942
15	0x3d9c74ee	0.0763949
16	0xbe1d0afd	-0.15336223
17	0xbdb55ac8	-0.08855206
18	0x3d31cd63	0.043408763
19	0xbe2fa87e	-0.17154118
20	0xbbf95d99	-0.0076100347
21	0xbd34278f	-0.04398304
22	0xbdf0dcea	-0.11760886
23	0x39397243	0.0001768554
24	0xbd2a3193	-0.041551184
25	0xbc928125	-0.017883847
26	0xbd88bf96	-0.06677167
27	0xbc97e405	-0.018541345
28	0xbd0929b4	-0.033487037
29	0xbd91df0a	-0.071226195
30	0x3b841aad	0.0040315003
31	0xbc24479d	-0.01002684
32	0xbc2119d0	-0.009832814
33	0xbde8aa48	-0.113606036
34	0x3e34c8a3	0.17654662
35	0x3db6167f	0.088910095
36	0xbdc4082d	-0.09571872
37	0x3d0f46e8	0.03497973
38	0x3d8df129	0.06930763
39	0xbdf03a78	-0.11729902
40	0x3cea9a5f	0.028638063
41	0xbc995b63	-0.018720334
42	0x3b897af5	0.004195566
43	0xbd953204	-0.0728493
44	0xbe0f5b33	-0.13999633
45	0x3d35fd67	0.044431116
46	0x3dafff40	0.08593607
47	0x3d079cca	0.03310851
48	0x3a435a0b	0.0007452077
49	0xbc368a48	-0.011141367
50	0xbe2b7749	-0.16744722
51	0x3d08c1a8	0.03338781
52	0x3daebcbb	0.08532091
53	0x3dbcb32b	0.09213861
54	0xbd7c4fb9	-0.061599467
55	0xbd7f2cc4	-0.06229855
56	0x3c989b4d	0.01862874
57	0x3c9e2d69	0.019308763
58	0xbc8db8a8	-0.017299965
59	0xbcb524d2	-0.022112284
60	0xbcec71a5	-0.028862784
61	0x3d30ed2c	0.043194935
62	0xbd5a0d7a	-0.05323551
63	0x3e15c946	0.14627561

fc3.weight f4 [32, 64]
0	0x3d811cbc	0.06304309
1	0xbcea4fd9	-0.028602527
2	0xbd901c69	-0.07036669
3	0xbe12d02c	-0.14337224
4	0xbd9501ee	-0.07275759
5	0x3d4d3dfd	0.050107945
6	0xbd3ff3c4	-0.046863332
7	0xbce3a24a	-0.027787346
8	0x3d99a335	0.075018324
9	0x3d89bb36	0.06725161
10	0x3c406db0	0.011744902
11	0x3d0ed1fa	0.034868218
12	0x3d4c727c	0.04991387
13	0xbcf2d349	-0.029641764
14	0xbc93de73	-0.018050408
15	0x3a13e4d1	0.0005641701
16	0xbdf72e58	-0.12069386
17	0x3d447faa	0.047973312
18	0xb9f3f7d7	-0.00046533227
19	0x3b0a8ff6	0.0021142936
20	0xbc73a292	-0.014870303
21	0x3d1d3f82	0.038390644
22	0x3dbf9b05	0.093557395
23	0x3dcff1ce	0.101535425
24	0x3da2f168	0.07956201
25	0x3cbf25d9	0.023333477
26	0xbd1376ee	-0.036002092
27	0xbd864356	-0.06555812
28	0xbca1521a	-0.01969247
29	0x3c8a5819	0.016887711
30	0x3db8311c	0.08993742
31	0xbddcc2e0	-0.10779357
32	0xbb7e5bcc	-0.003881204
33	0xbb1b0e4b	-0.0023659642
34	0x3d12bbe2	0.03582371
35	0xbc4b3d9c	-0.012404826
36	0xbd50eea9	-0.051008854
37	0x3c614a42	0.013750615
38	0xbcdc9ff0	-0.026931733
39	0xbd9ae6f1	-0.0756358
40	0xbdd5cd34	-0.1043953
41	0x3d9ad496	0.07560079
42	0x3dc9cad6	0.09853141
43	0xbde2888c	-0.110612005
44	0xbd4fd557	-0.050740566
45	0xba35d1a2	-0.000693584
46	0xbc2817a8	-0.010259546
47	0x3d61ce13	0.05512817
48	0x3d8b3c18	0.06798571
49	0x3db4b257	0.08823078
50	0x3dce40a5	0.10070924
51	0x3c63ac92	0.013896124
52	0x3cca0dc6	0.02466477
53	0xbdf99a25	-0.12187604
54	0xbe03fb1a	-0.12888756
55	0x3d701e87	0.058622863
56	0x3c9d11f0	0.019173592
57	0x3dfc9cc0	0.12334585
58	0x3cbc7fbf	0.023010133
59	0x3c93228f	0.017960815
60	0xbcb2b66e	-0.021815505
61	0x3d8c69a9	0.068560906
62	0xbd6889b3	-0.056771945
63	0x3d9433f9	0.072364755
64	0xbe1e3001	-0.15448
65	0xbbb3f4f5	-0.0054918476
66	0x3d83c5a8	0.06434184
67	0xbd48662a	-0.048925556
68	0xbe16b24c	-0.14716452
69	0xbd8c6170	-0.06854522
70	0x3e31d429	0.17366089
71	0x3dfe7cb9	0.12426133
72	0x3d9b46e2	0.07581879
73	0xbe406fd1	-0.18792655
74	0x3d2e7997	0.042596426
75	0x3e40f0ba	0.1884183
76	0xbd16b616	-0.036794744
77	0x3bc87c9d	0.0061183707
78	0x3dc571f9	0.09640879
79	0xbdeb3b73	-0.114859484
80	0xbda46994	-0.0802795
81	0xbd9aca6e	-0.07558142
82	0x3d9ae6e4	0.0756357
83	0xbcc37941	-0.02386153
84	0xbdc05309	-0.09390838
85	0x3c49936f	0.012303217
86	0xbc29d675	-0.010366072
87	0x3d90a0f1	0.07061947
88	0xbe3fcec2	-0.18731216
89	0x3e2ac469	0.16676487
90	0xbe16afd6	-0.14715514
91	0xbcb2cd48	-0.021826401
92	0x3d5d6180	0.05404806
93	0x3e825f76	0.25463456
94	0x3c1df1ab	0.009640138
95	0xbdfc3a24	-0.12315777
96	0xbe0371e7	-0.12836419
97	0x3cff9297	0.03119783
98	0xbd2631c5	-0.040574808
99	0xbe6f1188	-0.23346531
100	0xbe4bba11	-0.19895197
101	0x3ca573f8	0.0201969
102	0x3e05017a	0.12988845
103	0x3e0fd087	0.1404439
104	0x3d11e0b3	0.03561468
105	0xbd9b284d	-0.07576046
106	0xbd645339	-0.05574343
107	0xbc0efbd7	-0.0087270355
108	0x3dd9034e	0.105963334
109	0x3e2bb1fb	0.16767113
110	0xbde239ac	-0.11046156
111	0xbba7ada2	-0.005117134
112	0xbe9a4fd8	-0.3013904
113	0xbdc59317	-0.09647196
114	0x3d8ae8c9	0.067826815
115	0x3d329e28	0.04360786
116	0x3de9e52c	0.11420664
117	0xbe174a23	-0.14774375
118	0xbda16417	-0.07880419
119	0x3c890fcf	0.016731171
120	0x3c9e7b4f	0.019345907
121	0xbca2ca2a	-0.01987179
122	0xbcbece39	-0.023291694
123	0x3e39c5d1	0.18141867
124	0x3b3b1658	0.0028547253
125	0xbb5c0fd3	-0.0033578768
126	0x3ccdd726	0.025127005
127	0xbd2f26fd	-0.04276179
128	0xbc9fa4d8	-0.019487783
129	0xbe3aa7ba	-0.18228045
130	0x3e11517e	0.14191243
131	0xbe2437da	-0.1603693
132	0xbde18afc	-0.11012837
133	0xbdfc6322	-0.123235956
134	0xbe024551	-0.12721755
135	0xbd808dbc	-0.06277034
136	0xbe558a0e	-0.20853445
137	0xbd851cc9	-0.06499631
138	0xbd8a4549	-0.06751496
139	0x3dc9856b	0.098399006
140	0x3d556cf0	0.052105844
141	0x3dc772de	0.09738706
142	0x3d2f1fdd	0.042754997
143	0x3ddd20a3	0.107972406
144	0xbc381faf	-0.011238023
145	0xbdd90a94	-0.10597721
146	0xbe1375c1	-0.14400388
147	0xbcdcf709	-0.026973264
148	0x3e172945	0.14761837
149	0xbd0ff63a	-0.03514693
150	0xbdaa267d	-0.08308122
151	0x3c6af38d	0.014340294
152	0x3d7d1189	0.0617843
153	0xbe012c65	-0.12614591
154	0x3da515f8	0.08060831
155	0x3d83f2e4	0.06442812
156	0x3d17a0e8	0.037018687
157	0x3c864b51	0.016393336
158	0x3e709a77	0.23496424
159	0xbdb6cee2	-0.089261785
160	0xbdcbfa71	-0.09959877
161	0x3d14f498	0.036366075
162	0xbd7ec663	-0.062200915
163	0xbe12167f	-0.14266394
164	0xbc8ebdb9	-0.017424451
165	0x3e35de96	0.17760691
166	0xbd8c8475	-0.06861202
167	0x3da55b89	0.080740996
168	0x3cc2c911	0.023777517
169	0x3dca4ad5	0.09877554
170	0xbd77d8d3	-0.060509514
171	0xbd4229bd	-0.047403086
172	0xbdb19277	-0.08670514
173	0xbce84415	-0.028352777
174	0xbd2a46c4	-0.041571394
175	0x3dff202c	0.12457308
176	0xbcdd3814	-0.02700428
177	0x3dffa9d7	0.12483566
178	0xbbdb2727	-0.006688017
179	0xbcd1ec61	-0.02562541
180	0x3da5abe3	0.080894254
181	0x3db8858a	0.090098456
182	0x3d215cb6	0.039395057
183	0x3ddaf3fb	0.10691067
184	0xbd0fb6a3	-0.035086285
185	0x3e5095da	0.20369664
186	0xbdc319be	-0.09526394
187	0xbdc52c1e	-0.09627555
188	0x3d1031a0	0.035203576
189	0x3d83ed3e	0.06441735
190	0x3e89cf14	0.269158
191	0x3deecea7	0.116605096
192	0xbdafe0e8	-0.08587819
193	0xbc99e539	-0.01878606
194	0xbb2f3494	-0.002673422
195	0x3dac8abd	0.084249
196	0x3cbadbf2	0.022809956
197	0x3d0e41cc	0.034730718
198	0x3d5d4c99	0.054028127
199	0xbe13bf1a	-0.14428368
200	0xbd0cdbb2	-0.034389205
201	0x3e267b9c	0.1625809
202	0x3d55b96e	0.052178793
203	0xbbd71727	-0.0065640393
204	0xbbbd82f7	-0.0057834345
205	0x3d27102f	0.04078692
206	0xbd4896a4	-0.048971787
207	0xbcb3f6fe	-0.021968361
208	0xbda9f768	-0.08299142
209	0xbcbbe96e	-0.022938456
210	0xbc25cdc7	-0.010119862
211	0x3d73a4d6	0.05948337
212	0x3d49ade8	0.049238116
213	0xbcd34980	-0.025791883
214	0x3dd715c4	0.10502198
215	0x3c256222	0.0100941975
216	0x3b9bc7e9	0.0047540558
217	0x3d9af8d6	0.07566993
218	0xbd01810b	-0.031617206
219	0x3dadaa0a	0.08479698
220	0xbded4e97	-0.115872554
221	0xbce455ff	-0.027873037
222	0x3c75ecdc	0.015010085
223	0x3b89fbb2	0.0042109126
224	0xbdb6e7d5	-0.08930937
225	0xbcb81666	-0.022471618
226	0x3db19caf	0.08672463
227	0xbb4e4ee6	-0.0031480133
228	0xbd1e09d9	-0.03858361
229	0x3c1a67a8	0.009424128
230	0x3d707360	0.05870378
231	0xbd84d0bc	-0.064851254
232	0x3d40e50d	0.04709344
233	0xbb0dd984	-0.0021644542
234	0xbd166611	-0.03671843
235	0x3d91cd23	0.07119205
236	0xbdb0695c	-0.08613846
237	0x3bd7858f	0.0065772007
238	0x3c03331c	0.008007791
239	0x3e2e7b22	0.17039159
240	0xbdaed00d	-0.08535776
241	0x3cd0a227	0.025467945
242	0x3d8a482d	0.06752048
243	0xbd2b8522	-0.041875012
244	0xbd3e6a51	-0.04648811
245	0x3d940191	0.07226861
246	0xbd839ac0	-0.064260006
247	0x3dad3f3c	0.084593266
248	0xbd9591f4	-0.07303229
249	0xbd64d4fc	-0.05586718
250	0x3ddac982	0.10682966
251	0x3df64ff1	0.12026966
252	0xbd557041	-0.052109007
253	0xbc9b8abc	-0.018987052
254	0xbca9c3eb	-0.020723304
255	0xbd7cd3a1	-0.061725263

fc3.bias f4 [32]
0	0xbdd56d63	-0.104212545
1	0xbafc5cb5	-0.0019253703
2	0x3e38964e	0.18026087
3	0xbb753bc1	-0.003741965
4	0xbdf14455	-0.117806114
5	0x3da88334	0.0822815
6	0x3d18a117	0.037263002
7	0x3de30dc7	0.11086612
8	0xbbae8ab7	-0.0053265947
9	0x3d3d5a86	0.046228908
10	0xbe2989f9	-0.16556539
11	0x3c094e6e	0.0083805155
12	0xbde1c871	-0.11024559
13	0xbdd1c238	-0.102421224
14	0x3d987672	0.07444467
15	0x3cca3d08	0.024687305
16	0x3d8afccb	0.06786498
17	0xbe82fcbe	-0.25583452
18	0xbe34d912	-0.17660931
19	0xbe2c9d21	-0.16856815
20	0xbd1bbd1d	-0.03802215
21	0x3d6d7f89	0.057982955
22	0xbd074a4f	-0.03302985
23	0x3df6e090	0.12054551
24	0xbd960def	-0.07326876
25	0xbc2f56d0	-0.01070185
26	0xbc2dfb38	-0.010618977
27	0xbe1b7126	-0.15179881
28	0xbd3dcd18	-0.04633817
29	0x3da1bc0e	0.07897197
30	0x3d08e4fb	0.033421498
31	0x3de5bde9	0.11217863

fc4.weight f4 [4, 32]
0	0x3a5e4783	0.0008479284
1	0xbda8a424	-0.08234432
2	0x3db0a127	0.08624487
3	0x3af973ed	0.0019031741
4	0xbe6e79c8	-0.23288643
5	0x3cdd4659	0.027011083
6	0x3bb41c16	0.005496512
7	0x3d5d3718	0.05400762
8	0xbd9159bc	-0.070971936
9	0x3dd6bf6c	0.104857296
10	0xbe451570	-0.19246459
11	0x3e0b178c	0.13583201
12	0xbdfaad07	-0.122400336
13	0x3d3eb103	0.04655553
14	0x3cb0b16a	0.021568973
15	0xbaf13914	-0.0018403851
16	0x3b218ee8	0.002465183
17	0xbde21c4a	-0.11040552
18	0xbe0b9cc9	-0.13634028
19	0xbe0d3778	-0.13790691
20	0x3d93f691	0.07224763
21	0xbb5ba2d4	-0.0033513801
22	0x3d5bd6ce	0.05367165
23	0x3d5398a9	0.05165926
24	0xba1651d0	-0.0005734237
25	0x3d12d7fd	0.035850514
26	0x3d6ae35b	0.05734573
27	0xbdeb73b4	-0.11496678
28	0xbd88a155	-0.06671397
29	0xb72a01c0	-1.0133197e-05
30	0xbbe44df1	-0.006967299
31	0x3e23fc9f	0.16014336
32	0xbaa75183	-0.0012765381
33	0xbbdf343a	-0.006811646
34	0x3e19268b	0.14956109
35	0xbbce87b9	-0.0063028005
36	0xbda512b3	-0.08060207
37	0xbbf7a041	-0.0075569456
38	0x3d126f46	0.03575065
39	0x3e00d109	0.1257974
40	0x3cf58930	0.029972643
41	0xbdb0cd66	-0.08632927
42	0xbdc76cd0	-0.09737551
43	0x3b5dc7f3	0.0033841103
44	0xbe6a46b7	-0.22878538
45	0x3d930f7b	0.07180687
46	0xbcba6fad	-0.02275833
47	0x3c76558e	0.015035046
48	0xbd51ab00	-0.05118847
49	0xbe145050	-0.14483762
50	0xbd544ac2	-0.051829107
51	0xbe06156e	-0.13094112
52	0x3d8cddc7	0.06878238
53	0xbad6946b	-0.0016371136
54	0x3b542659	0.003237149
55	0x3ce5b084	0.02803827
56	0x3c872712	0.016498122
57	0x3e0959f7	0.13413225
58	0xbe1894d5	-0.14900525
59	0xbca28ae8	-0.019841626
60	0xbe03db24	-0.12876564
61	0xbadf294c	-0.0017025857
62	0x3c27bff7	0.010238639
63	0x3e1b6fcb	0.15179364
64	0xbb0bbc48	-0.0021321941
65	0xbdc31867	-0.09526139
66	0x3d8c3a13	0.06847014
67	0xbc8e1669	-0.01734467
68	0xbe75c9b1	-0.2400272
69	0x3d14390c	0.036187217
70	0x3c906328	0.017625406
71	0x3e2f7201	0.17133333
72	0x3d63a1a6	0.05557408
73	0xbc301b21	-0.010748656
74	0xbcedfde6	-0.029051732
75	0x3e157380	0.14594841
76	0xbe140da2	-0.14458326
77	0xbe07bf99	-0.13256682
78	0x3c3ffcf6	0.011718025
79	0x39e0c58f	0.00042871802
80	0x3c9120b5	0.017715791
81	0x3d13d857	0.03609499
82	0xbe4d858f	-0.2007048
83	0xbe239000	-0.159729
84	0x3e23e672	0.16005877
85	0xbb529eeb	-0.003213818
86	0xbd4354b9	-0.04768822
87	0x3b10a3bf	0.0022070257
88	0xbc5743f4	-0.01313876
89	0xbc63ac7d	-0.013896105
90	0xbda1d9bd	-0.079028584
91	0xbba0c22a	-0.0049059587
92	0xbdb2fef1	-0.087400325
93	0x3d649c59	0.055813167
94	0x3b2087b2	0.0024494943
95	0x3dac8a6e	0.08424841
96	0x3b6bcf68	0.0035981778
97	0xbd30a834	-0.04312916
98	0x3d54d27d	0.05195855
99	0x3c0a9596	0.008458516
100	0xbe367436	-0.17817768
101	0x3d877caf	0.066155784
102	0x3d854685	0.06507591
103	0xbca59633	-0.020213222
104	0x3d8662cf	0.06561815
105	0x3e0ea170	0.13928771
106	0xbe714f01	-0.23565294
107	0xbd4c5ed0	-0.049895108
108	0x3c9a406e	0.01882955
109	0xbcbe93b6	-0.023263793
110	0xbd049512	-0.032368727
111	0xbb352d33	-0.002764535
112	0x3bf28b16	0.0074018342
113	0xbe1dcab5	-0.15409358
114	0xbe22debc	-0.15905279
115	0xbe20ea1a	-0.15714303
116	0x3cddcb00	0.027074337
117	0x3b70d2cd	0.003674674
118	0x3e57b101	0.21063615
119	0x3cdb21e4	0.026749559
120	0x39e2984b	0.00043219546
121	0x3e100b07	0.14066707
122	0xbe3c3e56	-0.18383154
123	0xbde1005d	-0.109863974
124	0xbe18be6f	-0.14916395
125	0x3e342d46	0.17595395
126	0xbbbeaa6f	-0.005818657
127	0x3db6086d	0.08888326

fc4.bias f4 [4]
0	0x3e71e6d3	0.23623209
1	0x3de12d32	0.109949484
2	0x3e45066f	0.19240735
3	0x3d6bc3a0	0.05755961
